half_cheetah_im.pt (torch, 290456 bytes, 6 tensors)

fc1.weight f4 [256, 17]
00000000: ae50 803d 2ecf 19be 5d51 79bd 7bd6 05be
00000010: df85 1b3e 6ffa b9bd 7fd6 1ebe 878a 303e
00000020: 6c57 7f3b b702 353d 9329 ef3d f451 073d
00000030: 9463 563e f258 313e 7cf9 9cbd 9d1d 013e
00000040: 9af8 c9bd 176a 863e 3708 57be ca90 1cbd
00000050: ebad 5b3e ca0a b73b a9cf 90bd 97c5 1dbe
00000060: 8d35 c8bd 2640 193e 3978 223e 4706 27be
00000070: 4740 b43b a1c7 00be af3f 63be 50a2 18bd
00000080: d60d 6d3d 02f6 4dbe ab40 a5bc 4cdf 7fbe
00000090: e57e 61be a98a 06bd acb0 8cbd 0c8d 9a3d
000000a0: 2dab b43d 68b9 3cbe c7e8 62bd 8f1f d7bd
000000b0: 500b 333e 8a8d 5bbc 6d70 3fbe ede1 453e
000000c0: b357 b2bd ee21 cabd aa1b 1f3e 7412 a93d
000000d0: 4d3d ec3d 8185 7dbe 43d6 f03b 8212 643e
000000e0: 9cf0 3b3e 8e72 53bc 75d2 2c3e ea28 7abe
000000f0: ebee 303e 6d15 123e d954 983d 3865 c73d
00000100: b242 523c 20a6 6f3e b3d5 57be 977b b3bd
00000110: 41e9 393e 2216 5bbe 7fc7 95bd 98d6 9d3d
00000120: c7d4 d7bd f66c eebd 96ec 8cbd 6245 03be
00000130: 2eba 1bbd dd8b 7a3e cf81 34be 771e a7bd
00000140: f5e4 3f3d 004e 393d 0344 dabd 7155 4bbe
00000150: be02 343e 5012 f13d 902f 0dbe c2e9 173d
00000160: 81f0 2cbe 3fde 1e3d 84db 383e 25da efbd
00000170: 4cab 933e 7497 9b3e 6791 8d3a d8ef 1dbd
00000180: 822b e63d cb4d 483d abdb a6bc 08b0 2b3e
00000190: 5f61 28be a9dd bb3d a373 b53d 9af9 16bc
000001a0: fede a6bd d640 58be bb9f af3c 2e0f 53bc
000001b0: 9760 43bd 9f0c 033e 27e6 55be 4d9a b73d
000001c0: e0e7 263e 2419 0b3e 18b0 1cbe 0808 63be
000001d0: c7ff aabd d59a 20be 7a0d 66bd e241 fa3b
000001e0: e217 f0bd 2f73 523e b6ee dabd bb1c 80bd
000001f0: f165 063e d369 3d3e 53c5 f6bc afb7 80be
00000200: 3606 59be 37b7 67be a639 203e a7f4 37bd
00000210: ddb6 3bbe 3a7d 50be cc22 5dbe 6da6 cd3d
00000220: 89de 67be 4ff5 a93c ad87 f5bd 21c1 3d3e
00000230: aed1 cd3b f2b3 123d d84c a2bd cf04 a93d
00000240: 0c49 813b 7275 95bc 77ce f3bd 8ce4 793e
00000250: b651 513e 3614 66be d8c3 103e 4016 413e
00000260: d26c 933b 8b9a 1b3e 52e8 893e b5e2 2e3e
00000270: 193f 593e 0fab f53c 0d60 523e 9e9a 17be
00000280: 1da5 093e dd7d e8bc a342 ecbd a5e3 613e
00000290: cd0e fbbd bab4 853c 82fa cbbd 14f5 dfbd
000002a0: 14c6 09be 38a4 6a3e e221 d53d 0181 ce3d
000002b0: 3117 673e e250 78be 1cbe 1b3e 64f1 45bd
000002c0: faf8 44be d5e9 c0bd 8ebd 12be c29a a9bd
000002d0: 5363 bb3d 3f13 223e 7477 57be da3a 073e
000002e0: 5abd 173d aaed 5dbe 0bb0 cf3d 66ab 75bd
000002f0: de92 6f3d 266b 253d 66b2 38be 7335 6e3e
00000300: 7dec b5bd f67b 3b3e a7a0 0c3e 094d 5f3d
00000310: faf2 223e 7539 32be c14d 54bd f6e5 4cbc
00000320: f2e9 1fbe b700 c9bc 104d 793e d59b ba3c
00000330: 7f23 42be a7b4 c43d 951a 873d 0958 3bbe
00000340: e1e1 6bbd 1a25 f73d bd1c 4fbe 78c3 16bd
00000350: 2724 2e3e 6631 8d3c b849 603d e0be 41be
00000360: 1ae4 f53d 1ec7 53be 3329 abbd 2974 1dbe
00000370: 0508 db3d 0ce9 613e 83f5 c93d 30fa 0dbe
00000380: 5065 513e 5473 6c3c c8d5 cbbd e806 153e
00000390: c790 6d3d 7b1d 90bd 4809 273e b2a8 0bbe
000003a0: 8903 7e3d 39a5 60be 8722 863c d66a f73d
000003b0: 1565 a13d 24d5 1a3e 4728 a0be 11a4 43be
000003c0: 77f0 6e3e 7361 543e 102f ec3d 2426 2abe
000003d0: 8c67 423d 57ae 34be 9a8c 013c e305 6ebd
000003e0: 4207 6dbe 9c89 a4bd 2037 3a3e c094 e3bb
000003f0: f9db a23d 3665 4cbe dcf6 5b3e 7ed4 81be
0.062653884 -0.15020439 -0.06086861 -0.13070099 0.15187787 -0.090809695 -0.15511511 0.17240344
0.003896202 0.044192042 0.116778515 0.03303714 0.20936424 0.17319086 -0.07664773 0.12608953
-0.0986187 0.26252815 -0.20999227 -0.03822402 0.21453063 0.005586003 -0.07070858 -0.15407406
-0.09775839 0.14965877 0.15866174 -0.16310988 0.0055008265 -0.12576152 -0.22192262 -0.03726417
0.057874523 -0.20113376 -0.020172438 -0.24987525 -0.22021063 -0.03284708 -0.06869635 0.07546434
0.08821712 -0.18430102 -0.055397775 -0.10504066 0.17484784 -0.013400445 -0.18695231 0.19324465
-0.087081335 -0.09869753 0.15537897 0.08255473 0.1153513 -0.24757959 0.0073497607 0.22272685
0.18353504 -0.01290573 0.16877158 -0.2442967 0.1727864 0.14265986 0.074380584 0.09736103
0.012833284 0.23403215 -0.21077614 -0.08763807 0.18155386 -0.21395162 -0.073134415 0.07706946
-0.10538631 -0.116418764 -0.06881063 -0.12819436 -0.03801935 0.24467416 -0.17627643 -0.081601076
0.04684921 0.045240402 -0.106575035 -0.19856812 0.17579171 0.11771071 -0.13787675 0.037088163
-0.1688862 0.03878617 0.18052489 -0.1171153 0.28841627 0.30388987 0.001080078 -0.03855881
0.11238767 0.048902314 -0.020368418 0.1676637 -0.16443394 0.09173138 0.088599466 -0.009214783
-0.08148001 -0.21118483 0.02143847 -0.012882037 -0.047699537 0.12797783 -0.20888577 0.089649774
0.16299391 0.13583809 -0.1530155 -0.22171032 -0.08349567 -0.15684064 -0.056165196 0.0076372484
-0.11723305 0.20551752 -0.10690062 -0.0625548 0.13124825 0.184974 -0.030123388 -0.2514014
-0.21193776 -0.22628485 0.15646991 -0.044911053 -0.18331476 -0.2036027 -0.21595305 0.10041509
-0.22643484 0.020746855 -0.11988769 0.18530704 0.0062810993 0.03581614 -0.07924813 0.0825287
0.0039454754 -0.018244479 -0.119046144 0.2440359 0.20441326 -0.22468647 0.14137208 0.18856144
0.0044990564 0.15195672 0.2693506 0.1707867 0.21215476 0.029988794 0.20544453 -0.14805076
0.13441892 -0.028380329 -0.115361474 0.22059496 -0.122586824 0.016321529 -0.0995989 -0.10935417
-0.13454467 0.22914207 0.10406853 0.10083199 0.2256744 -0.24249604 0.1520924 -0.04832591
-0.19235602 -0.094196 -0.14330122 -0.08281471 0.09149804 0.15827654 -0.21041662 0.13206044
0.037045814 -0.21672693 0.101409994 -0.05997791 0.058489673 0.040385388 -0.18036804 0.23262577
-0.08882997 0.18309006 0.13733159 0.054516826 0.15913 -0.1740473 -0.051831964 -0.012505999
-0.15616587 -0.024536474 0.24345803 0.022779385 -0.18958853 0.09604769 0.06596867 -0.18295301
-0.05758846 0.120676234 -0.20225807 -0.036807507 0.17005979 0.01723547 0.054757804 -0.1892047
0.120063975 -0.20681426 -0.083574675 -0.15376343 0.10694889 0.22061557 0.09861281 -0.1386497
0.20448804 0.014431793 -0.09952885 0.14553416 0.0579994 -0.07036873 0.16312134 -0.13638571
0.06201509 -0.21938027 0.016373886 0.12080924 0.07880608 0.15120369 -0.3128073 -0.19105555
0.23333918 0.20740299 0.11532414 -0.16616112 0.04746203 -0.1764463 0.007907057 -0.058111083
-0.231473 -0.080340594 0.18185091 -0.0069452226 0.07952113 -0.19960484 0.21480888 -0.2535743

fc1.bias f4 [256]
00000000: eb0a 3e3e fb00 92bd a49b d4bc 1a72 03bd
00000010: 437d 633e 9e30 95bd eea8 3bbd 916a 4abe
00000020: 2427 41be 34d0 1a3e 1e4e 063e 4c0d 2d3e
00000030: 686b 903d c065 2d3d 7e4f 02be b136 d7bd
00000040: 3d14 44be b844 4f3e 39ac 04be 242d 13be
00000050: 722d f63c 5b87 ca3d e50a 823d b754 61be
00000060: 9dc5 0a3e 0a9f 2e3d bc88 17bd c274 d0bd
00000070: ca7d 383c b97b 61be d770 bf3d 4dbb 82be
00000080: 32f1 113e 0e12 41be bbde 343e 741a 973c
00000090: f7a3 4ebe 39d1 823d 047d 2ebd 9abd 4f3e
000000a0: 9aa5 ccbd 011a c6bd 96ba 9e3d 852a 33be
000000b0: 4c05 34bd e75b bb3d bb59 603e 7eb1 6abe
000000c0: c70b 28bd 37a1 4d3d 9b39 6b3e 5ae7 093e
000000d0: f798 563d 69ca dbbd 7105 143e 8f11 383e
000000e0: 5165 10be d993 013e 48f8 3d3d 1c1b cabd
000000f0: 024b 153e 66ec 90be 569b 673e 9608 39be
00000100: 5838 6a3d bad0 e3bb c112 49be b88a 0e3a
00000110: bfe8 183e 6cc0 a9bd 0f19 453e efe0 f5bc
00000120: 55c0 d9bd bbc2 ecbd 4752 39be 20de 39be
00000130: 76f6 4dbe 289f 78be 293c b5bd 2f6f 063d
00000140: 9d4d 8e3d 20c3 45be 2652 113e ee81 4e3e
00000150: bfc8 8a3d a8a4 ebbd c390 b73c e819 1d3d
00000160: e621 fd3d b4e2 363e 72c8 8c3d ac3f 9a3d
00000170: 94de c1bd 40dc 86bd 1ac4 b33d 2ed4 b7bd
00000180: 0be8 3b3e 282c 1bbe c504 263d 85e9 873c
00000190: ef55 373d 1306 093e 2f7d 4fbe 1a62 0f3e
000001a0: 1958 1e3e 73da 2bbd 72c5 7bbd 4ed9 523e
000001b0: 03c6 bc3c fab3 bf3d 0b36 243e 079b 5dbe
000001c0: 7e31 0e3e f7e1 61be e7cf 153e 122b 3c3e
000001d0: 56ed c73b 79b6 85bd d97e 88be 0663 cf3d
000001e0: fd92 3f3e 2ede 483e cbd7 f63d 6547 4e3e
000001f0: 1bc0 06be 2bc7 70be d55b 16be 84f7 c53d
00000200: f6ba 09be edac 143e 6ccb 873d bf6e 90bd
00000210: b1c8 0bbe 5e0b 19be d5d0 25be 60b8 03be
00000220: 3936 bebc 6151 65be 34d3 813d 2e81 873e
00000230: 4a3a c3bd 5097 81be 8864 d13c cf35 65be
00000240: 73e1 0c3d c097 ccbd ae5e b8bd d3dd a33d
00000250: 3243 8e3e f63a 1fbe 86dc 0a3e d3fc 063e
00000260: 9114 f5bb 004e 1a3e 3d41 9e3d 7aca 093d
00000270: d592 1a3e fa62 a4bd 6f4a 10bd cc5c 8bbe
00000280: 8ad0 81bd 1751 813d 6b80 cd3d 3bf4 49be
00000290: 19d9 063d ca17 843e e813 7b3e 5d23 ffbd
000002a0: 093d 2abe cb46 8fbc 99dc 8abd cf56 923c
000002b0: d863 863e 2fe8 06be 7f82 573d 4021 523d
000002c0: 51e9 03be 8715 5a3e caa9 64bd 6a39 5d3c
000002d0: fafb d7bd b53a 06bb 14f5 5b3c b901 443e
000002e0: 0d75 983d b474 013e 8660 f3bb 2679 45be
000002f0: 8d26 97bc 60e7 8a3b 6b20 073d 490f 42be
00000300: 8a23 933d e5fa 1abe 4cae 0c3e 2468 2f3e
00000310: 3516 973d 0d80 5a3d eabe 4b3e b56e 433e
00000320: 6708 f63d ad62 763d 0764 233e 8624 23be
00000330: 677e b6bd 6276 3cbe c6b4 71be fcb5 a23c
00000340: 8de5 06bd 6cad 95bc baca 453e 1340 4f3e
00000350: 5ff1 8e3e 6a2b 1fbe 8b19 f43c a2c9 433e
00000360: c4e7 b2bd 957d a0bd 595c e83d ee1f 733e
00000370: 7547 7cbe c40a fdbd 8be4 28be 01da 08bc
00000380: bd07 343e a28e 71bd 4306 743e 38e9 43be
00000390: 44c4 4e3e d2d5 603e a42a 8a3e 5492 503e
000003a0: fbf6 60bd 809a 273e c315 c23c 1e02 51be
000003b0: ea2e a5bd 5f78 293e 2d29 fcbd e0d3 a2bd
000003c0: b657 c33c 388d 583e 91a9 92bd 752c 543e
000003d0: 6cc9 33be c45a 483e 4168 92bd c534 513e
000003e0: b606 3f3e 74c5 0bbb bfdc cb3d 98f0 35be
000003f0: cd91 843e 4508 6bbd 74dc 393e b37e 8abe
0.18558852 -0.07129093 -0.025953121 -0.032091238 0.22215752 -0.072846636 -0.0458154 -0.19767214
-0.18862587 0.15118486 0.13115737 0.16899604 0.07051736 0.042333364 -0.12725636 -0.105084784
-0.19148345 0.20241058 -0.12956323 -0.14372689 0.030050967 0.09889098 0.06349734 -0.22004972
0.13551946 0.04263214 -0.036995634 -0.1017852 0.011260459 -0.22019853 0.09347694 -0.25533524
0.14252165 -0.18854544 0.1766309 0.018445231 -0.20179735 0.06387562 -0.042599693 0.20287171
-0.099925235 -0.096729286 0.07750432 -0.17496689 -0.043950364 0.09148388 0.2190923 -0.2291927
-0.041026857 0.050202575 0.22971193 0.1346716 0.052391972 -0.10731966 0.144552 0.17975448
-0.14101149 0.12654056 0.046379358 -0.09868452 0.14579394 -0.28305358 0.2261785 -0.18069682
0.05718264 -0.0069523724 -0.1963606 0.0005437541 0.14932536 -0.08288655 0.1924784 -0.030014483
-0.106323875 -0.115605794 -0.18097793 -0.1815114 -0.20113549 -0.24279463 -0.08849365 0.032820877
0.06948397 -0.19312716 0.14191493 0.20166752 0.067765705 -0.11506015 0.022407895 0.038354784
0.12359981 0.17859918 0.068741694 0.07531676 -0.094662815 -0.06584978 0.08777638 -0.08976017
0.18350236 -0.15153563 0.040531892 0.016590843 0.044759687 0.13381223 -0.20262598 0.14002267
0.15463294 -0.041956376 -0.061467595 0.20590708 0.023043638 0.093605 0.16036241 -0.2164117
0.13886067 -0.22058855 0.1463009 0.18375805 0.0061012907 -0.065289445 -0.26659277 0.10126309
0.18708415 0.19616005 0.12052878 0.20144422 -0.1315922 -0.23513477 -0.14683469 0.096663505
-0.13450226 0.14519091 0.066305965 -0.07052373 -0.13650776 -0.14945742 -0.16192944 -0.12863302
-0.023219215 -0.22394325 0.06339112 0.26465744 -0.09532602 -0.25310755 0.025560632 -0.22383808
0.034394693 -0.099898815 -0.09002434 0.08001294 0.2778564 -0.15549836 0.13560686 0.13182382
-0.0074792583 0.15068817 0.07727287 0.033640362 0.15095074 -0.08026691 -0.035227235 -0.27219236
-0.06338604 0.06314295 0.100342594 -0.19722073 0.032921884 0.257994 0.24519312 -0.12457917
-0.16624846 -0.017489811 -0.06780357 0.01786366 0.2624805 -0.13174509 0.052614685 0.05130124
-0.12881972 0.21297275 -0.055825986 0.013502458 -0.105461076 -0.002048177 0.01342513 0.19141282
0.07444201 0.12642175 -0.007427278 -0.19284496 -0.018451 0.004239008 0.0329899 -0.18951143
0.07184513 -0.15134771 0.13738364 0.1712957 0.073772825 0.053344775 0.19897047 0.190852
0.12013321 0.0601527 0.15956126 -0.15931901 -0.08910828 -0.18404534 -0.23604116 0.019862168
-0.03293376 -0.01827117 0.19315615 0.20239286 0.27918527 -0.15543905 0.029797336 0.19119886
-0.08735612 -0.07836453 0.11345739 0.23742649 -0.24636634 -0.12355569 -0.16493432 -0.008352757
0.17581077 -0.058973916 0.23830514 -0.19131935 0.20192057 0.21956566 0.26985657 0.2036832
-0.05492304 0.16367531 0.023692017 -0.20410964 -0.08065589 0.16549824 -0.12312541 -0.07950568
0.023845535 0.2114762 -0.071612485 0.20720084 -0.17557305 0.19565874 -0.07148791 0.20430286
0.18654904 -0.0021327408 0.09954213 -0.1776756 0.25892487 -0.057380933 0.18150502 -0.2704979

fc2.weight f4 [256, 256]
00000000: 1fc7 6cbd ebf1 0b3d 8501 20bd fa59 2d3d
00000010: 1ab4 1bbd 960a 883d d565 393d 0599 46bd
00000020: 95f7 bbbc f6fa 46bd adf2 75bc 3ae1 4dbc
00000030: c684 323d 7b93 0abd 2bb2 4cbd d73b 40bd
00000040: 4601 21bd a440 503c d499 ffbc a45a 66bc
00000050: 0cde 803c 7e74 813b 5e48 bfbc 0a6a 3dbd
00000060: b882 28bc 7bbc 553d cc07 3e3d cc98 bbbc
00000070: 09cc 2d3d 6ecc cc3c 2de5 4cbc 2239 3dbd
00000080: 6f68 2fbd 1ad7 573c e44a 9abc 2e8e 8b3b
00000090: ab28 41ba 3f80 d73c 5750 9cbc 644b ca3c
000000a0: 96cf 493d d7a8 84bd 1529 d4bb 3ec8 fd3b
000000b0: 7ebb 95bc ca13 4e3c 063e 5abd d3cc e9bc
000000c0: 920f 8fbd 4cbf 0cbb 442e f23c 8b6f 63bd
000000d0: 973e 1dbd f8d9 3e3d 59bb a03c 43b0 beba
000000e0: 2b26 f4bc ed73 4bbd 4b88 283d 29eb 1f3d
000000f0: 2a2e 54bd 2293 913b 361a 3a3c 8460 41bd
00000100: fd30 0b3d 1623 61bd 8b5c 56bd ead0 5e3c
00000110: e538 173d d832 88bd bd23 e6bb 225b 983c
00000120: 65da 6cbd f4a3 2c3d 6799 193d c6ca ee3c
00000130: f485 30bd a41c 4dbd 6603 d1bb d707 80bd
00000140: 7ab5 123c 8777 2b3b 5895 333d 7872 4a3d
00000150: 708a 033d 7881 e13a 787c 773c e40e f2bc
00000160: c76b 59bd c3e1 313c d0cb d03b 3881 27bd
00000170: 8482 5abc 5450 313d 0ee3 1e3d 9157 5cbd
00000180: caf9 493d 4513 3ebd bf7d 3fbd 8f4b ae3a
00000190: 24be 783c 868c 30bd f90d 8abd fda9 403a
000001a0: b784 54bb b327 78bd c894 8abd 7e12 d9bb
000001b0: 083f 59bd 4a90 4e3d c7e1 bfbb 3004 86bb
000001c0: 33b1 f3bc 2bdc 4239 8942 58bd b7a2 973c
000001d0: c377 273d 2d33 60bd a18c 53bc 29a6 44bd
000001e0: a5b9 523d 9cef 9d3c 50c5 3dbd 3b74 86bd
000001f0: 6ea6 d3bc febd f4ba 5dd4 c3bb c6c6 8fbd
00000200: 4b6b 3abd ca66 acbc e235 203d 6dfd 70bb
00000210: a071 3fbd cbde 3bbc c804 86bd f2b8 f23c
00000220: aa59 34bd 08bd 583c 0932 7d3a 8c4a f93c
00000230: 8be0 f9bc 01fd 32bd 52d7 b23a 39ab ad3c
00000240: 6c70 58bc 20f5 053d 56d3 833c 0848 2ebc
00000250: 6106 2cbd 968f 9dbc fed1 0fbb ceda 59bd
00000260: de8e 2abd b681 0b3d e2b3 c8bc 746a 48bd
00000270: 09ea 4c3d dc88 8dbc 1b6d 4cbd f5fa ce3c
00000280: d4ab 71bd 33be dc3b 83ad 8abd b857 0dbd
00000290: 2753 2f3d 01a6 813d e2cb 50bd dca3 86bd
000002a0: d9b6 213c 36c5 d63a 0d0a c0bc 2a66 2fbd
000002b0: e43b aebb 3ada 863c e717 563d 77ae 4c3d
000002c0: 0a53 53bc 9a10 78bd 1e2f 82bd 9249 6dba
000002d0: c90c 03bc 2529 a23c 2f18 9dbc 2275 09bc
000002e0: 552c 503d 398b 85bd 62e8 84bd 819d 243d
000002f0: 7cd2 55bd e26b 673d 8ccf 4bba dfdf da3c
00000300: d8d9 6dbc 74bb 74bd 1844 77bd ee46 b7bc
00000310: d69e 09bc e95b d7bb 1af1 aebc f835 fcbc
00000320: 2c11 89bd 0d58 083d 70ff 623c 0062 093d
00000330: 0859 543d 0b62 253d b90e 6cbc 2474 f3bc
00000340: 5fe3 b6bc ffa7 5d39 7812 5ebd 627a 0ebd
00000350: c376 2bbd d1c3 71bd 6436 283d 4290 1a3d
00000360: ddf1 063d 187f a33c c443 863c 2599 233d
00000370: 5f52 61bd 9647 993c ef08 363d 7ad6 dd3c
00000380: ccf3 b33c 2392 97bc 721d 253d 6c42 f2bc
00000390: d82b cb3c 3a5b 923c a8d8 8fbd 1082 3dbd
000003a0: 7853 7fbd 39aa c2bc c599 0e3d 02bf 603b
000003b0: 0a5c 25bd b87b 473d 6fb5 2dbd c667 78bd
000003c0: 83d4 5f3b 8318 08bd 9e4b 4cbd d8d2 adbb
000003d0: 7d51 36bd eef7 2ebd fbba b0bc c941 2c3d
000003e0: 8fb5 48bd 4011 c33c 81bb 70bd 59b6 83bd
000003f0: b94c 4c3d 3096 90bd e832 55bd 80e8 873c
-0.057807084 0.034166258 -0.03906395 0.042322136 -0.038013555 0.06642644 0.04526313 -0.048485775
-0.022945205 -0.04857918 -0.015011472 -0.012565905 0.043583654 -0.033832055 -0.0499746 -0.046932068
-0.039307855 0.012710724 -0.03120128 -0.014059696 0.01573088 0.0039506545 -0.023349937 -0.046243705
-0.010285072 0.052181702 0.046394154 -0.022900008 0.04243091 0.024999823 -0.012505812 -0.046197064
-0.042824205 0.013173843 -0.018834539 0.0042588925 -0.0007368426 0.02630627 -0.019081278 0.024694152
0.049270235 -0.06477516 -0.006474624 0.007744818 -0.01827788 0.01257796 -0.053281806 -0.02854005
-0.06985392 -0.0021476327 0.029563077 -0.055526298 -0.03838977 0.04659459 0.019620584 -0.001454838
-0.029803356 -0.049671102 0.041145604 0.039042626 -0.051801838 0.0044425884 0.011358788 -0.047211185
0.033982266 -0.0549651 -0.05233435 0.013599614 0.036919493 -0.06650323 -0.0070233033 0.018598143
-0.057825465 0.042148545 0.03749981 0.029149424 -0.043096498 -0.050076142 -0.006378579 -0.06251495
0.0089544 0.0026163773 0.043843597 0.049425572 0.032114446 0.0017204722 0.015105359 -0.029548116
-0.0530813 0.010857048 0.0063719526 -0.040894717 -0.013336781 0.043289497 0.038790755 -0.053794447
0.049310483 -0.046405096 -0.04675078 0.0013297665 0.015182052 -0.043102764 -0.06740946 0.0007349549
-0.0032427737 -0.060584735 -0.06766659 -0.006624519 -0.053038627 0.050430574 -0.005855772 -0.0040898547
-0.029747581 0.000185833 -0.052797828 0.018510206 0.040885698 -0.054736305 -0.0129119465 -0.048010025
0.051446576 0.019279294 -0.04633075 -0.06565138 -0.025836196 -0.0018672345 -0.0059762434 -0.07020335
-0.04551248 -0.021045107 0.039113887 -0.0036772147 -0.04673922 -0.011466692 -0.06543881 0.029629204
-0.044030823 0.013228662 0.000965864 0.030431055 -0.030502578 -0.043698315 0.0013644493 0.02119981
-0.013210397 0.032704473 0.016091984 -0.010637291 -0.04199827 -0.019233506 -0.0021945233 -0.053187184
-0.041640155 0.03405925 -0.024499837 -0.048929647 0.05002788 -0.017277174 -0.04990874 0.02526615
-0.05900176 0.0067365407 -0.06771376 -0.034507483 0.04280391 0.06330491 -0.050975688 -0.065742224
0.009870254 0.0016385678 -0.023442293 -0.04282204 -0.005317198 0.01646148 0.05226889 0.04997107
-0.012898216 -0.060562707 -0.06356643 -0.00090517954 -0.007998654 0.01979501 -0.01917657 -0.008389743
0.05082353 -0.06520695 -0.06489636 0.04018927 -0.052202687 0.05649937 -0.00077747623 0.026718078
-0.01451727 -0.05974908 -0.060367674 -0.02237269 -0.008399686 -0.006572236 -0.0213552 -0.030787453
-0.066927284 0.033287097 0.013854846 0.033540726 0.05184272 0.040376704 -0.014407807 -0.029718466
-0.022325216 0.00021138786 -0.054216832 -0.034784682 -0.041861307 -0.059024636 0.041067496 0.03773523
0.032945503 0.019958064 0.016389735 0.039940972 -0.055010196 0.018710893 0.044442113 0.02707981
0.021966837 -0.0185023 0.040311284 -0.029572688 0.02480118 0.017865766 -0.07023746 -0.046266615
-0.06233546 -0.02376281 0.034814615 0.0034293537 -0.04037098 0.04870197 -0.042409357 -0.06064584
0.0034153766 -0.0332265 -0.0498768 -0.0053046755 -0.044511307 -0.042716913 -0.021573534 0.042054925
-0.049001273 0.023811936 -0.058772568 -0.064312644 0.049877856 -0.07059896 -0.0520505 0.016590357

fc2.bias f4 [256]
00000000: 1b0e 49bc 9d8a 843d db30 773d ab8d 5f3d
00000010: 8d63 7bbd b564 11bd 2391 5b3c 6805 7ebb
00000020: 02b4 883d 06ea 1dbd 08b2 8abd d30f 6ebc
00000030: 1a4d 233d ff01 2bbb 5f3c e7bc 7baf e33c
00000040: 6278 be3c 1177 173d c7e2 473d 30b3 863d
00000050: c88c a53d 1900 ad3c 5e30 043d 6339 8c3d
00000060: 9063 a8bb 0e14 c23c 8023 ed3c 827e 583d
00000070: 8278 dd3c a0cc 8bbc dd7b a43c b685 b6bc
00000080: 80de cebc b2f6 babc cfc1 35bd 24eb 123d
00000090: 60e3 ca3d 26ca ce3c 61ce 24bc 1e50 1ebc
000000a0: 0c6c be3d c7ba 4ebd 033d 3c3d 9053 e2bc
000000b0: 0cef 66bd c824 e93b 8730 2abc 9be0 2b3b
000000c0: 1cda 5c3c b780 8dbc 253d 353d c7f4 38bd
000000d0: 6941 2e3d 376e 95bd 0e54 00bd 02b3 5cbc
000000e0: 8535 473d 1e97 633d f57c 41bc db0e 703d
000000f0: 3fc6 2b3d dc35 cbbc 81c2 5bbd 065b 973c
00000100: 3f30 863d 7760 623c b960 073c 406f 4c3d
00000110: 6ec4 cb3b c1fb b53b ac9f 7fbd 9293 8e3d
00000120: 290a 533b 69fd 983c d734 a13d ae80 ffbc
00000130: 23a1 91bd c79a 343b e22c 3ebd d56c ee3c
00000140: c218 19bd 3040 0a3d e8ed 2bbd 6079 0d3d
00000150: 9201 8a3d 4ea1 15bd c21b 7cbc 35f5 2bbc
00000160: 3a5b d13d 009c 57bd fb36 273c bfc3 f33c
00000170: a333 0a3d 60f5 cabc f511 2f3d a599 d0bb
00000180: 093d 0bbd 8e2b cb3d 885f 8d3d fe5d 033d
00000190: 1062 983b 8cfa d53c d8d9 ac3c c11d 593d
000001a0: 0c5b 053e 1ce3 9b3d fd96 c2bc 0d4a d1bb
000001b0: eb64 35bc fcff b13d fff7 3a3d e073 c7bb
000001c0: 6bf6 1d3d 871d f63c c757 1e3c 5450 26bb
000001d0: f389 e9bc 6e94 883c 7db8 3f3c 9f88 013d
000001e0: 6a9c 993c fb9b 1d3d 6d9b ea3c 7c48 d63c
000001f0: df49 64bd 041a 85bc b383 233d aecb bdbc
00000200: 48cf 093c 2fc1 b33d 3baf 5c3d aa7e 723d
00000210: 3e66 803d f2b3 383d 597f c93c 6678 873d
00000220: e291 bc3d bfa9 04bb c0dc 52bc 03c8 b13d
00000230: 2463 14bc bacf cf3c a619 8fbd 0e1b 213d
00000240: ecce 153d 0803 153d f72a 1d3c b7b2 cb3b
00000250: 69eb babc 380e 3d3d 375f 93bd 46c1 943d
00000260: d2c9 e83c 886b 9abc 1e6e 1e3c e859 12bd
00000270: bf2a 9cbc e885 0a3c aa4a 51bc 1b89 833d
00000280: 2b5e dabb 27de bb3d d74c 943c 1691 39bd
00000290: f1b2 82bc c38a 213d 8046 513d b7d0 fb3b
000002a0: ae59 a13d dc9f a3bd 453d 463c 2910 a83d
000002b0: 971d 05bd 958b 0b3e 7844 febb f9c5 74bd
000002c0: d837 6fbd becf 35bc 95ad 13bd f09b 5d3d
000002d0: 90d6 8f3b 95e3 2e3d 2b82 913c 2dba 8abb
000002e0: 7c8c 47bd e55e 63bd 0f6b 503d 80d8 51ba
000002f0: 4a77 863d d5b4 933b efc5 8c3d 339e bc3c
00000300: bbe2 adbd c4c7 5cbd ffea 2fbc 97e0 7a3d
00000310: c44c 7b3c 2026 aa3d 1a43 313d f74b 033d
00000320: ab1e 053e d594 69bd 1f45 b9bb 39b0 bf3d
00000330: 9b5e 9a3d 8633 a63d b50e 60bd b611 bcbd
00000340: 8e41 10bd 1bf7 5bbd f9ad 21bc 3098 13bd
00000350: 72dd 453d c2bf a03c ff26 74bd b23c 8cbd
00000360: 6668 183d e393 76bc a8bb 0dbd 8b8c 29bb
00000370: ef0c a43c cf09 19bd 4e33 bcbc df05 ae3c
00000380: 3753 933d bd36 4cba b397 62bd 3226 64bd
00000390: 1a37 93bc 49ad 833b b6bb 4ebd 53a4 3c3c
000003a0: dc5e 55bb 1513 a53c 6475 273b 2c60 e73c
000003b0: cb14 893d 9f74 5bbd 8364 543d 0c0d c4bd
000003c0: 25ed 2b3d 4d32 cf3c db7d 523c 82b1 ccbc
000003d0: a572 9f3d a458 75bd f072 a0bc 00df 00bd
000003e0: 6140 1abc 7a6f c1bc a9cb 95bd 1287 e13c
000003f0: e25c c13d 8ca9 e33d ab1b 70bd a4de 913d
-0.012271429 0.06471751 0.060349327 0.054578464 -0.061374236 -0.035496432 0.0134013025 -0.0038760547
0.06674959 -0.03855326 -0.06772238 -0.01453014 0.03986845 -0.002609372 -0.02822703 0.027793637
0.023250762 0.036978785 0.048800256 0.06577146 0.080834925 0.02111821 0.03227269 0.06846883
-0.005138822 0.023691203 0.028947592 0.052855022 0.027035002 -0.017065346 0.020078594 -0.022280555
-0.02525258 -0.022822712 -0.044374283 0.03586878 0.099066496 0.025242876 -0.01005897 -0.009662656
0.09297952 -0.050471094 0.045956623 -0.027627736 -0.056380317 0.0071149804 -0.010387546 0.0026226405
0.013479736 -0.01727329 0.044247765 -0.045155313 0.04254285 -0.072964124 -0.03133016 -0.013470413
0.048635025 0.05556404 -0.011809577 0.058607917 0.04193711 -0.024805956 -0.05365229 0.01847602
0.06552171 0.013816944 0.008262807 0.049910784 0.0062184846 0.005553693 -0.062408134 0.069617406
0.00322021 0.018675523 0.078714065 -0.031189289 -0.071108125 0.0027558075 -0.046429522 0.02910463
-0.037377127 0.03375262 -0.041974932 0.03453958 0.06738581 -0.036530785 -0.015387477 -0.010495474
0.10222478 -0.052639008 0.010205979 0.029756425 0.03374065 -0.024775207 0.042741735 -0.006365972
-0.033993755 0.09920417 0.06902987 0.03207206 0.004650362 0.026120447 0.02109997 0.05300689
0.13023013 0.07611677 -0.023753637 -0.0063870014 -0.011071424 0.08691403 0.045646664 -0.0060868114
0.03856508 0.030043377 0.009664482 -0.002537747 -0.028508162 0.01667234 0.0117017 0.031624433
0.018751342 0.038478833 0.028638566 0.02615761 -0.05573451 -0.016247757 0.03992052 -0.023168411
0.008411236 0.08777081 0.05387805 0.059202828 0.06269501 0.045093484 0.024596857 0.06614761
0.092075124 -0.0020242778 -0.012870014 0.08680727 -0.00905684 0.025367606 -0.06987314 0.039332442
0.03657429 0.036379844 0.009592763 0.006216373 -0.02281733 0.04615614 -0.07195895 0.072634265
0.028416548 -0.018850103 0.009669809 -0.035730273 -0.019063352 0.008454777 -0.012774149 0.06422635
-0.0066640577 0.091732316 0.018103046 -0.04530438 -0.015954467 0.039438974 0.051092625 0.007684793
0.07878433 -0.07989475 0.012099569 0.08206207 -0.032498922 0.13627465 -0.007759627 -0.059759114
-0.058402866 -0.011096893 -0.036054213 0.05410379 0.0043895915 0.042697508 0.017762264 -0.0042336197
-0.04871796 -0.05551042 0.05088335 -0.00080049783 0.06565721 0.004507641 0.0687369 0.023024654
-0.08490511 -0.05390145 -0.01073718 0.06124934 0.015338127 0.08308053 0.043276884 0.032054868
0.1299998 -0.057026703 -0.005653992 0.09359784 0.07537576 0.08115296 -0.054701526 -0.091830656
-0.035218768 -0.053702455 -0.0098681385 -0.03603381 0.04830689 0.019622687 -0.059607502 -0.06847514
0.037208937 -0.015049907 -0.03460279 -0.0025871124 0.020025698 -0.03736287 -0.022973683 0.021243034
0.07193606 -0.0007790139 -0.055320453 -0.05570049 -0.01797061 0.00401846 -0.050471984 0.011513787
-0.0032557761 0.0201507 0.0025552148 0.0282441 0.06693419 -0.053578015 0.051853668 -0.09572801
0.041974206 0.02529254 0.012847389 -0.024986986 0.077855386 -0.059898987 -0.019586056 -0.03146267
-0.009414763 -0.023612726 -0.07314236 0.027530227 0.09441544 0.11116323 -0.058620136 0.071225435

fc3.weight f4 [6, 256]
00000000: 874c 8d3c 80bb 0f3d de96 993d 4799 58bd
00000010: f616 2dbc e088 e33c ce28 1cbc 4fe8 aabc
00000020: 7a65 6cbc 5431 753d 60a6 22bd a26c 0e3d
00000030: 8ab5 2cbd 08f7 553d ddb4 353c 97d9 023c
00000040: 29f5 123d 9753 11bd 5457 373d ba9d 91bb
00000050: ea7e e6bb b61a 243d 29e4 99bd fe1f f53c
00000060: 982c 8abd ec8e 7cbd db2a 553d d571 843c
00000070: 76e3 d43c 8aa1 fbbc 52bc cebc 1421 963d
00000080: ca2e 823c fe9a b0bc 0486 95bd f359 853c
00000090: e8c2 893c 50a6 2f3e 0435 7abc 207e 55bd
000000a0: 843f 4dbd cda8 383a 5a9e 4dbd cb67 293d
000000b0: 3ab5 6fbb da28 f7bb 04a0 0b3d 6da1 acbc
000000c0: 45f0 3d3d b38b 09bd 817d a6bd da07 1f3d
000000d0: e11c cc3c db67 67bc ef28 193a 2429 66bd
000000e0: 0f7d 3c3d b602 86bc aaae 153c c25e 9f3c
000000f0: 5f04 bbbc 2d01 fa3c 5373 df3b d4fe f83c
00000100: e647 46bd 52ce f03c 27f9 7dbd 99df fabb
00000110: 661c 66bd a2a1 07bd d748 91bd 4eef c7bc
00000120: 001c c3bc 038b 843c ce45 e3bd 2653 f2bc
00000130: 895c e73c da89 8ebc 5ba1 cdba ec22 0abd
00000140: 45ff 523d ae65 3d3c 6289 1a3d d1e4 4e3d
00000150: 83cc 943d 3893 2d3c 743f 44bc 3256 65bd
00000160: 976c 683d 901f c1bb 4c98 58bc 8b0f 5dba
00000170: f1e9 55bd 4cfe 543d d890 88bd fa43 5bbd
00000180: 7fc8 0e3b be5f 493d 4a52 093e 6706 8cbd
00000190: faa0 67bc 484f fc3c 94ee 3fbd 15ac 0cbd
000001a0: fdab 013c 2201 a8bc 7536 febc 0ff0 1a3d
000001b0: e938 15bd ac46 bdbc d30a df3c ba94 043e
000001c0: f40c 6a3d d12a 983d 187e 223d 3dcf e1bc
000001d0: d3c7 80bd 67e2 78bd 6129 dfbc 2550 2dbd
000001e0: c1c6 153d 2ccd b13c ef51 c53c 811b 35bd
000001f0: 2c0e 95bd ae83 593d 0e75 01be 0651 43bc
00000200: eddc 5e3d cfa8 9f3b 21e3 173b 06e7 d23c
00000210: 79f6 54bd d569 613b f39a 123c 84b7 263d
00000220: 7d70 153d 7064 493d 47df cfbc 0a93 68bd
00000230: 793c 093d 8ca8 59bd 6e27 8d3c 9f40 57bd
00000240: 50e4 6bbd 4a8b 873c 0ad6 41bd 77d6 23bb
00000250: d172 b93a 07d5 fe3c 69a0 26bd fcd1 053d
00000260: e8b6 483d 0b82 03bd 48ff a5bc 21d1 2abd
00000270: 37c1 a5bc 69c5 55bd 328c a2bc 5161 afbd
00000280: 683e 2b3d efaa e13c cb5c b63c acb0 b3bc
00000290: e036 7bbd 9c18 8abd 8b02 54bd ede4 993d
000002a0: 145a 5ebc 9bff c4bc e036 c7bc 185b e5bc
000002b0: d722 273d 2700 dbbd 1407 453d 73df 26bc
000002c0: abb7 d8bc 737c 08bd bf2d 513d 2eca 6dbc
000002d0: 5fce 25bc 2f66 803a 7d3c 9d3d 64da 283d
000002e0: 6a4a 8bbd c4be 53bd 2f08 5cbc 8550 82bd
000002f0: 7ecb fdbc d70b 9d3b 5100 8d3d 208f 7c3b
00000300: 2391 e53c 60e7 febb 6a91 2bbd a259 4d3e
00000310: 664e 06bd 66b9 5a3d bf0f 19bb 38bc 7ebd
00000320: 9bf6 6f3d c203 59bc 5886 11bd bde4 353d
00000330: 60da 88bc 6b68 b73c e860 6a3d d6b3 c9bc
00000340: 4f78 e73c 2a10 533d 8468 55bc 9249 83bd
00000350: 539f 19bd 30d4 27bd 69c1 48bd 061d bcbc
00000360: f1c6 d4bc cba4 da3b 53b2 85bd 2b08 493d
00000370: a691 73bb 0e18 1dbb 7b8e 14bd 6b43 ec3c
00000380: d5c4 5cbd d994 94bd f5ed 1abd a9eb 773d
00000390: b8b5 013e 6837 0e3d 2653 71bd 276a 4fbd
000003a0: b7ca 243c d270 11bd 2b15 adbb 24f2 003b
000003b0: 505b 01bd f974 03bd ca18 973c 2939 64bd
000003c0: 880a a13b 7a3b 05bc cb57 af3c 5b62 233c
000003d0: 96c7 7d3d ab71 c33b 98f9 c0bc 00cb 073c
000003e0: 6abf 213c 5c25 f23c ab24 ea3c f24a 32bd
000003f0: c5e2 c13c 56b7 0fbd d118 053d 4718 9dbc
0.017248405 0.035090923 0.07499479 -0.05288055 -0.010564556 0.027775228 -0.009531213 -0.020862726
-0.014428491 0.059861496 -0.03970945 0.03477157 -0.042165317 0.05223754 0.011090484 0.007986448
0.035878334 -0.035480108 0.044761017 -0.0044438513 -0.0070341723 0.040064536 -0.07514221 0.029922482
-0.06746787 -0.06165974 0.052042823 0.01616756 0.025987368 -0.030716676 -0.025236282 0.07330528
0.015891451 -0.021558281 -0.07300952 0.016278243 0.016816571 0.17153287 -0.015271429 -0.052122235
-0.0501094 0.0007044196 -0.050199844 0.04135875 -0.0036576525 -0.0075427117 0.03408815 -0.021073068
0.046371717 -0.033580493 -0.08129407 0.038825847 0.024916114 -0.014123882 0.00058425864 -0.05619158
0.046017703 -0.016358715 0.009135881 0.019454364 -0.022829233 0.030518139 0.0068191676 0.030394949
-0.04840841 0.029395256 -0.06200519 -0.0076560494 -0.056179427 -0.03311313 -0.07093971 -0.024406102
-0.023817062 0.016179567 -0.110972986 -0.029580664 0.028242366 -0.017399717 -0.0015688346 -0.03372471
0.051512975 0.011559887 0.037728675 0.050511185 0.0726557 0.010594182 -0.011978019 -0.055990405
0.056744184 -0.005893655 -0.013219904 -0.0008432797 -0.052225057 0.05200033 -0.06668252 -0.053531624
0.0021786985 0.049163572 0.13410297 -0.06837159 -0.014137501 0.030799523 -0.046858385 -0.034343798
0.00791454 -0.020508353 -0.031031827 0.037826594 -0.036431227 -0.023104988 0.027226841 0.1294736
0.05714126 0.074300416 0.039671034 -0.02756464 -0.062881134 -0.06076279 -0.02724141 -0.04231276
0.0365665 0.021704279 0.02408692 -0.044215683 -0.07278094 0.053104095 -0.12642309 -0.011921173
0.05440991 0.0048724185 0.002317615 0.025744926 -0.051992867 0.0034395356 0.008948076 0.040702358
0.03648423 0.04916805 -0.025375022 -0.056780852 0.033504937 -0.053139254 0.017230716 -0.05255186
-0.057590783 0.01654591 -0.047323264 -0.0024999657 0.0014148598 0.031107439 -0.040680323 0.03267096
0.049002558 -0.03210644 -0.02026333 -0.041703347 -0.020233734 -0.052190218 -0.019842241 -0.085634835
0.041807562 0.027547328 0.022261044 -0.02193483 -0.06133163 -0.06742975 -0.051760238 0.07514367
-0.013571281 -0.024047663 -0.024318159 -0.027997538 0.04080471 -0.106933884 0.048102453 -0.01018511
-0.026454767 -0.03332181 0.051069017 -0.014513535 -0.0101200035 0.0009796078 0.07677553 0.0412239
-0.06801303 -0.0516956 -0.0134296855 -0.06363014 -0.030980822 0.004792671 0.06884826 0.0038537458
0.028023308 -0.007779047 -0.041886725 0.20053723 -0.03278961 0.053399466 -0.0023355333 -0.06219122
0.05858479 -0.013245525 -0.03552851 0.044407595 -0.016705692 0.022388658 0.057221323 -0.024621885
0.02825561 0.051529087 -0.013025407 -0.06410517 -0.03750546 -0.040973842 -0.049012575 -0.022963058
-0.025973769 0.006672477 -0.06528153 0.049080055 -0.003716567 -0.0023970637 -0.036268692 0.028840741
-0.05389865 -0.07254953 -0.03782459 0.060527477 0.12666976 0.03472081 -0.058917187 -0.050638344
0.010058097 -0.035507984 -0.0052820644 0.0019675577 -0.031581223 -0.032093976 0.018444438 -0.055718575
0.0049145855 -0.008131856 0.021404168 0.00997218 0.061957918 0.005964478 -0.023556516 0.008288145
0.009872297 0.02955883 0.028581938 -0.043528505 0.023667702 -0.035086952 0.03249437 -0.019176615

fc3.bias f4 [6]
00000000: e90a 6a3c 540a a4bd 530f 1b3d 1d64 6dbc
00000010: 7cdd 853d d213 67bb
0.014284828 -0.080097824 0.03785641 -0.014489201 0.065363854 -0.0035259617
