half_cheetah_im.pth (torch, 25240 bytes, 6 tensors)

fc1.weight f4 [64, 16]
-0.22049382 0.24253774 0.18357635 -0.18823801 0.10336032 0.22936648 -0.27550888 -0.24495348
-0.18421349 -0.20630643 -0.13394359 -0.18152437 -0.048288006 0.19626603 -0.13658138 -0.21726623
-0.040479038 0.15590693 0.18214786 -0.0312373 -0.14907022 -0.18063366 0.11517187 0.15512392
-0.03436522 0.2755817 0.1040107 -0.05945964 -0.18864237 0.020861635 0.1315794 0.074177414
-0.109222405 0.27448317 -0.17126463 0.045886863 -0.040845167 0.14164418 -0.2730576 -0.30218923
0.27259973 0.18379372 -0.09291453 0.19248177 -0.0068241195 -0.06649478 0.099741176 0.07638768
0.16567141 0.17932971 0.23330949 -0.052600227 -0.21368115 0.048475783 -0.097331956 0.061761845
-0.18538475 0.12018338 0.15660875 0.307677 -0.03219386 0.013344015 -0.14336398 -0.18353876
0.29777592 -0.06257631 -0.021964863 -0.16746677 -0.21251276 -0.046793263 0.05776361 0.2721657
0.10159126 0.09668213 0.25828508 0.09380097 -0.053624008 0.13635293 -0.30183688 -0.06753247
-0.020477721 0.031949993 -0.044489 0.251524 -0.13366951 -0.1695923 -0.20866448 -0.17964062
0.03373792 -0.13698314 -0.21183857 0.24370326 0.09406635 0.2157203 -0.12994081 -0.20228095
-0.12419479 -0.17049576 -0.12984933 -0.11982531 -0.15649064 0.26177227 0.10438718 -0.21218789
-0.0028042032 0.0936848 0.049609154 0.21294284 0.19797377 0.08382938 0.11320703 -0.019129312
-0.12869523 -0.089924276 -0.16429992 -0.035329297 0.21640863 -0.0752168 0.20199063 -0.18407053
0.18308233 -0.18762706 -0.044324197 0.12956437 0.09832848 -0.27118853 0.1005604 0.14510998
0.2328156 0.055107728 0.1398614 -0.12169389 0.11081306 -0.1977604 0.20611267 -0.022789488
-0.05898265 0.1040474 0.14591019 0.2001498 0.082116194 0.07095735 -0.25887913 -0.112183906
-0.020295054 -0.07186172 -0.05851403 -0.009407754 0.22766644 -0.3182253 -0.15493199 0.11561869
0.11845179 -0.0013842159 0.026170425 0.056646593 0.069009125 -0.04679452 0.19339232 -0.2869445
-0.1737773 0.16126344 0.17612807 0.23550281 0.057182573 0.20062621 0.0115958415 0.071278974
-0.10011152 -0.26580572 0.116762236 -0.07015848 0.2256114 0.21740076 -0.07482349 0.041013896
0.029925575 -0.044210345 -0.043578196 0.11080505 -0.14500754 0.07982849 -0.187076 -0.018027807
-0.17592171 0.2175927 0.015943926 0.1790297 -0.18767916 -0.04364606 -0.13992502 -0.2477799
0.3229966 0.14846161 -0.04883123 -0.20243955 0.07462835 -0.10237993 0.20199022 -0.034122013
-0.15096498 0.16930439 -0.13563566 0.16214739 0.010270498 0.25054452 -0.21339962 -0.07970462
0.10514471 0.19752587 0.0045195906 0.029460847 0.1509661 0.2635625 -0.22764589 -0.13301082
-0.027223026 -0.18292531 -0.07563608 0.15113686 0.08552752 0.10425258 0.22485285 -0.0011580497
0.11179191 -0.115951315 0.09581525 -0.02576119 0.004634209 -0.24374707 0.18325 -0.19288248
-0.18408355 -0.04089286 0.037570998 -0.27507588 -0.26302576 -0.2645733 0.18713617 0.17539302
-0.067798376 -0.0086189 0.1882282 0.20151524 -0.21570693 -0.2064064 0.20926179 -0.07608544
-0.17920569 0.022786768 0.0849224 0.1509161 -0.17782377 -0.058677524 -0.10502533 -0.16735582
00000000: 22c9 61be d05b 783e 70fb 3b3e 77c1 40be
00000010: 93ae d33d 0cdf 6a3e 800f 8dbe 16d5 7abe
00000020: 76a2 3cbe fe41 53be 8228 09be 86e1 39be
00000030: a5c9 45bd f6f9 483e fddb 0bbe 0a7b 5ebe
00000040: 59cd 25bd 11a6 1f3e f884 3a3e 5ee5 ffbc
00000050: dda5 18be 08f8 38be 3bdf eb3d ced8 1e3e
00000060: 8cc2 0cbd 0b19 8d3e 9003 d53d f48b 73bd
00000070: 772b 41be 05e6 aa3c c0bc 063e 54ea 973d
00000080: ffaf dfbd 0f89 8c3e ff5f 2fbe ddf3 3b3d
00000090: 434d 27bd 2c0b 113e 35ce 8bbe 8cb8 9abe
000000a0: 3192 8b3e 6c34 3c3e f949 bebd f119 453e
000000b0: dd9c dfbb 6a2e 88bd 1a45 cc3d 2571 9c3d
000000c0: c4a5 293e 35a2 373e afe8 6e3e 5673 57bd
000000d0: 3bcf 5abe 8b8e 463d fa55 c7bd fdf9 7c3d
000000e0: 80d5 3dbe b422 f63d 0b5e 203e d787 9d3e
000000f0: b5dd 03bd dba0 5a3c 02ce 12be 96f1 3bbe
00000100: 1676 983e 0228 80bd a8ef b3bc 697c 2bbe
00000110: f29c 59be 4baa 3fbd 8999 6c3d 4d59 8b3e
00000120: 140f d03d 4801 c63d f13d 843e b91a c03d
00000130: d9a4 5bbd 1aa0 0b3e 5d8a 9abe 774e 8abd
00000140: e5c0 a7bc ffdd 023d 193a 36bd c1c7 803e
00000150: a9e0 08be 9ba9 2dbe 24ac 55be b6f3 37be
00000160: c630 0a3d 4f45 0cbe 36ec 58be 598d 793e
00000170: dca5 c03d c8e5 5c3e 340f 05be bd22 4fbe
00000180: d759 febd 7196 2ebe 39f7 04be f966 f5bd
00000190: 153f 20be 0407 863e f2c8 d53d c847 59be
000001a0: b9c6 37bb d1dd bf3d f832 4b3d b00d 5a3e
000001b0: a3b9 4a3e bdae ab3d 16d9 e73d 13b5 9cbc
000001c0: afc8 03be 382a b8bd 3d3e 28be 74b5 10bd
000001d0: 399a 5d3e 440b 9abd a2d6 4e3e fc7c 3cbe
000001e0: ef79 3b3e 4f21 40be 4a8d 35bd 86ac 043e
000001f0: 7160 c93d 39d9 8abe 9cf2 cd3d b697 143e
00000200: 3667 6e3e a4b8 613d d437 0f3e a53a f9bd
00000210: f5f1 e23d b481 4abe 330f 533e 05b1 babc
00000220: cb97 71bd ce16 d53d 7b69 153e 12f4 4c3e
00000230: 892c a83d 1652 913d ce8b 84be adc0 e5bd
00000240: d041 a6bc 3d2c 93bd 68ac 6fbd fb22 1abc
00000250: 6421 693e 6dee a2be 7ea6 1ebe 7ec9 ec3d
00000260: da96 f23d 946e b5ba 5c63 d63c 4206 683d
00000270: a854 8d3d 9cab 3fbd a308 463e 64ea 92be
00000280: adf2 31be 3e22 253e eb5a 343e a627 713e
00000290: 4638 6a3d f570 4d3e 7cfc 3d3c b6fa 913d
000002a0: 4507 cdbd b017 88be 0a21 ef3d 40af 8fbd
000002b0: ad06 673e 4e9e 5e3e 0f3d 99bd 30fe 273d
000002c0: 7b26 f53c e815 35bd 0d7f 32bd c2ed e23d
000002d0: db7c 14be 1f7d a33d da90 3fbe 0daf 93bc
000002e0: d224 34be 9fd0 5e3e d69c 823c 9053 373e
000002f0: f72e 40be 36c6 32bd 8148 0fbe 04ba 7dbe
00000300: cf5f a53e 5206 183e 4103 48bd 504c 4fbe
00000310: c0d6 983d 92ac d1bd 86d6 4e3e 86c3 0bbd
00000320: 9096 1abe 215e 2d3e 13e4 0abe f709 263e
00000330: 9745 283c 5f47 803e 6e85 5abe 2d3c a3bd
00000340: 1c56 d73d 3944 4a3e 1319 943b e057 f13c
00000350: db96 1a3e aaf1 863e 011c 69be fd33 08be
00000360: d302 dfbc c650 3bbe 17e7 9abd 9fc3 1a3e
00000370: 0d29 af3d 6082 d53d d33f 663e b3c9 97ba
00000380: 28f3 e43d e277 edbd c93a c43d 2209 d3bc
00000390: 90da 973b d598 79be e3a5 3b3e fc82 45be
000003a0: 6680 3cbe 467f 27bd 0ce4 193d bfd6 8cbe
000003b0: 50ab 86be 2776 87be a0a0 3f3e 3a9a 333e
000003c0: e0d9 8abd 4936 0dbc e5be 403e 035a 4e3e
000003d0: 47e2 5cbe 335c 53be b948 563e afd2 9bbd
000003e0: b281 37be 51ab ba3c cceb ad3d c089 1a3e
000003f0: 6f17 36be d857 70bd 8517 d7bd 535f 2bbe

fc1.bias f4 [64]
-0.18049207 0.2918441 -0.14315344 -0.13356535 0.1928514 -0.022008795 0.28087965 0.14589529
0.17808327 0.017775618 0.16953869 -0.0913155 -0.1358836 0.22929958 0.16604634 -0.2058913
0.09717419 0.28604972 0.17417692 0.16572888 -0.04581423 -0.04631148 -0.1621664 -0.18372631
0.19678532 0.03820859 0.04851152 -0.100679964 -0.008444932 -0.0086370725 0.09116876 0.3395749
0.13016096 0.062083475 0.25350916 0.030226408 -0.24911252 -0.058961254 0.32633775 -0.02642178
0.079311214 0.14597583 -0.15094541 -0.16548643 0.03292439 0.034543455 0.12801425 0.24746178
0.14188959 0.072793774 0.018616399 0.20314686 0.019150134 0.19404738 0.26452503 0.1813565
0.0030262305 -0.06729971 0.079377934 -0.016502824 -0.08958323 -0.11578881 0.2334724 0.07180455
00000000: ead2 38be 976c 953e d196 12be 5bc5 08be
00000010: d67a 453e ca4b b4bc 75cf 8f3e 9365 153e
00000020: 765b 363e 2c9e 913c 8d9b 2d3e 9f03 bbbd
00000030: 1225 0bbe 82cd 6a3e 0d08 2a3e 2bd5 52be
00000040: 4303 c73d 1c75 923e 6f5b 323e d5b4 293e
00000050: b4a7 3bbd 1bb1 3dbd f30e 26be c022 3cbe
00000060: 1782 493e 9c80 1c3d 04b4 463d 4c31 cebd
00000070: 9d5c 0abc 8282 0dbc b0b6 ba3d c3dc ad3e
00000080: ea48 053e 3e4b 7e3d f4cb 813e 5f9d f73c
00000090: 5a17 7fbe 5b81 71bd be15 a73e 7d72 d8bc
000000a0: eb6d a23d b07a 153e 6f91 1abe 4675 29be
000000b0: badb 063d 707d 0d3d 2b16 033e 9f66 7d3e
000000c0: 814b 113e e714 953d 6b81 983c bb05 503e
000000d0: bee0 9c3c 5bb4 463e d36f 873e 85b5 393e
000000e0: b953 463b 6ed4 89bd e690 a23d ee30 87bc
000000f0: 6a77 b7bd af22 edbd 6413 6f3e 440e 933d

fc2.weight f4 [64, 64]
0.07276793 -0.11600688 -0.12015289 0.048151523 -0.0943867 -0.0034779757 -0.06258505 0.040671803
0.113101885 -0.019240633 -0.00023464292 -0.030238524 0.058786705 -0.029541252 -0.10598924 -0.070755765
-0.07498212 0.033503905 0.04633139 0.03173666 0.053971283 -0.13204934 -0.008297488 0.026244879
-0.076398164 0.039273966 -0.06356868 -0.09377604 -0.09917089 0.08695014 -0.026650906 0.060860872
-0.10779341 -0.074377894 -0.07694866 0.0075688167 -0.027489185 -0.109620094 -0.036286525 -0.095699936
-0.020522863 -0.101699285 -0.019540502 0.09719227 -0.01766099 -0.07326323 -0.053252906 0.057085484
-0.0429264 -0.09588173 -0.005442038 0.08716206 -0.12497647 -0.045434788 -0.003007797 0.012556037
0.013568363 -0.049335316 -0.10774403 -0.12451305 0.067920566 -0.003040757 0.110340886 -0.059659436
-0.050687566 -0.027720029 -0.097547956 0.16337985 -0.017142002 -0.020308288 0.006266574 -0.15124626
-0.03594379 -0.008646605 0.17895013 -0.085074015 0.08163785 -0.06833235 0.15837078 -0.0121319955
0.042892322 0.1267905 0.0087628085 -0.014822244 0.09805471 0.11914084 -0.021128964 0.17419916
0.05981395 -0.15542945 -0.00032610708 -0.017304832 0.08181241 -0.085081495 -0.008524597 0.0194347
0.07107814 0.024728946 0.10313921 -0.0140013285 0.0130017 0.09168768 -0.13927545 -0.027911043
-0.027218888 0.0751255 -0.002182841 0.046448804 0.05490366 -0.18730855 0.0072392873 0.11924627
-0.054945495 0.050861098 -0.0131428735 0.14396848 0.15747209 0.03566398 0.005080444 0.005728514
-0.1255683 -0.01587123 0.10954617 0.031161882 -0.015321636 0.07919385 -0.0894124 -0.05645569
-0.027546106 0.109393634 0.16475028 0.048140448 0.036876556 0.05131141 0.09225729 0.16579528
0.16675083 0.10084138 0.014175958 0.14889862 -0.008749406 0.11089045 0.12746924 0.090997376
-0.1497128 0.09496713 0.10880973 0.060571015 0.014377257 0.052141577 -0.027057024 -0.08052522
-0.11505286 -0.0031293398 -0.059834328 -0.1405454 -0.16681899 0.08824754 0.11498637 0.08254804
0.09293999 0.11710167 -0.026489053 -0.07761856 -0.06247852 0.044138532 0.019879676 -0.16081023
-0.0620623 0.16900459 0.11372721 -0.03306814 0.070336714 0.16921085 0.06951863 -0.053905264
0.08792605 0.07129659 0.011894936 -0.08632227 0.04140915 -0.039858785 -0.0994613 0.004804723
0.11856206 0.15524685 -0.035816517 -0.15640968 0.054139312 -0.19610114 0.08506599 0.0020903978
-0.03475795 0.1199837 -0.034528174 0.011246995 0.0071430136 -0.040517326 0.08780181 0.06733869
0.00501482 0.03203703 -0.08676955 0.0028817637 0.007025966 -0.123891465 -0.030266311 -0.0012925321
-0.0039746016 0.015763516 0.005735354 -0.0124653345 0.056877185 -0.026112434 0.011022086 -0.093698524
-0.028464759 0.16674475 0.12003363 -0.002553359 -0.12978688 -0.05619802 -0.040102717 0.12341431
-0.017034076 0.03884348 0.023305291 0.15498605 0.028547915 -0.03620224 0.12340412 0.050348375
0.08085471 0.008754653 0.034376018 0.04031618 0.052777875 0.05950064 0.029952457 -0.09929758
0.09858896 0.03287202 -0.017555742 0.06192565 0.12589116 -0.036125965 0.06705605 -0.03534121
0.090310715 0.14391784 0.15508743 -0.17131653 0.057132307 -0.08806239 0.036637954 0.07786145
00000000: 5a07 953d 0495 edbd b812 f6bd 883a 453d
00000010: d04d c1bd c0ee 63bb 972c 80bd 7a97 263d
00000020: f6a1 e73d 889e 9dbc 7b0a 76b9 c8b6 f7bc
00000030: 54ca 703d 7f00 f2bc e310 d9bd 66e8 90bd
00000040: 3a90 99bd 643b 093d fcc5 3d3d 4dfe 013d
00000050: fe10 5d3d f137 07be 30f2 07bc 80ff d63c
00000060: a476 9cbd bddd 203d 4c30 82bd a70d c0bd
00000070: 1c1a cbbd ea12 b23d 0053 dabc 4049 793d
00000080: cbc2 dcbd 7053 98bd 4297 9dbd d603 f83b
00000090: 0031 e1bc 8080 e0bd 2ea1 14bd 54fe c3bd
000000a0: 901f a8bc b747 d0bd 6713 a0bc be0c c73d
000000b0: c8ad 90bc 080b 96bd b81f 5abd 78d2 693d
000000c0: 98d3 2fbd a45d c4bd 2053 b2bb 0682 b23d
000000d0: aaf3 ffbd d419 3abd 761e 45bb d6b7 4d3c
000000e0: d74d 5e3c d413 4abd e7a8 dcbd b300 ffbd
000000f0: f019 8b3d 7047 47bb 67fa e13d 745d 74bd
00000100: c49d 4fbd 1d15 e3bc 39c7 c7bd 0c4d 273e
00000110: 626d 8cbc 915d a6bc d557 cd3b 4de0 1abe
00000120: cc39 13bd 7daa 0dbc b43e 373e 493b aebd
00000130: bf31 a73d d5f1 8bbd f32b 223e 47c5 46bc
00000140: dcaf 2f3d 5ed5 013e e291 0f3c ffd8 72bc
00000150: e8d0 c83d 1d00 f43d a616 adbc 4461 323e
00000160: 79ff 743d e628 1fbe 5af9 aab9 ddc2 8dbc
00000170: 448d a73d 353f aebd c0aa 0bbc 8535 9f3c
00000180: 6a91 913d 5c94 ca3c a63a d33d d465 65bc
00000190: 1505 553c c0c6 bb3d 399e 0ebe b3a5 e4bc
000001a0: 25fa debc 66db 993d ff0d 0fbb 1a41 3e3d
000001b0: a9e2 603d d0cd 3fbe 8b37 ed3b 6337 f43d
000001c0: 870e 61bd ba53 503d 3555 57bc 796c 133e
000001d0: 5d40 213e 6514 123d da79 a63b 42b6 bb3b
000001e0: fa94 00be 6204 82bc be59 e03d 3447 ff3c
000001f0: 9907 7bbc 6330 a23d d91d b7bd 153e 67bd
00000200: 5fa8 e1bc c509 e03d 4cb4 283e eb2e 453d
00000210: df0b 173d ea2b 523d 64f1 bc3d 3dc6 293e
00000220: bbc0 2a3e ed85 ce3d 4742 683c e178 183e
00000230: ab59 0fbc 881a e33d 4c87 023e d55c ba3d
00000240: 504e 19be 207e c23d a3d7 de3d 5019 783d
00000250: 968e 6b3c 6892 553d b1a6 ddbc 68ea a4bd
00000260: d5a0 ebbd 9c15 4dbb d714 75bd 22eb 0fbe
00000270: 99d2 2abe 20bb b43d f97d eb3d f20e a93d
00000280: 5257 be3d 00d3 ef3d 92ff d8bc 7bf6 9ebd
00000290: 7ae9 7fbd 9bca 343d b4da a23c 70ab 24be
000002a0: 0a35 7ebd 8a0f 2d3e d0e9 e83d 7572 07bd
000002b0: b20c 903d 9c45 2d3e c95f 8e3d c4cb 5cbd
000002c0: 9312 b43d f203 923d fae2 423c bbc9 b0bd
000002d0: a49c 293d f742 23bd 5eb2 cbbd f070 9d3b
000002e0: aad0 f23d 08f9 1e3e 57b4 12bd dc29 20be
000002f0: 2fc1 5d3d bdce 48be 1437 ae3d 0eff 083b
00000300: 5a5e 0ebd 04ba f53d 6a6d 0dbd 5145 383c
00000310: f10f ea3b 7ff5 25bd 6fd1 b33d dee8 893d
00000320: 5c53 a43b 4339 033d 3cb4 b1bd f9db 3c3b
00000330: 133a e63b cfba fdbd 0ef1 f7bc 2e6a a9ba
00000340: 603d 82bb 7d22 813c a3ef bb3b 673b 4cbc
00000350: 0df8 683d bee9 d5bc fb95 343c 03e5 bfbd
00000360: ed2e e9bc 23bf 2a3e 31d4 f53d 4156 27bb
00000370: dae6 04be e52f 66bd bf42 24bd a4c0 fc3d
00000380: 0c8b 8bbc 571a 1f3d bdea be3c aab4 1e3e
00000390: 51dd e93c cd48 14bd 4dbb fc3d 193a 4e3d
000003a0: 2797 a53d ad6f 0f3c decd 0c3d 9422 253d
000003b0: 9d2d 583d f1b6 733d db5e f53c 885c cbbd
000003c0: 02e9 c93d d0a4 063d 0fd1 8fbc c0a5 7d3d
000003d0: 9de9 003e d2f8 13bd af54 893d f2c1 10bd
000003e0: d3f4 b83d 335f 133e 3dcf 1e3e 9a6d 2fbe
000003f0: 9103 6a3d 0e5a b4bd ae11 163d d375 9f3d

fc2.bias f4 [64]
-0.020755049 -0.062492054 0.0041248444 0.14216997 -0.040311422 0.12416338 0.023086047 -0.08154619
-0.036859214 -0.08054479 -0.104041785 0.04664406 0.08535013 0.03905217 -0.038060497 0.16297913
0.051113166 0.07974133 -0.03287471 0.107412264 0.10708605 0.014740275 -0.09229068 0.09290779
-0.095416285 0.020152178 -0.051721998 0.011544707 0.029166264 -0.10744828 0.03732521 -0.011568327
0.020007102 0.015135311 -0.018938407 -0.13161793 -0.056127094 -0.044040788 0.055513613 0.15937632
-0.008571378 0.15120299 0.0146554345 0.053488363 -0.024679264 -0.02854103 0.027652398 0.05956718
-0.09475437 0.022655243 -0.01194018 -0.009506475 -0.055092383 0.17476888 0.05300838 0.0065809363
0.20708923 -0.14829847 0.040433444 -0.014718295 -0.044453073 -0.01744197 -0.030430729 0.14861354
00000000: 7e06 aabc abf7 7fbd b429 873b 0195 113e
00000010: 971d 25bd 5f49 fe3d f31e bd3c b001 a7bd
00000020: b0f9 16bd abf4 a4bd dc13 d5bd d80d 3f3d
00000030: 0dcc ae3d 2bf5 1f3d 53e5 1bbd 00e4 263e
00000040: 0a5c 513d 6c4f a33d a2a7 06bd f6fa db3d
00000050: ee4f db3d 3281 713c e502 bdbd 7046 be3d
00000060: 9d69 c3bd 2e16 a53c 72da 53bd 0326 3d3c
00000070: 17ee ee3c d80d dcbd 52e2 183d 1589 3dbc
00000080: efe5 a33c 18fa 773c b824 9bbc dac6 06be
00000090: 86e5 65bd 1d64 34bd 3e62 633d 8c33 233e
000000a0: f76e 0cbc f5d4 1a3e 591d 703c 9d16 5b3d
000000b0: 2b2c cabc e1ce e9bc 4887 e23c b7fc 733d
000000c0: 940e c2bd 7d97 b93c bfa0 43bc 0cc1 1bbc
000000d0: 8da8 61bd 9df6 323e 511f 593d e5a4 d73b
000000e0: 330f 543e 8edb 17be 8a9d 253d 0125 71bc
000000f0: 6d14 36bd 76e2 8ebc dd49 f9bc 262e 183e

fc3.weight f4 [6, 64]
0.08915981 -0.015539134 0.054217048 -0.010079292 -0.055018358 -0.08861 0.1608256 0.07105225
0.01999498 -0.01049704 -0.02529249 -0.053382743 -0.07548336 -0.03283715 0.07630661 -0.120063566
-0.06145281 -0.14681908 -0.10130722 -0.027188843 -0.046111103 -0.0976406 0.05170102 0.0548963
-0.16451903 -0.12196264 -0.050716914 -0.044373896 -0.0665203 -0.0669945 -0.06022801 -0.0735356
0.13219734 0.009243721 0.00057429075 -0.06112374 -0.020924356 0.18625574 0.04186589 0.03212581
0.1721897 0.07043532 -0.11764479 0.071289726 0.018020105 -0.035099145 -0.03674079 -0.1125593
0.0013547143 0.07515312 -0.026140694 0.16869082 -0.12351749 0.10527653 -0.09525018 0.14462969
-0.14637598 -0.00971088 0.11163911 -0.09445861 0.09218661 0.09011222 0.007859132 0.17020984
-0.08702086 0.09188066 -0.08210292 -0.0169759 -0.19007017 -0.012743876 -0.10114924 0.019499091
-0.016151087 -0.15321167 -0.018279998 -0.107823394 -0.013339153 -0.029308653 -0.031504508 0.1181457
-0.17995967 0.04874809 -0.11388577 0.08488674 -0.13867669 -0.12909392 0.005356978 0.0032080594
-0.13179868 -0.014570293 0.110986955 0.08470609 0.17322414 -0.022778392 -0.0113369655 0.06103429
0.022098418 -0.098180585 -0.06588508 -0.14118873 0.12604304 0.10802087 -0.031636216 0.08682722
-0.06522426 0.10490876 -0.054390665 0.12898518 0.10427641 -0.019523226 -0.07396717 -0.03145766
0.1564943 -0.12673377 -0.20482191 0.10350122 -0.14544903 0.0143718375 -0.13649157 0.107706755
0.1461537 0.050588727 0.13979022 -0.1745959 0.17740077 0.06275262 0.055446118 -0.15100609
-0.11705915 -0.07669939 0.11638306 -0.017930025 0.13799804 0.105832204 -0.017354975 -0.11305986
0.17755485 -0.0243646 0.08915795 0.007135189 0.11401033 0.033860274 -0.08286653 0.07034036
0.037309203 0.0073885135 -0.075208396 -0.047135815 0.041583665 -0.06373471 -0.15080118 0.05125361
-0.12835625 -0.016262101 -0.18574266 -0.036667425 -0.17253405 -0.03835541 0.20472439 0.117630124
0.0035449502 0.003899797 0.046236724 -0.05065236 -0.007076443 0.020328706 -0.11935579 0.20288692
-0.13396749 0.1461159 0.027091412 0.21689369 -0.12617183 0.18888849 0.0881513 -0.04525987
-0.104664065 0.15213668 -0.05361455 -0.07456789 0.09319152 -0.041359756 0.12113606 0.05981817
-0.03135986 -0.05880639 0.12725118 0.08098386 -0.093188174 -0.14544392 -0.14649041 -0.06344712
-0.05842441 0.043437004 0.14804049 0.08203791 0.026260959 -0.07216824 -0.010670128 -0.004127734
-0.111325055 0.03902375 -0.032970615 0.049982227 0.11651676 -0.015993306 0.066923484 0.04867386
-0.039508194 0.06699931 0.010489612 0.014003495 -0.00941742 -0.016698262 0.11125724 0.12122774
-0.0051464397 -0.14729998 -0.1324708 0.14314307 0.09129192 -0.00405754 -0.14674713 0.17814034
-0.17506516 -0.049357787 0.123994485 -0.0042418432 -0.03252314 0.025049388 0.0002129321 -0.13704002
-0.047501802 0.076309286 0.0986105 -0.12739345 0.015171544 -0.1044081 -0.08656862 0.14652137
-0.028141635 0.100557275 -0.041625112 -0.1263523 0.035746858 -0.049032193 0.068524264 -0.059263133
-0.054226406 0.16799363 -0.083757706 0.049387377 -0.0074545136 0.1309285 0.020616198 0.15081733
00000000: 6b99 b63d da97 7ebc b212 5e3d 9d23 25bc
00000010: ee5a 61bd 2979 b5bd 77af 243e d883 913d
00000020: 83cc a33c c7fb 2bbc 3232 cfbc dda7 5abd
00000030: 0597 9abd 3f80 06bd a446 9c3d e3e3 f5bd
00000040: f1b5 7bbd be57 16be 297a cfbd 23bb debc
00000050: ffde 3cbd cbf7 c7bd 73c4 533d f1da 603d
00000060: ad77 28be 8cc7 f9bd 8abc 4fbd 67c1 35bd
00000070: cc3b 88bd 6a34 89bd a5b1 76bd d599 96bd
00000080: bd5e 073e fa72 173c 008c 163a e35c 7abd
00000090: 8e69 abbc d3b9 3e3e 917b 2b3d 5a96 033d
000000a0: 7f52 303e 6540 903d c0ef f0bd 5900 923d
000000b0: e69e 933c 1fc4 0fbd 837d 16bd 7e85 e6bd
000000c0: ab90 b13a e1e9 993d 0225 d6bc 49bd 2c3e
000000d0: bdf6 fcbd 399b d73d 8712 c3bd ce19 143e
000000e0: 96e3 15be 621a 1fbc 0ca3 e43d 8473 c1bd
000000f0: 55cc bc3d c18c b83d 97c3 003c 7d4b 2e3e
00000100: fe37 b2bd ed2b bc3d 9325 a8bd 0b11 8bbc
00000110: c1a1 42be b1cb 50bc 5527 cfbd 8fbc 9f3c
00000120: 494f 84bc 85e3 1cbe efbf 95bc 83d2 dcbd
00000130: 768c 5abc b318 f0bc df0a 01bd 5ff6 f13d
00000140: 5947 38be 14ac 473d f13c e9bd 19d9 ad3d
00000150: 4301 0ebe 3231 04be 9789 af3b 4e3e 523b
00000160: 3cf6 06be 3db8 6ebc 214d e33d 637a ad3d
00000170: ab61 313e c099 babc aebe 39bc 17ff 793d
00000180: be07 b53c e712 c9bd c2ee 86bd c793 10be
00000190: 6d11 013e 0c3a dd3d fa94 01bd 78d2 b13d
000001a0: 4c94 85bd 67da d63d bfc8 5ebd b114 043e
000001b0: df8e d53d 2cef 9fbc 1a7c 97bd bfd9 00bd
000001c0: 0b40 203e 7fc6 01be d6bc 51be 73f8 d33d
000001d0: 97f0 14be db77 6b3c 72c4 0bbe 5c95 dc3d
000001e0: 51a9 153e 2036 4f3d 2b25 0f3e 45c9 32be
000001f0: 8ca8 353e 7284 803d 781b 633d 57a1 1abe
00000200: b5bc efbd 9214 9dbd 3e5a ee3d fde1 92bc
00000210: 5c4f 0d3e 8ebe d83d 052c 8ebc ee8b e7bd
00000220: f0d0 353e 4598 c7bc 7198 b63d 4ece e93b
00000230: 3f7e e93d 12b1 0a3d edb5 a9bd 9b0e 903d
00000240: 89d1 183d 581b f23b dc06 9abd 7c11 41bd
00000250: a253 2a3d 5887 82bd a06b 1abe 4eef 513d
00000260: d26f 03be 1938 85bc 5333 3ebe 9530 16bd
00000270: c4ac 30be 901a 1dbd 45a3 513e 10e8 f03d
00000280: 6552 683b bd93 7f3b b862 3d3d d978 4fbd
00000290: 82e1 e7bb 6388 a63c cf70 f4bd 97c1 4f3e
000002a0: c62e 09be 689f 153e cfee dd3c 6119 5e3e
000002b0: 3033 01be fc6b 413e ab88 b43d 6a62 39bd
000002c0: 1d5a d6bd b8c9 1b3e ee9a 5bbd 0db7 98bd
000002d0: 32db be3d d968 29bd 2f16 f83d e603 753d
000002e0: 3273 00bd f8de 70bd 224e 023e deda a53d
000002f0: 71d9 bebd 40ef 14be 9501 16be 90f0 81bd
00000300: 6f4e 6fbd 00eb 313d ed97 173e 7e03 a83d
00000310: 3921 d73c f1cc 93bd c3d1 2ebc f141 87bb
00000320: 64fe e3bd 5ed7 1f3d 320c 07bd 2aba 4c3d
00000330: 57a0 ee3d 6504 83bc 2e0f 893d 3e5e 473d
00000340: 58d3 21bd ef36 893d 9fdc 2b3c ea6e 653c
00000350: 864b 1abc cbca 88bc d6da e33d 4046 f83d
00000360: 77a3 a8bb ced5 16be 6da6 07be 1994 123e
00000370: 42f7 ba3d 1df5 84bb e144 16be 6c6a 363e
00000380: 4844 33be 642b 4abd d2f0 fd3d 29ff 8abb
00000390: fc36 05bd 6034 cd3c 8646 5f39 3854 0cbe
000003a0: 4091 42bd 0b48 9c3d 4df4 c93d 6e73 02be
000003b0: 1192 783c ead3 d5bd e34a b1bd b309 163e
000003c0: 4989 e6bc f9f0 cd3d 187f 2abd 7f62 01be
000003d0: 4c6b 123d fbd5 48bd 7356 8c3d e6bd 72bd
000003e0: 821c 5ebd 8606 2c3e 2989 abbd 6b4a 4a3d
000003f0: fe44 f4bb 1f12 063e 4de3 a83c dc6f 1a3e

fc3.bias f4 [6]
0.15215407 -0.04351506 -0.06437048 0.08567583 0.04480519 -0.015887769
00000000: 47ce 1b3e d93c 32bd acd4 83bd cf76 af3d
00000010: a685 373d 1127 82bc
