half_cheetah_im.pth (torch, 290456 bytes, 6 tensors)

fc1.weight f4 [256, 17]
00000000: cf26 9fbe 9017 26be ef8f 6d3e ea90 d4bd
00000010: fc53 72bc 3305 54be e8a5 383e 769e f5bd
00000020: bb80 a43d b327 5a3e a8cd 9a3d aa31 1c3e
00000030: c725 413e fe98 06bd d1a7 09bd 8293 f03c
00000040: 8615 593d d833 96be 4502 28be 4c45 08be
00000050: f8af 0e3e b68d 66be 5e6a 1f3e 7366 8a3d
00000060: 12be 353e f30b bbbd fbfb c2bd 2df5 aebb
00000070: 53a6 603e 7e10 e13c 7f1a 56be 9a4b c0bc
00000080: 1b71 2bbe 29bf 583e 3d98 59be f085 d23d
00000090: 616a f63d 1759 16be 6985 563d 66a2 2bbd
000000a0: 4630 53be 9cf8 8abe 3666 9d3d ddee e1bd
000000b0: 8305 b13d 76a8 353e 6146 68be 8157 543e
000000c0: 9a7d 333e dad4 423e 9dee e93c e3e9 a53d
000000d0: 414f 013e c90c ddbd 5708 443e 3e8c 32be
000000e0: 9576 67be 39e1 633e 6c69 553e 9c6f 23bc
000000f0: 945f 8cbd 2290 9c3d c777 ee3d febf 3fbd
00000100: 61ea 1f3e ad21 203d 2d0f 42bc 1166 573e
00000110: d3db c63e bf03 d3bc 3f76 ab3d 885e 0fbe
00000120: 578b 1cbe 6dff e2bc c2a6 2f3e 378e 883b
00000130: fb11 193e baa7 ffbd ec51 433d a856 7e3d
00000140: f8d6 683d e32b f1bd ba1a 5b3e 3003 1fbd
00000150: 6d71 3e3d d1bf 603d ef7a 9cbd c019 2c3e
00000160: d67a 003e 3c86 68bc aca4 46bc 631c 003e
00000170: 146e 1bbe 76f8 61be bb48 45be b7d4 06be
00000180: 34f5 dbbc 1c44 ffbd a41a c53d 69ea f93c
00000190: b108 523e 247b 3c3e 84e6 c23d 8c57 913d
000001a0: 3d00 423d 9634 2abe 8730 6f3d c1f1 82bd
000001b0: fa96 a13d aff3 babd 6b3d d23d 1121 2e3e
000001c0: 1f61 183c 944f 34bd 2a68 52be cca7 083e
000001d0: 831c 783c cb32 dd3b 8174 3b3e 852d a7be
000001e0: 7069 57be ce51 793e b4b3 74bd 290e 68be
000001f0: 8702 503e e3f7 29be 61bd 60be 613e b6bb
00000200: c623 e4bd b9a2 cdbd 749c ebbd b1e8 6c3e
00000210: ef60 d53d d622 0dbe f006 3ebe 2192 d23d
00000220: 94ee 36be 0cb4 11bc 7520 103e c4bc 8a3d
00000230: 4b84 723d 1d69 bb3d cb85 1cbe b1c2 173e
00000240: 385c b63d 245a cdba ccd6 4abe 66d1 0e3e
00000250: d12a 3dbb ede9 37bd 9310 8dbd d955 303e
00000260: fd0a d1bd a3b8 c5be a2bb 833c c549 4d3e
00000270: 0bdc 2bbe f586 fabb 6787 e2bd f173 ea3c
00000280: b704 5f3e 9933 6c3d 4b17 adbd 5bbf ad3d
00000290: afa9 23be ba13 483d 0016 713d fc0e 633d
000002a0: 1af7 383e ae24 123d b030 c8bd c23d 22be
000002b0: 6bea 7a3e b052 573d 5a4e 04bd b094 cdbd
000002c0: 3ed9 c9bd 3be6 5b3e b943 20be e1ce abbd
000002d0: 95eb 4cbd 034d 143e d5c5 413e a6fd 3cbd
000002e0: 6821 eabc a808 3e3e f207 f8bb ec86 313e
000002f0: aa4f 3cbe d95c 633e d736 433d bb41 333e
00000300: 056e 5d3d 0c3b 1b3d 3718 683c 2f54 5f3d
00000310: 8c46 183e 6754 363e fa87 0b3e 7a49 453e
00000320: 38db 7a3e b979 8b3e cc5a 7f3e 664d 153e
00000330: 7db2 873c ffed 61be 9e2e 54bd 0056 0b3d
00000340: 62ce 8eba b338 c03d cd8a 143e e489 8cbd
00000350: 51a5 28be ea9b 26bb d516 fabc ab54 4dbe
00000360: 3215 1b3d 35e9 07be 8ffb 1d3e 07db 4b3e
00000370: 92c0 a7bd 1d4f 733c 8447 37be 74af 0fbe
00000380: b4c6 1cbe e8e9 2e3e 7baf 38be 362d 3f3d
00000390: 5715 0a3e 37f5 5f3d efa1 56bc 03b3 7b3e
000003a0: 42b6 1a3e 84e3 b33d a859 4dbe 8dde 3dbd
000003b0: ea32 0cbd a7df d3bd f08c b4bb 8339 8abd
000003c0: e5ef 72be 0d44 85be b14a 1c3e 63e3 e83d
000003d0: 8196 613e c76c 4fbe 02ca d93d 5d80 22be
000003e0: 7578 263e 4ab1 d03c d099 09be 2e60 f7bd
000003f0: 6ad4 703e c035 16be 9e45 06bc bba8 c2be
-0.31084296 -0.16219926 0.23199438 -0.10379203 -0.014790531 -0.20705108 0.18032038 -0.11993115
0.08032366 0.21304207 0.07558757 0.1525332 0.18862067 -0.03286075 -0.033607308 0.029367212
0.052999042 -0.2933643 -0.16407116 -0.13307685 0.13934314 -0.22514996 0.1556792 0.06757822
0.17748287 -0.091331385 -0.09520718 -0.005339286 0.21938448 0.027473684 -0.20908545 -0.02347355
-0.16742365 0.21166672 -0.2124948 0.10279453 0.12032009 -0.14682423 0.052373324 -0.041902922
-0.20623884 -0.271428 0.07685511 -0.11031888 0.086436294 0.17740044 -0.22683097 0.20736505
0.17528382 0.19026509 0.028556162 0.08101251 0.12627889 -0.10793454 0.19143806 -0.1743631
-0.22603829 0.22253884 0.20840997 -0.00997534 -0.068541676 0.07644679 0.116439395 -0.046813957
0.15616752 0.039094616 -0.0118444385 0.21035029 0.38839588 -0.025758622 0.08372163 -0.14000905
-0.15287529 -0.027709687 0.17153457 0.004167344 0.14948265 -0.12483163 0.04768555 0.06209436
0.056845635 -0.11775949 0.21396914 -0.0388214 0.04649489 0.05487043 -0.07640635 0.16806698
0.12546858 -0.01419216 -0.012124222 0.12510829 -0.1517871 -0.22067437 -0.19266026 -0.13167082
-0.02685032 -0.12464163 0.09624222 0.030507283 0.20511128 0.1840635 0.095166236 0.07096776
0.04736351 -0.16621622 0.05839589 -0.06393767 0.078901246 -0.0912851 0.10265621 0.17004801
0.009300499 -0.044021204 -0.20547548 0.1334526 0.0151435165 0.0067504398 0.18306161 -0.32651916
-0.21036315 0.24347612 -0.05974169 -0.22661652 0.20313464 -0.16598468 -0.21947242 -0.0055616354
-0.11139636 -0.100408025 -0.115044504 0.2313564 0.10418879 -0.1378282 -0.18557334 0.10281778
-0.17864448 -0.008893024 0.14074881 0.067742854 0.059208196 0.09150908 -0.15285413 0.14820363
0.08904308 -0.0015667123 -0.19808501 0.13947067 -0.0028864632 -0.044900823 -0.06887927 0.17220248
-0.10207174 -0.3861743 0.016080681 0.20047672 -0.16783158 -0.0076454827 -0.11060982 0.028619738
0.21779142 0.057666395 -0.084517084 0.08483764 -0.15982698 0.048846938 0.05885887 0.055434212
0.18063012 0.03567951 -0.097749114 -0.15843871 0.24503486 0.05256909 -0.032301284 -0.100381255
-0.09855889 0.21474545 -0.15650834 -0.083890684 -0.050029356 0.14482503 0.18923123 -0.046140336
-0.028580382 0.1855799 -0.0075693065 0.17336625 -0.18389764 0.22203387 0.04765972 0.17505543
0.05406 0.03789811 0.0141659295 0.054523643 0.14870661 0.17805634 0.1362609 0.1926631
0.24497688 0.27241305 0.2493698 0.14580306 0.016564602 -0.22063445 -0.05180227 0.034017563
-0.0010895247 0.093858145 0.14506073 -0.06862238 -0.16469313 -0.0025422522 -0.030528465 -0.2005183
0.03786201 -0.13272555 0.15427993 0.19907771 -0.08191027 0.014850405 -0.17898375 -0.14031774
-0.15310174 0.17081416 -0.1803569 0.046673976 0.13484703 0.054677214 -0.013100131 0.24580006
0.15108588 0.087836295 -0.20053732 -0.04635482 -0.034228243 -0.10345393 -0.005509965 -0.06749251
-0.23724325 -0.2602848 0.15262868 0.113714956 0.22030069 -0.20256339 0.10634233 -0.15869279
0.16256888 0.025475163 -0.13437581 -0.12078892 0.2351853 -0.14668941 -0.008195309 -0.38019356

fc1.bias f4 [256]
00000000: b4fd 85bd 3f70 603e 99be 35be 5f92 35be
00000010: 5b2e a33d d0d6 1cbe 4bb5 c83d 3980 4b3e
00000020: 2234 f13d 38ea fdbc 9a1f 3f3e f687 11be
00000030: 4b6b 2fba ab40 803e c7c0 713d bd3c 353e
00000040: fff4 1c3d 0dca 86be 8411 64be cd32 dcbc
00000050: ee7a 773e 6971 c93d 9a38 223d 77f7 443e
00000060: 30e0 3fbe 2e4b 0dbe 95be 7d3e f241 8c3e
00000070: 94ff 6f3c 9ef0 d33c a14f a8bd 1fd4 3cbe
00000080: 9859 1b3e b66a 9bbc abf6 d9bd c1fa cb3d
00000090: 268d 8cbd a4a0 29bd 756c 703e 5220 163e
000000a0: c34e 53be 7632 9bbe 719f 00bd a304 36be
000000b0: 0c7b 9a3d 9a66 cc3d ee4e 833d b099 bd3c
000000c0: e7b5 0d3e 5082 3b3d 7c53 f2bd edd1 55be
000000d0: f0d8 80bd 2400 a03d 1a10 2fbe 1ea7 a93d
000000e0: 6b6c 0cbe 6c18 2ebd ad47 feba 5a8b 0b3d
000000f0: 3bfe 84bd df77 8cbe 64fd 1a3e e0b0 76be
00000100: bfbb b13d c3fd 06bd 4e28 3d3e 01fa 01be
00000110: 9965 263d e64e 883e 671d 05bd 5ddb 20be
00000120: 1df2 18be 797f 0abc a4f0 053e b5b2 193d
00000130: b7ec 85be 87fd 5fbe 3238 a93d a37c 51bc
00000140: 15de 053e 9c1e 353d 43e2 8c3c 79a9 0cbd
00000150: 2603 523d e056 663e 493e 83be 80d5 62be
00000160: 9b44 343e 653b 84bc d675 e23c ff5f 433e
00000170: fa3c 503e 3a83 63bc d403 893e dea0 f0bd
00000180: 9e80 553e 4952 23be 47c1 173d a37b 3cbe
00000190: 0c6e 003d 4cd5 bfbd 0ec5 17be ee73 5b3e
000001a0: feb7 36be 8bc6 55be f6cc 403e 0b6a 11be
000001b0: 56e7 40be 0f60 063d ab62 5f3e 645a 52be
000001c0: db36 a63d d374 9bbe 31f4 24bc 7ad0 e6bd
000001d0: 2d7b 86ba 7d27 f53d 611e 82bd 0db4 593e
000001e0: 46a1 66bd ebc0 07be 19ee 17be 6c22 db3d
000001f0: 39e0 7ebd d928 1e3e 6b5a 093e df29 af3d
00000200: f655 873e 9005 1bbe 01d8 553d 917a cabd
00000210: 6d5f b1bd 1fb5 2dbe 53f8 14bb 2ac5 d0bc
00000220: 1548 87bc e733 363e 85f7 59be 0e7d b1bd
00000230: 66c6 703d e641 093d d9fe 30be bdd0 823e
00000240: e428 aebd 004d 78bd 835d 473e 6c12 6f3e
00000250: 1426 84be 78da 443d 5f8b adbd 7899 0c3e
00000260: 8d3a 833d e206 42be f431 883e 39c7 843d
00000270: 4f06 473e b705 f73c 1cf4 c43d e974 163d
00000280: ec38 5fbe e918 4ebe baa8 553e 7438 233e
00000290: 0b99 2ebe 2dfa 4bbe 44db e73d 4289 1dbe
000002a0: bde1 11be c53b 9fbd efff a03d 35a0 27bd
000002b0: a510 083e 83dc ed3d 1e05 723e 0831 22be
000002c0: 43b6 753c 2a9b 75bd c8cd 373e ae68 563e
000002d0: c7f3 f43d cd16 8c3e 595e bf3d 2a5e 19be
000002e0: d128 52be 2fd6 053e 5cbd 733e 9c60 603c
000002f0: 5add 813e bb7c 7dbe e157 843e c252 243e
00000300: 7082 033e 0a33 263e dc37 623e 5f6c c4bd
00000310: 3d1e 023e 7872 703e 5c97 a8bd 28ef 2cbe
00000320: 5b58 8a3e ecbf 4e3e 2fd4 42be 5187 bd3c
00000330: 58b4 c53c 339c 5b3e 748b aa3e d60c 3bbe
00000340: b4fd 07be 8c9a 17be ad75 40be b710 08bb
00000350: cfc7 54be 2b24 15be c2ed 1dbe 9dbd 263e
00000360: 5f5f 8d3c 5122 fdba 5cad 5f3e 69a4 953d
00000370: 5ee5 6f3e 93e4 22bc e445 2abe ea9c 48be
00000380: dd3f 70be 249e f23c b3cf c9bc affe 00be
00000390: f655 573e 10c5 453e 99d4 2d3e 0dde 8ebc
000003a0: f08f db3c bd44 b73d 3bd2 44bd 3b09 5c3e
000003b0: 12ff b43d 12b0 35be b3ae 74be 2a95 d33d
000003c0: 58b0 243d 70a7 87bc e71b 173e ae2c 6dbe
000003d0: 7346 35be 355e c1bd ce53 01bd 8d6d 443e
000003e0: 7e1b b73d 7cf3 7a3d 6519 9ebc f574 0d3c
000003f0: 5289 fd3d f465 1a3c 38e2 3cbe 951c b2bd
-0.06542531 0.21917818 -0.17748488 -0.17731617 0.07967826 -0.1531632 0.09800204 0.19873132
0.11777522 -0.030995473 0.18664399 -0.14212021 -0.0006691708 0.25049338 0.059021737 0.17698951
0.038319584 -0.26326028 -0.22272307 -0.026879692 0.24167988 0.098360844 0.03960476 0.19235025
-0.18737864 -0.1379821 0.24779733 0.27394062 0.014648337 0.025871571 -0.08218313 -0.18440293
0.15170896 -0.018971782 -0.10642751 0.09959937 -0.068628594 -0.041412964 0.23478873 0.14660767
-0.20635514 -0.30311936 -0.031402055 -0.17775206 0.075430006 0.09980507 0.06411539 0.023144573
0.13838921 0.045778573 -0.1183233 -0.20880862 -0.062913775 0.07812527 -0.17095986 0.08283828
-0.13713233 -0.04250376 -0.0019400023 0.034068443 -0.06493803 -0.27435204 0.15135723 -0.2409091
0.08678388 -0.03295685 0.18472406 -0.12693025 0.040624235 0.26622695 -0.032498743 -0.1570868
-0.14936109 -0.008453243 0.13080078 0.037523944 -0.26157162 -0.21874057 0.082626715 -0.012786063
0.13072999 0.044218644 0.017197734 -0.03434131 0.051272534 0.22494078 -0.25633457 -0.22151756
0.17604296 -0.016141603 0.02764408 0.19079588 0.2033576 -0.013886267 0.26760733 -0.11749433
0.20849845 -0.15949358 0.037049558 -0.18406539 0.03135495 -0.09366855 -0.14821264 0.21430942
-0.17843625 -0.2087652 0.18828186 -0.14200608 -0.18838248 0.032806452 0.21814983 -0.20542294
0.081159316 -0.30362567 -0.010067985 -0.112702325 -0.0010260098 0.119704224 -0.063534506 0.2126009
-0.056306146 -0.13257186 -0.14836921 0.10699925 -0.062225554 0.1544527 0.13413398 0.08552908
0.2643277 -0.1513884 0.05220795 -0.09886659 -0.08660779 -0.16963623 -0.002273102 -0.02548464
-0.016513864 0.17793237 -0.21285827 -0.086664304 0.058782957 0.03351011 -0.17284717 0.2554988
-0.08503893 -0.060620308 0.19469266 0.23346871 -0.258103 0.04805991 -0.084738486 0.13730419
0.06407652 -0.18947938 0.2660061 0.06483311 0.19436 0.030154092 0.09616873 0.036732588
-0.21799058 -0.2012669 0.20865145 0.15939504 -0.17050569 -0.19919653 0.113211185 -0.15384391
-0.14246269 -0.07775072 0.078613155 -0.04092427 0.132876 0.11614325 0.23634765 -0.15839016
0.014997068 -0.05996243 0.17949593 0.2093837 0.11960559 0.27361146 0.09344167 -0.14977327
-0.20523383 0.13069986 0.23802704 0.0136949085 0.2536419 -0.24754612 0.25848296 0.16047195
0.12842727 0.16230407 0.22091621 -0.09590983 0.12706847 0.23481166 -0.082319945 -0.16888106
0.27020535 0.201904 -0.19026254 0.023135813 0.024133846 0.21446304 0.3330952 -0.18266615
-0.13280374 -0.14805049 -0.1879489 -0.0020761916 -0.20779346 -0.14564578 -0.15422729 0.16283269
0.01725739 -0.0019312595 0.21843475 0.073067494 0.2342734 -0.009942192 -0.16628224 -0.19591108
-0.23461862 0.029616423 -0.024635172 -0.12597154 0.21028885 0.19313455 0.16975631 -0.017439866
0.026802033 0.08948658 -0.048052054 0.21487896 0.08837713 -0.17742947 -0.23894767 0.10331185
0.040207237 -0.016559333 0.14756738 -0.23161575 -0.17702655 -0.09441797 -0.031574063 0.19182415
0.089407906 0.06126736 -0.019299218 0.008633842 0.123797074 0.009423722 -0.1844567 -0.08696858

fc2.weight f4 [256, 256]
00000000: d225 fc3c 2d91 173c 5df1 0dbd a6a4 7c3c
00000010: be74 f43c dbb4 e83c f2f0 fe3c ea44 72bc
00000020: 7986 843c 83e2 683d 4355 873d 661a 923d
00000030: f549 643b 977c f1bd 0080 dd3c be91 18bd
00000040: 861b 6d3d f26c 103d 903b 923d dd69 a53c
00000050: 40d2 85bd 9428 8a3c 106d 7bbd d1c4 a53d
00000060: 3611 28bb 4d26 703d fcf4 563d fd74 19ba
00000070: 0e55 353d 87c1 2abd b230 39bd d4ba 953d
00000080: acb4 8b3c c5ee a8bd c5af d7bc 6d16 e7bc
00000090: 77fc 7cbd cf92 24bc d7d9 6e3c cbb4 7ebd
000000a0: 7089 49bd 7c88 21bc 9e30 9a3c 7125 22bd
000000b0: c813 963d 6e44 88bd d3b0 043c 98d2 0fbd
000000c0: 734c 8dbe 1aa5 ad3d 7a97 bf3d 971f afbc
000000d0: 8ce4 94bc 20d2 91bc 18c9 9bbd f945 adbd
000000e0: a117 1ebd 451b f73c 49f6 8ebd 1ef8 a7bb
000000f0: 44b6 af3c ea60 4ebd 85b6 e0bc 0599 2abc
00000100: 28b9 653d 4b8a bfbc 513e b3be dbb4 bc3c
00000110: 84b6 403d 16f1 8bbd 8b63 443c c233 5bbc
00000120: abf8 87bd 7441 9abd 4077 433d 2a8e cb3c
00000130: dd29 3c3d 4dce 2f3d cec2 69bd 9f8e 8fbd
00000140: 1717 5a3d 71ce 3d3d 76d7 abbd 843e 18bd
00000150: 359a b63d f15d 40bd 318b 92bd c265 3a3d
00000160: f6d5 a8bb 2a28 4abd c057 6b3d fcc9 9b3d
00000170: 547e 2a3d 9128 b33b d464 ecbc 2769 20bd
00000180: d513 aa3c bb8a f8bc 2ba2 c9bd 5ed6 3d3d
00000190: 4e92 7c3d e910 763d 9d96 d7bc d43d 0bbc
000001a0: fdd3 733d 11ea 55bb 426e 81bd 2e48 c9bc
000001b0: 006b 1fbd 1a42 3bbd 0c52 2dbd b765 e5bc
000001c0: 9f48 96bb 7544 3ebc 9a43 73bd acef 01bd
000001d0: b4f2 7abd 2947 a5bc b9ea 6abd eb26 083d
000001e0: 7851 903d 7130 a03d 1141 c3bc 59f1 303d
000001f0: 314f 4a3c 88ba 0ebd 852e 02bd 6b85 203d
00000200: d488 35bc cee8 68bc 0000 b83b 13c3 5c3c
00000210: 3d12 213d 29c1 033d 3ce5 5f3d 1f20 813d
00000220: a266 0d3c 79a4 9b3d dd3b 8e3c 7ec9 7cbc
00000230: a15f dd3c c623 77bd b3f3 41bd 5de3 10bd
00000240: a441 f1bc 1983 a4b9 dc56 c73c 5980 30bc
00000250: 40dc 863a c77f 85bd 85c8 68bd fb48 9dbb
00000260: 53d7 adbc 4f17 cabd 6edc 8b3c 82fd 30bc
00000270: cb94 823c df7f ddbb d902 09bc cad6 d1bb
00000280: cafa 7c3d 2981 5f3d 3a17 d8bd 209b 43bc
00000290: 12e4 a8bc 7707 d93c 25cc 96bd a4e3 6cbd
000002a0: 7d4b 21bd cbe6 5e3d 87c2 0bbd a88e 9ebd
000002b0: 79bd b23c c736 ed3b 5b5f 93bc 8011 323b
000002c0: 4589 0fbd a20e 9f3d ca3d a4bc 3aeb 383c
000002d0: 832a 8d3c 297e 3c3d 0851 a53c 0e74 3c3b
000002e0: 16f8 383c 4c54 5a3d a12f 553c 6836 5dbd
000002f0: 281e 603c cbd1 1cbd a332 aabd b788 083d
00000300: 8e34 233d 35f6 7ebd 6763 693d d294 853c
00000310: 382e a03d dbf2 fa3b 0d8d bcbc fb75 c73c
00000320: ef66 9abd be29 95bd ba37 983d 1c04 a0bc
00000330: 0b6d b23c d703 17bd 16c0 8bbd bd0a a7bd
00000340: e65d 183b 0c22 923c 5f15 a33d 3b6f 7d3c
00000350: d6a4 583a 9478 69bd c61d 8b3d a7f8 03bc
00000360: 1b07 21bd 63d1 2abd 0878 9fbd 8ddb a33d
00000370: 1827 343c d131 60bd 2bcd da3b d6e9 56bc
00000380: 95ae ed3c b411 ec3c c9e5 223d f347 3e3d
00000390: fcf0 6e3c f4de 013e 01c5 5dbc 262d 9ebc
000003a0: fdc3 90bc 63df 963d 076b 413d 343e 58bc
000003b0: 66ac 95bb 4583 923d b1b9 a8bd ad4a f8bc
000003c0: d58e 80bd eedc 7c3c b525 d5bc 9fab f0bc
000003d0: 8f5f d3bd fc10 0dbc d666 b0bd e584 b73c
000003e0: cdab 0f3d 7ea8 b83b 4f48 17be ae79 c43c
000003f0: 5aa1 f0bc 34bd 833d 2fb8 44bc 5c71 0e3d
0.030779753 0.009250921 -0.03465401 0.015420115 0.029840823 0.028406551 0.031120751 -0.014786938
0.016177403 0.056856643 0.06608059 0.07133941 0.003483412 -0.11791342 0.027038574 -0.037248366
0.057887577 0.03526015 0.07140267 0.020192081 -0.06534243 0.016865052 -0.061383307 0.080941804
-0.0025645024 0.058630276 0.05247973 -0.00058539194 0.044270568 -0.04168847 -0.045212455 0.07311025
0.017053925 -0.08248667 -0.02632893 -0.028208936 -0.061764207 -0.0100447675 0.014578304 -0.062184136
-0.049203336 -0.009859201 0.01882201 -0.03958649 0.07327992 -0.06653677 0.008098799 -0.035112947
-0.2759739 0.08478756 0.09355064 -0.021377368 -0.018175386 -0.01780039 -0.07606715 -0.08460612
-0.038596753 0.03016437 -0.06980569 -0.0051260134 0.021449216 -0.050385393 -0.027430782 -0.010412459
0.056084782 -0.023381373 -0.3500848 0.023035457 0.04704906 -0.06833093 0.0119866235 -0.013379039
-0.066392265 -0.075320154 0.047721148 0.024848063 0.04593836 0.042921353 -0.057070546 -0.07009625
0.053244676 0.046339456 -0.08390705 -0.037168995 0.089161314 -0.04696459 -0.07155455 0.0455072
-0.0051524593 -0.04935471 0.05745673 0.07606885 0.041624382 0.0054674824 -0.028856672 -0.03916278
0.02076141 -0.03033959 -0.09845384 0.046347015 0.061662965 0.06007472 -0.026316935 -0.008498628
0.05952834 -0.0032640735 -0.06319858 -0.02457055 -0.038920403 -0.045717336 -0.042314574 -0.028002603
-0.004586294 -0.011613001 -0.05939064 -0.03172271 -0.061266616 -0.020175533 -0.057352755 0.03324024
0.07046789 0.078217395 -0.023834737 0.043198917 0.012347982 -0.03484586 -0.031782646 0.039189737
-0.011079986 -0.014215661 0.0056152344 0.013474244 0.039324034 0.032166634 0.054661974 0.06304955
0.008630427 0.0759973 0.01736253 -0.015428899 0.027023138 -0.06033685 -0.04735155 -0.03537308
-0.029450245 -0.00031378193 0.02433341 -0.010772788 0.0010289028 -0.06518512 -0.056831855 -0.0047999597
-0.021220839 -0.09867727 0.017072883 -0.0108026285 0.01594009 -0.006759628 -0.008362495 -0.0064037787
0.06176261 0.054566536 -0.10551305 -0.01193884 -0.020616565 0.026492817 -0.07363156 -0.057834283
-0.03937863 0.05441932 -0.034121063 -0.07742053 0.021818863 0.007239196 -0.017989805 0.0027171075
-0.03504302 0.07766463 -0.020048995 0.011286551 0.017232185 0.046018753 0.02018024 0.0028755697
0.011289617 0.053303048 0.013011844 -0.054006964 0.013679065 -0.03828601 -0.083104394 0.033333506
0.039845042 -0.06224652 0.056979563 0.016306315 0.078213155 0.007658345 -0.023016477 0.02434825
-0.07539164 -0.07283352 0.07432504 -0.01953321 0.021780511 -0.036868896 -0.06823747 -0.08156345
0.0023249327 0.0178385 0.079630606 0.015468414 0.00082643086 -0.056999758 0.06792788 -0.008054889
-0.039313417 -0.041703593 -0.07786566 0.0800086 0.010995649 -0.05473501 0.00667729 -0.013117274
0.029013911 0.028817035 0.03976992 0.046455335 0.014583822 0.12682706 -0.013535739 -0.019308638
-0.01767158 0.073668264 0.04722121 -0.013198424 -0.0045676706 0.07153944 -0.08238543 -0.030309046
-0.06277243 0.015433533 -0.026018957 -0.02937871 -0.10320961 -0.008610006 -0.086133644 0.022402236
0.03507595 0.00563532 -0.14773677 0.023983803 -0.029373813 0.06432572 -0.012006803 0.034776077

fc2.bias f4 [256]
00000000: 8914 823c 51f5 6abd c37c 883d 6ef0 77bd
00000010: 88b9 bd3c ec81 e4bc 7a6a b8bc 1f21 fdbc
00000020: 2fb8 6c3d 85a9 9a3a e04f 623d 0250 a63d
00000030: 3fda d73c c1a0 15bd 9877 85bd 43f0 053d
00000040: 1375 e73c d6d8 98bb d98b c3bc 17bd 96bc
00000050: cb25 b2bc 4763 5439 5b56 423c ebad dabc
00000060: 7b67 06bd e6aa 073d c712 27bc 388b 8439
00000070: c4a5 33bd 2389 95bd 300c 9b3d cfe6 07bc
00000080: 02b1 97bc 680b 973d 5201 8a3d af51 9abd
00000090: 603d 203d 183d 5c3d 94be c6bd 8a49 643d
000000a0: 9384 e63c 5561 5abc e2aa 36bd 4220 fe3c
000000b0: 0b69 713d a69d 9f3d 442b 553d 8c10 8abd
000000c0: d377 bcbc b781 6b3d 3da8 813d 9077 983d
000000d0: 2959 653d 8163 24bd aa86 f9ba cd08 af3d
000000e0: 1c0b 013d 3b59 70bc 3187 853d ff5b 71bb
000000f0: 0b72 d73c b88f 3bbb d147 933d 92ef 78bd
00000100: e707 aa3c e974 aabc d58a 25bd 2141 d5bc
00000110: 423e 4cbd 6e84 aa3c bca4 dc3c 8f2c f13d
00000120: 986b 393b 7c41 45bc 5f20 4b3d 61af 433d
00000130: 4d0c 853d ec14 313c 1cef 76bc 0a6c fa3c
00000140: 0041 763b 59ae 54bd 3e1c 67bd 64a0 c7bc
00000150: 0d67 60bd 53d8 59bc 22aa 1b3b ebc5 6b3b
00000160: 4bc7 193e 2abb cdbc b859 053d b94b d4bc
00000170: 70be 46bc 32eb d9bc 6c78 38bd 631c 92bc
00000180: dddf 81bc f1cc 8e3d 8d38 473d 20c9 1bbc
00000190: fb46 713d 5135 6b3d acb8 a6bc 045c 39bb
000001a0: 1073 4abd cbf9 99bc 2945 94bd 0413 90bc
000001b0: 3eaf e33d 2d9e 813c 267c a83d 2d58 02bd
000001c0: a394 fd3c 8a75 17bd 9793 fcbc 9741 11bc
000001d0: 47ea 633d 1945 2dbd 1156 673a 7d9c 263d
000001e0: 15b9 3c3e 77db 22bd bb8c 943c 08e1 073d
000001f0: 97b4 b8bc b7be 91bd b199 21bd 04fd bc3d
00000200: f92e edbc 4bfe 21bc 7c9e c33d fdd7 4cbd
00000210: 0d22 fabb 7dd2 6a3d 1291 e83b 9d2d 81bd
00000220: 3a84 0f3d 8045 543c 3bc2 403d 1450 2cbd
00000230: ed8f f23d af51 a1bc c1cc 5dbd 7185 bd3d
00000240: 34d9 3abd 45bf 693d 8c38 57bd 0347 cebc
00000250: abb9 4d3d cddf 1f3d 54bc 39bc 9cd9 c23d
00000260: 1af5 16bd a9d7 a53d 8e6a 5f3d c319 8f3d
00000270: 501c 77bc fe7e 6dbb 9731 8a3d ecbb d2bc
00000280: 6b1f 63bc 3e27 e63c b993 8f3c 09c6 f6bc
00000290: b218 e9bb ab34 64bd aa3f 863d 99ea 5b3d
000002a0: c65b 8fbd a5f0 81bd 786d 9a3c 9225 023d
000002b0: f903 753d da58 a03c d96f 1cbb fb48 45bd
000002c0: ff86 9d3d f411 39bd 3b90 80bc 5f4a 983d
000002d0: 8e21 233d 314e 9ebc 3c47 59bd 28f4 ce3d
000002e0: 21fc 13bd 09fa 14bd 61a3 083e 8410 e03c
000002f0: d5a8 8b3d 70bd 7dbd 506a 563d b0b1 1cbc
00000300: 834f b1bd cc84 ce3b 4476 bd3c b252 d23c
00000310: 1f10 523c 0ab3 21bc 779e 6b3c cb5d 64bd
00000320: da7b f03c e450 d8ba 8c4c b5bc 6584 a2bb
00000330: 13ee 8f3d 2f0c 56bc c664 bdbb cd79 7fbc
00000340: 1929 0e3d 1547 b43c c4eb 19bd 80cb 813b
00000350: 89cb 72bd a027 253c 1b43 7f3d f95d 93bc
00000360: 62a5 d2bc 4d85 d83d 9d68 2a3b f4c0 0e3d
00000370: 16a6 f339 634d 9c3c ed75 5fbc ed55 e43c
00000380: 222f 4d3d eca9 e6bc 2d4d f43c 55fb 6a3d
00000390: e9ab 8cbd fbdc ca3c 5c9f 973c e9d0 8c3d
000003a0: 6504 893d 0288 073d 40fb 023d bc8c b4bc
000003b0: 7e09 89bc 17e3 1dbc b5da dfbc 6171 86bc
000003c0: 6ef4 3ebd 10f5 fa3c f76d 44b9 aae2 88bc
000003d0: 8598 26bd 4955 c8bc 6a47 053d 9c20 2f3d
000003e0: 9942 91bc 29bf adbc c218 3cbc 373c cf3c
000003f0: 7dfa 54bd d377 83bd 127f 34bd cd79 2e3d
0.015878933 -0.05736286 0.066644214 -0.060532026 0.023159757 -0.027893983 -0.02251171 -0.030899582
0.05779284 0.0011799788 0.055251956 0.08120729 0.026349185 -0.03653026 -0.06516951 0.032699835
0.028254068 -0.0046645207 -0.023870395 -0.018400712 -0.021746537 0.00020254879 0.011861409 -0.026694259
-0.03281353 0.033121966 -0.010197348 0.00025280728 -0.04385926 -0.073015474 0.07570684 -0.008294775
-0.018517021 0.073752224 0.06738533 -0.07535111 0.03912103 0.0537692 -0.09704319 0.055734195
0.028139388 -0.01332887 -0.04459656 0.031021241 0.058938067 0.07793741 0.052043214 -0.06741437
-0.023006355 0.057496753 0.06330917 0.0744468 0.055993233 -0.040133957 -0.0019037325 0.085466005
0.031504735 -0.014669712 0.06519926 -0.0036828516 0.026299497 -0.0028619599 0.07191432 -0.060775347
0.020755721 -0.0208077 -0.040415604 -0.026032032 -0.04986406 0.0208151 0.02693402 0.11776077
0.002829289 -0.0120395385 0.04959142 0.047774676 0.06496487 0.010808211 -0.015071657 0.030569095
0.0037575364 -0.051924083 -0.05642342 -0.024368472 -0.054785777 -0.013296205 0.002375253 0.0035976123
0.1501743 -0.02511366 0.032556266 -0.025915014 -0.012130365 -0.026601408 -0.04503672 -0.017835801
-0.015853817 0.06972683 0.048637915 -0.009508401 0.058905583 0.057423893 -0.02035173 -0.0028283605
-0.04942614 -0.018795868 -0.07239754 -0.017587192 0.11117409 0.015822494 0.082268044 -0.031822372
0.030954665 -0.03697733 -0.030832095 -0.0088657355 0.055643346 -0.042302225 0.00088247756 0.040676583
0.18429978 -0.03976008 0.018133512 0.03317359 -0.02254705 -0.07116454 -0.039453212 0.092279464
-0.028953062 -0.009887288 0.09551713 -0.05001067 -0.0076334537 0.057329644 0.007097372 -0.06307528
0.03503821 0.012956023 0.047060233 -0.042068556 0.11843858 -0.01969227 -0.054150347 0.092539676
-0.045617297 0.057067174 -0.05254416 -0.025180345 0.050225895 0.039031792 -0.011336405 0.09514162
-0.03685484 0.080977745 0.054544978 0.069873355 -0.015082434 -0.0036239023 0.0674774 -0.025724374
-0.013862471 0.028094884 0.017526494 -0.030123727 -0.0071135396 -0.05571429 0.06555112 0.053690527
-0.06999926 -0.063447274 0.018851027 0.03177411 0.05981824 0.019573618 -0.0023870377 -0.048165303
0.07691764 -0.045183137 -0.015693774 0.0743606 0.039826922 -0.019324394 -0.05304645 0.10105163
-0.03612912 -0.036371265 0.13343574 0.027351625 0.068193115 -0.06194824 0.05234748 -0.009563848
-0.08657744 0.0063024517 0.023127683 0.025674198 0.012821226 -0.009869346 0.014381043 -0.05575351
0.029355932 -0.00165036 -0.022131227 -0.0049596303 0.07027831 -0.013064428 -0.0057798354 -0.015593004
0.034707163 0.02200655 -0.03757836 0.0039610267 -0.059276138 0.010080248 0.062319856 -0.017989146
-0.025713626 0.105723 0.0026002296 0.034851983 0.00046472315 0.01907987 -0.013638956 0.027873004
0.050093777 -0.028157197 0.029821957 0.057368595 -0.06868727 0.024763575 0.018508606 0.06875784
0.06690291 0.03308869 0.031977892 -0.022039764 -0.016728159 -0.009636662 -0.027325967 -0.016411485
-0.046619825 0.030634433 -0.00018732982 -0.016709644 -0.040672798 -0.02445473 0.03253881 0.042755708
-0.017731952 -0.021209316 -0.011480512 0.025297267 -0.051996697 -0.06419339 -0.044066496 0.042596627

fc3.weight f4 [6, 256]
00000000: 87c7 ffbc a8f6 36bc 0c86 cc3b ba65 bebc
00000010: 5658 e8bc e440 e6bc 37e0 7d3d 6dd8 f8bc
00000020: 7f28 a2bd b15e cbbc c732 ea3b f4b4 1fbc
00000030: 4dd7 6f3c 2338 393c 7e50 2d3a 526d 083d
00000040: 3509 7f3d 8575 253c 3241 1e3d 9271 56bc
00000050: 659e 303d 4801 c03c e3ea 6f3d e4a4 0abd
00000060: 90fd 59bd 1353 fe3b 3374 21bd 9b10 363d
00000070: dcdd 303d 0ca9 39bd 68c4 073d c578 7a3c
00000080: d4bf fdbc 706f a33d c009 5cbd 39da d8bc
00000090: f9d2 0abd 28e5 70bc 45e9 a93c 1b7a 54bc
000000a0: 2455 c2bc a72b 23bd c4f2 953c c258 5d3d
000000b0: f8a3 91bc 87da 4dbd a002 203d 62aa d13c
000000c0: d7b8 093d 84fd ccbb ded7 323c 1fd3 4a3d
000000d0: 4862 95bc 68c9 55bd 1eb3 f13c 7889 c8bb
000000e0: 37c6 533d d44d adbc 8fe5 473c 6aa1 213d
000000f0: 51ce 463c d2b8 0cbd d266 5ebc 9cbf 85ba
00000100: 6ee9 f83c 208c 7abd 04ff 7f3b ade1 8b3d
00000110: 3bc6 083d b7bf 25bd e22c 403d c9ba 22bd
00000120: 7232 ff3c b680 5f3b ba94 853d 4fdb c03b
00000130: 7ad5 99bc 94c0 0d3d 1b50 21bc ca24 873c
00000140: 4a5f 2d3d b237 8f3d ac40 203d ebc9 be3c
00000150: 6be5 9f3d 2cfe 8d3d 0f8b d33c fc97 103d
00000160: b136 0fbe 61be 823d 2313 ba3b e3d2 263c
00000170: 6e44 443d 429f 7d3d 39c4 3d3d 28bd fbbc
00000180: 5b0a 85bd e6c3 e43a 9d08 d0bb d7fa 6abc
00000190: 9c41 0abd 2b87 34bc a75d 903c 2f63 b6bd
000001a0: 3ac7 263d 9092 863d 329f b13c 5e38 c8bb
000001b0: 5d86 80bd 7ae5 823d 7e63 6ebd dbe1 3c3d
000001c0: e4dd 9abc 86da 8a3d 19f2 5a3d 75fb d2bd
000001d0: e869 68bd 78cc ccbc b255 d2bd 1ba9 78bd
000001e0: 72ce a23d 63b4 3a3d 1da7 39bd 6709 823d
000001f0: 4f0c ba3b d951 1e3d 1dd6 853d 7072 ae3d
00000200: 4c14 853d 7a1a 8fbd dd3a 61bd 7e81 773d
00000210: f753 26bd f8e3 7e3d fc1b 393b 971b 963c
00000220: 1bef 383c ace7 4a3d 2bd6 63bc 253c 8bbc
00000230: cf9f 00bd eb56 683d d052 813d ba77 64bd
00000240: 9cb4 44bd 5a63 10bd 62f8 973d 5620 f4bc
00000250: 21f9 073d bb4f 813b 6a62 e7bc 0ecd 6d3d
00000260: cb5b 9c3d d41d 873d 200b 9a3d 0a90 5bbc
00000270: baee 49bc a14f 17bc 3f2c 8fbd ca28 bdbc
00000280: a4b1 963d 3b1b 1cbd 0b5a 353d 3de1 a4bc
00000290: 612c 9f3c 7766 d93d 40fe b53d 45b5 413d
000002a0: 99b7 01bd 2636 363d 4fe7 163b 67a7 0f3c
000002b0: eb2d 1639 332b 063d 9f36 663c 1b86 17bd
000002c0: 3f1f d2bd 3a70 073d 86d4 2dbb 710e cb3c
000002d0: bb88 b5bc 5ac3 eb3c 8231 76bc 3150 fbbc
000002e0: 084b 1bbd 47cc 153d 0f14 51bd 139b 8c3d
000002f0: 99e9 893b 7109 7a3d 8031 96bc 1356 02bd
00000300: acc1 2b3d d18a 673c c778 04bd 521c 433c
00000310: 9c06 c73c c046 ce3c 0daf 00bd 9086 5b3d
00000320: 1eac 8d3d 6ee2 1a3d b8c6 923d 0f9d c1bd
00000330: 3973 10bd 314e b5bc 7786 06bd d40b a03b
00000340: e7a8 75bd 43ca 83bd e1b4 823c 8c3b e6bc
00000350: 387b 07bd ed18 a5bd 4ddd fabc d166 a7bc
00000360: e2d1 683d 6373 84bd 351f 66bb 21d7 82bd
00000370: 9442 b33c 6140 78bd ef59 2f3d 8473 9a3b
00000380: 3d26 2d3c 3cfc a3bb dfd0 34bd bc5a 87bd
00000390: 97f9 d93b 39b1 243b 52aa a8bc 892c c73d
000003a0: 14bb 823d d2e3 6d3d ec58 1e3d 9ab8 3d3d
000003b0: 66e6 373c c65a 9a3d 1bfe 693d c019 2f3d
000003c0: 55b1 06bd fe2a 69bd 524e 833c 8ae8 d1bd
000003d0: 14ea 3ebc 5c5e 31bc 0373 9cbd 71ce 17bd
000003e0: cc84 d9bc e3a0 06bc e016 b6ba ac6c f83c
000003f0: 212b ab3c 259a 37bd aea3 89bc a53e 9a3b
-0.031223072 -0.011167206 0.0062415656 -0.023241866 -0.028362434 -0.028107114 0.061981406 -0.030376637
-0.0791788 -0.024825426 0.0071471664 -0.009747732 0.014638734 0.011304888 0.00066114205 0.03330738
0.06226464 0.01009882 0.038636394 -0.013088601 0.043119807 0.023438111 0.058573615 -0.03384866
-0.05322033 0.007761368 -0.039417457 0.04444943 0.04318033 -0.04532723 0.033146292 0.015287583
-0.03097526 0.079802394 -0.053720236 -0.026471244 -0.033892605 -0.014703073 0.020741114 -0.012968565
-0.023722239 -0.039836552 0.018304236 0.054039724 -0.017778382 -0.050257232 0.039065003 0.02559394
0.033623543 -0.0062558074 0.010915725 0.049517747 -0.01823534 -0.05219403 0.029504355 -0.006119903
0.051702704 -0.021155275 0.012200727 0.039460577 0.012134151 -0.034355946 -0.013574319 -0.0010204199
0.030384745 -0.06116879 0.0039061913 0.068301536 0.033392172 -0.040466037 0.046917804 -0.039728913
0.031151984 0.0034103817 0.06522508 0.0058855186 -0.018778551 0.034607485 -0.009845759 0.016497035
0.042327203 0.06993045 0.039124176 0.023289641 0.0780743 0.06933245 0.025823144 0.035301194
-0.13985707 0.06383968 0.005678551 0.010182115 0.047916822 0.06191946 0.04632971 -0.030729845
-0.06496116 0.0017453402 -0.006348683 -0.014342031 -0.033753976 -0.011018555 0.017622782 -0.089056365
0.04071734 0.06570923 0.021682356 -0.006110235 -0.06275628 0.063914254 -0.058200352 0.04611383
-0.018904634 0.06779961 0.05345354 -0.10301868 -0.056741625 -0.024999842 -0.10270251 -0.060708147
0.079495326 0.045582186 -0.045325387 0.063494496 0.005677737 0.038652275 0.065349795 0.08517921
0.06498012 -0.06987472 -0.054987777 0.060426228 -0.04060742 0.062229127 0.002824544 0.018323703
0.011287476 0.049537346 -0.013906042 -0.016996453 -0.031402405 0.056723516 0.06314623 -0.055778243
-0.048023805 -0.035251 0.07420422 -0.029800575 0.033196572 0.003946272 -0.02824517 0.058056884
0.076346956 0.06597486 0.07521653 -0.013401041 -0.012324983 -0.009235294 -0.06990861 -0.023090739
0.07358101 -0.038111906 0.044275325 -0.020126933 0.019430341 0.10615247 0.08886385 0.047292013
-0.031669233 0.044485234 0.0023026054 0.008767939 0.0001432222 0.03275604 0.014051109 -0.036993127
-0.10259866 0.033066012 -0.002652438 0.02478716 -0.022159925 0.028779674 -0.015026452 -0.030677887
-0.037913352 0.036571767 -0.05104452 0.068655156 0.004208755 0.06104416 -0.01833415 -0.031820368
0.041932747 0.0141322175 -0.032341745 0.011908608 0.024295144 0.02518022 -0.03141694 0.053595126
0.069175944 0.037813596 0.07166809 -0.09453785 -0.035266135 -0.022132011 -0.03284308 0.0048842225
-0.05997553 -0.06435063 0.01595539 -0.028104566 -0.033076495 -0.08061395 -0.030623103 -0.020434769
0.056840785 -0.06467321 -0.0035113816 -0.06388689 0.021882333 -0.06060827 0.042810377 0.0047134776
0.010568199 -0.005004434 -0.044144507 -0.06609103 0.006652068 0.0025130047 -0.020589028 0.09725291
0.063833386 0.058078595 0.03865902 0.046318628 0.011224365 0.07536845 0.0571271 0.042749166
-0.03288396 -0.056925766 0.016028557 -0.102494314 -0.011652488 -0.01082572 -0.07639124 -0.037062112
-0.02655258 -0.008217069 -0.0013892315 0.030325256 0.020894589 -0.044824738 -0.016801681 0.004707175

fc3.bias f4 [6]
00000000: de21 293d af96 003d bbe6 1f3c 50c0 713b
00000010: d7a4 063d a70c 623d
0.041292064 0.031393703 0.0097596 0.0036888309 0.032872047 0.055187847
