half_cheetah_im.pth (torch, 685976 bytes, 6 tensors)

fc1.weight f4 [401, 17]
00000000: ea26 e2be 359e 8d3e f83c 1c39 79eb a33d
00000010: 2fc9 7cbe 60b7 a7bd cb6a 52bd e927 c73d
00000020: a498 b1be ef60 c43e d3f2 1e3d feda 853e
00000030: 04c9 babd 7f47 41bc d269 b63e bc16 ab3d
00000040: 0b52 69be 8dae d0be b1f7 72be efe7 c9bd
00000050: f513 293e 16a5 9abd ecb9 863d a9cc 81bd
00000060: 44fd c73c ebf0 d9bd 99e2 a03e ad17 cebe
00000070: 3dab 6fbe 2c05 0fbe b7ca 3d3d 344b 953d
00000080: e78b 29bd 7f39 a4be 6cb1 bcbe e173 79bd
00000090: eafe 7c3e 183c a93e 04f0 afbe 49b6 593d
000000a0: c9a2 cebc 3734 063d a95e 5ebe aed5 47be
000000b0: cb59 d2be 4803 cdbd 9253 c1bd d7b8 ed3e
000000c0: 34b7 cbbd ca32 b9bc a9c4 2abe 5250 373e
000000d0: 865b bcbd e044 6f3e ada6 9e3e 4bc5 c23d
000000e0: ea6a 59be f973 e4bd 0ff8 55bb 8e72 9a3e
000000f0: 5d9f d93d 5267 d03d e31c 63bd 9c3d 1b3d
00000100: 36c8 983d b14f 3bbd 6f7d eebd 3091 09bd
00000110: 5f84 783e f394 50be 3cc6 9cbd 65d0 933d
00000120: 6927 15bd 1b22 273e d078 133e 52b3 813d
00000130: 2586 56bd 0da5 933c bcf2 e2bd 80ad 96be
00000140: 6a0b ab3d 9f99 26bc 4f7b 773d 46f5 26be
00000150: a52b 563d 9ad0 173e ee5d 383e 75e9 823c
00000160: d83b 2a3b a9dc 873d 9bfc 203e 92ba 0cbe
00000170: 7090 233e c045 aa3d e645 2c3d ec23 45be
00000180: 26d3 b1bd be46 593e a065 ad3d c7f6 683d
00000190: 5fcb 9bbd 2ae9 833a e725 22bf 679b 4ebb
000001a0: 3808 0c3e f8d0 9ebd 4157 61bd b8f1 11bd
000001b0: 69ad f0be 4a78 353e 879c 2abe 9ef5 91bc
000001c0: f762 3e3e 88cf 1e3e 2ff4 613e 82b1 683d
000001d0: 1746 73be 29af 2fbe 1e18 78be bb03 403e
000001e0: 8c55 203e 888f 56be 67b9 d43e 1f07 febe
000001f0: 2e30 37be 88c5 7bbd 30b8 953e 432c 00bf
00000200: 8f36 97bd c9b0 6abe 5450 c6bd d695 56be
00000210: 0170 c8bd b90e d33d 1390 34be 23c1 0c3e
00000220: 7b09 2b3e edd9 a8bd 956e 1cbe 59ae 473e
00000230: f967 15be 2bdb c6bc 1a37 74be 800d c1bd
00000240: 5870 9fbe af52 e63d f571 de3d 6cc8 063e
00000250: 55e5 b53d c7a1 a43e ae8d 3a3e 1a0d 1ebe
00000260: 8a9b 523d 42f8 fa3c 1089 913d b921 eab9
00000270: 2a73 963e d4ae b8be da82 813c b27e 313e
00000280: fb26 81be a7d1 a1bd 0d29 413e b88f 1bbf
00000290: 0d8b d0be 5f5e debc 174b 3d3e 9cca a43e
000002a0: 561a 16be 17bb b43d 626b a0bd bfd1 53be
000002b0: f844 84be a1ca fa3e 6f7e aab9 7ea8 d53c
000002c0: d8fa 853d e51d 023d 51d3 813d caae 653e
000002d0: 074b ccbe 890e cdbe 4e2d 0a3e ef01 993e
000002e0: d87c 6a3e efc5 d7be 173d 943e a645 3bbf
000002f0: 3ab4 233d 19dd 3f3d 15b5 383e 2bf7 36be
00000300: bfcf 6c3e 10be 12be f747 3abe 6955 0a3e
00000310: add3 edbb 5890 1c3e ee49 43be cdd3 113e
00000320: aae0 373e f1c3 8dbd 8165 70bd ff50 5f3e
00000330: c3b7 5dbe bd9d 42be b349 0fbd b173 463e
00000340: 9ba0 f9bd 616b 88bd 72f9 b3be 4e9c a13e
00000350: 4401 4ebe 7b0d 873e 466c 06be a3d2 18bf
00000360: 3f1d a4bd 7aab 6b3d d8ec b73d 2ca1 a5be
00000370: fec1 a7be 3d77 b13e 80e0 243e f6c3 6cbd
00000380: 0e85 8abe 05ba d53d a5f9 383d 228a 183e
00000390: 38ea 35bd eeb2 233a 8764 a2be 5211 5abe
000003a0: 8031 863d 4f8b ab3d 0d88 943e de57 91bd
000003b0: 1be0 62be 9acc bc3d 43bf 0d3f 5e11 ccbe
000003c0: 72d9 7a3d 58d8 263e 6a0f aebc c665 703c
000003d0: fa4a 07be 6d38 66bb 97a1 753e 61a8 a23e
000003e0: ad4c 6ebe 25dd 1d3c 7aa3 fdbd 86fb 8f3e
000003f0: 5bcd 643e b987 60be ff3e 0dbe c3ff 943d
-0.44170314 0.27659765 0.00014900032 0.08003897 -0.2468612 -0.08189273 -0.051371377 0.09724409
-0.34686768 0.38355204 0.038805794 0.2614364 -0.09120372 -0.011796831 0.3562761 0.083539456
-0.22785203 -0.40758172 -0.237273 -0.09858691 0.16511519 -0.07551019 0.065784305 -0.06337864
0.024412759 -0.106416546 0.3142288 -0.40252438 -0.23405166 -0.13966817 0.046335902 0.072897345
-0.041393187 -0.32075116 -0.36854112 -0.060901526 0.24706617 0.3305366 -0.34362805 0.053152356
-0.025224106 0.03276464 -0.21715797 -0.19515106 -0.41084132 -0.100103915 -0.09439768 0.46430084
-0.099470526 -0.022607226 -0.16676582 0.17901734 -0.09197144 0.23366117 0.3098654 0.09510287
-0.2123219 -0.111549325 -0.0032649075 0.30165523 0.10626099 0.10175957 -0.05544747 0.037900552
0.07460062 -0.045730297 -0.11645018 -0.033585727 0.24269246 -0.2036932 -0.07654998 0.072174825
-0.036414538 0.16321604 0.14401555 0.06333031 -0.052374024 0.018023038 -0.11081454 -0.29429245
0.083517864 -0.010168462 0.06042033 -0.16304502 0.052287716 0.14825669 0.18004581 0.015980462
0.002597561 0.066338845 0.15721361 -0.13743046 0.15973067 0.08314085 0.042058848 -0.19251984
-0.086828515 0.21218392 0.08466649 0.05687597 -0.07607149 0.0010063995 -0.63339084 -0.0031525732
0.1367501 -0.077547014 -0.055014852 -0.03563091 -0.470073 0.17721668 -0.16661273 -0.017817315
0.1859244 0.15508854 0.22065805 0.05680991 -0.23757206 -0.17156662 -0.2422795 0.18751423
0.15657634 -0.2095319 0.415477 -0.49614808 -0.17889473 -0.061467677 0.29242086 -0.5006754
-0.07383453 -0.22919 -0.0968329 -0.20955595 -0.09786988 0.103055425 -0.17633085 0.13745551
0.16702835 -0.08244691 -0.15276559 0.19500102 -0.14590444 -0.02427443 -0.23849145 -0.09426403
-0.311404 0.112462394 0.10861579 0.13162392 0.08881632 0.32154676 0.18218109 -0.15434685
0.051417865 0.030635957 0.07106221 -0.00044657083 0.29384738 -0.36070883 0.015809465 0.17333487
-0.25225052 -0.07901316 0.18863316 -0.6076617 -0.40731087 -0.027144609 0.18485676 0.3218583
-0.14658484 0.08824747 -0.07832982 -0.2068548 -0.2583387 0.4898272 -0.00032519127 0.02608132
0.06541985 0.03176679 0.063391335 0.22429958 -0.3990099 -0.40050152 0.13493845 0.29884288
0.22899187 -0.421432 0.28952858 -0.7315315 0.0399668 0.046841715 0.18037827 -0.17867725
0.23126124 -0.14330316 -0.18191515 0.13509144 -0.0072578997 0.15289438 -0.1907117 0.14240952
0.17956796 -0.069221385 -0.05869055 0.21808241 -0.21652131 -0.19005485 -0.034982394 0.1938007
-0.12188836 -0.06661106 -0.3515125 0.31564564 -0.2011767 0.26377472 -0.1312724 -0.59696406
-0.08013391 0.05753658 0.08980721 -0.32349527 -0.32765192 0.34661284 0.16101265 -0.05780407
-0.27054638 0.10435871 0.045159955 0.14896443 -0.04441282 0.0006244619 -0.3171732 -0.2129567
0.0655241 0.083761804 0.29010049 -0.070968375 -0.22155802 0.09218712 0.5536997 -0.39857
0.06124253 0.16293466 -0.021247584 0.014672702 -0.13212195 -0.0035128847 0.23987423 0.31769088
-0.23271437 0.0096352445 -0.12384696 0.28121585 0.22343962 -0.21926774 -0.13793562 0.07275345

fc1.bias f4 [401]
00000000: b0d5 693d f748 1cbf 5eed b3be 068c ea3c
00000010: 6d7f aabe 180e 0fbf 0964 2bbe 1a4a 14bf
00000020: fcf7 523e 5f3d 64be 2343 35be e6c6 73bd
00000030: 6585 83be b7a4 fc3d db45 4abe 6e6a 08bf
00000040: 1eef e8be 1b63 8a3c ad67 a5be e8ca 14bf
00000050: 90d3 90be 9fef f4be 44d3 57be 3503 c73d
00000060: e768 14bf f430 39be 936a cb3d d594 88be
00000070: 60c9 113f fa1f cb3c 9738 25be 5257 dabe
00000080: 171c 88be baa7 113d 18d3 cabe 16db 31be
00000090: eaa9 82be 08b7 7cbe 37ca 38bf fa39 0cbf
000000a0: 6f5b 023d b741 28bf 418f a7be 6c01 1cbf
000000b0: 66d2 b9be 31da 05bf 98cd babe 3670 a5be
000000c0: 635c 39be 70a9 2cbf 01af edbe b256 80be
000000d0: cb41 5dbe 2014 ccbe 5bf9 75be 4855 84bd
000000e0: d3de c6be fcc6 1dbf 4d9a acbb a1d1 023d
000000f0: 0fad 14be 57dc 8dbe ba76 583e f190 abbe
00000100: 6dbc a5be ab02 05bf ffe5 9cbe f6cf 50bf
00000110: 90e2 0dbd 5d20 14bf 7df5 1abe a3c3 f4be
00000120: 9df7 45bf dd05 76be 4cc2 a43d 09e6 18be
00000130: 278e 89be f954 8ebd dd0b 28bf 30d3 65bd
00000140: 125a 0bbf 9e59 51be cd96 4bbf 8a97 88bd
00000150: 5447 66be 347d 52be d3a8 42bf b13a ccbe
00000160: 2b74 f33d 45fd c2bc 1f17 32bf b218 bebd
00000170: 7d7a 6c3d f5cf d5be caeb f3bc 4fb9 6fbe
00000180: b388 00bf 3910 59be 6fc3 eebe 12e6 61be
00000190: 7f93 f8be 15fc a1be 3dfe 14be a5ec ddbe
000001a0: 3e69 d3bd d7d8 67be dcc4 27bf 6071 62be
000001b0: 6325 69bf 8b23 ac3c 6269 1abe 08bb 15bf
000001c0: 22e1 c6be a93c 7dbe e426 1a3c dcec 8f3d
000001d0: 2f8a b4bc fde4 9bbe cb7e e0be 0d52 1e3e
000001e0: 7db8 33be ced3 6ebe 8690 11bf 12c8 05bf
000001f0: 7c27 11bf 39fb 04bf 6abd 94bf f37d 25bf
00000200: 72e0 bcbe a065 9fbe 79f1 05bf 89ad 7e3d
00000210: fad9 0fbe 7464 cfbe bfbc 49be b7ff d2be
00000220: 2f80 62bd 0633 c1be db9e 5cbf d2ec dfbd
00000230: 9c3c 16be 61b1 1ebe 6a25 b2be db3c 883e
00000240: 62a1 e7be 276c 6dbe e791 a1be a2ed 05bf
00000250: ec15 83bf 4a62 9ebe 2865 77be 8aa9 f7bc
00000260: 1ef1 babe b924 89be 9c26 f7be 1686 56be
00000270: 15bf 52be 26b8 dabd bfd4 0f3c a695 02bf
00000280: 203b a5be b3b7 91bd 6998 a43c f079 a03d
00000290: 9889 a5be 02a5 513d d655 5e3e 9cdc b4be
000002a0: 5914 2cbf b565 08be a3b2 82bd d78f e7bd
000002b0: a6d7 73be 0f50 22bf bc99 03bf cdb2 cabe
000002c0: 4f25 93be 9937 20bf c9ff 3abf 8a31 c1be
000002d0: d5d0 9abe 0595 dd3d ce11 8ebe f281 6cbe
000002e0: ea61 e1bd 1b65 e4be f636 12bf 582f 283e
000002f0: b0d7 9d3d 0843 c6be 19b1 66be 55fc 63bf
00000300: a4ed f0be 4968 3dbd 6a9d eabe 4952 4abf
00000310: c458 84be 13ca babe af3a 96be e73e b1be
00000320: 8969 febe edb6 21bd 566c 1dbe 33a9 51be
00000330: 0f45 e5be 7c9b babe ad0b d5bd bb05 2dbf
00000340: 4d58 cebe 5be1 d5be b3ed b1be 29d1 0ebf
00000350: f095 a2be 5505 b1be fdb1 8bbe f49f ce3d
00000360: 679d c0be 2420 23bf 7178 3fbe e550 c9be
00000370: 1dae e5be ba96 90be 0816 94be e132 363e
00000380: b2f4 3abf 0932 e0be 6258 9abe b456 8d3d
00000390: 792e 5abe 2cc1 b0bd 0125 5cbf 8c01 d1be
000003a0: 3daa d0be 1f05 59be f8ef 263d 696b 0bbf
000003b0: 758e 16bf 6255 44bf 75fd b1bd 909b e0be
000003c0: d25a cbbe 8e89 97bd faa0 d2be fc5f 15bf
000003d0: 171a ff3c fff0 d3bd f313 96be 78d6 e8be
000003e0: 268a e6be 5613 5e3e e01d 83be 5cbc 42be
000003f0: 41be 31be 9d17 a4be cb22 b6bc 9b7e 11bf
0.057088554 -0.61048836 -0.35142034 0.028631222 -0.33300343 -0.5588088 -0.16737379 -0.5792557
0.20602411 -0.22289036 -0.17701392 -0.059515856 -0.2568771 0.12336104 -0.1975321 -0.532874
-0.45494932 0.01689296 -0.3230566 -0.5812211 -0.2828641 -0.47839066 -0.21076685 0.097174086
-0.5797257 -0.1808508 0.09932437 -0.2667605 0.569479 0.024795521 -0.16134869 -0.42644745
-0.2658393 0.035560347 -0.39614177 -0.17368731 -0.2552026 -0.24679196 -0.72183555 -0.54775965
0.03182548 -0.6572527 -0.32726482 -0.6093967 -0.36293334 -0.5228606 -0.3648498 -0.32312173
-0.18101649 -0.6744604 -0.4642258 -0.25066143 -0.2160713 -0.39859104 -0.24020903 -0.064615786
-0.38841876 -0.6163175 -0.0052674175 0.0319382 -0.14519142 -0.27707168 0.2113904 -0.3350902
-0.3237032 -0.51957196 -0.30644223 -0.81567323 -0.034639895 -0.5786188 -0.15132709 -0.4780551
-0.7733095 -0.24025674 0.08044872 -0.14931501 -0.26866266 -0.06949801 -0.656431 -0.056109607
-0.5443431 -0.20444342 -0.7952698 -0.06669529 -0.22488147 -0.20555574 -0.76038855 -0.39888528
0.11887392 -0.023802409 -0.6956653 -0.09282054 0.057734 -0.4176022 -0.029775519 -0.23410533
-0.50208586 -0.21197595 -0.4663348 -0.22060421 -0.4855003 -0.31637636 -0.14550109 -0.43344608
-0.10322808 -0.22641312 -0.6553476 -0.22113562 -0.9107267 0.021013042 -0.15079263 -0.5848851
-0.38843638 -0.24730171 0.009408686 0.07027599 -0.022038547 -0.30448142 -0.43846735 0.15460987
-0.17550845 -0.23322985 -0.5686115 -0.5225841 -0.56700873 -0.51945835 -1.1620305 -0.6464531
-0.36889988 -0.3113222 -0.52321583 0.062177215 -0.14047995 -0.40506327 -0.19700907 -0.4121072
-0.055298027 -0.3773424 -0.86179894 -0.10933842 -0.14671558 -0.15497352 -0.3479417 0.2660893
-0.45240313 -0.23185788 -0.31556627 -0.52315724 -1.0241065 -0.30934364 -0.24159682 -0.03023221
-0.36512083 -0.2678583 -0.48271644 -0.20949587 -0.20580705 -0.10679655 0.00877875 -0.51009595
-0.3227167 -0.07115116 0.020092206 0.07835758 -0.32331538 0.051182754 0.21712431 -0.35324562
-0.6721855 -0.13320048 -0.063817285 -0.11306732 -0.23812732 -0.6340341 -0.51406455 -0.3958954
-0.28739402 -0.62584835 -0.7304655 -0.37733108 -0.3023745 0.10819439 -0.2774796 -0.23096445
-0.11005004 -0.44608387 -0.57115114 0.1642431 0.07707155 -0.38723016 -0.22528495 -0.89056903
-0.47056305 -0.046242032 -0.45823222 -0.7903181 -0.25848973 -0.36482295 -0.29341647 -0.34618303
-0.49689892 -0.039481092 -0.15373358 -0.204747 -0.4477925 -0.3644675 -0.104026176 -0.6758687
-0.40301743 -0.41773495 -0.34751663 -0.55787903 -0.31755018 -0.3457438 -0.27284232 0.100891024
-0.37620088 -0.6372092 -0.18698289 -0.3931953 -0.448594 -0.28239995 -0.28923059 0.17792846
-0.73029625 -0.43788174 -0.30145556 0.06901303 -0.2130679 -0.086305946 -0.85993963 -0.40821493
-0.40754882 -0.2119336 0.040756196 -0.5446077 -0.5881112 -0.76692784 -0.08690921 -0.43868685
-0.39717728 -0.07399283 -0.4113844 -0.58349586 0.03114037 -0.10348701 -0.29312095 -0.45476127
-0.45027274 0.21687064 -0.2560873 -0.19017166 -0.17357732 -0.32049266 -0.022233387 -0.5683381

fc2.weight f4 [401, 401]
00000000: 70bc 6f3d 7ff8 8ebd 4fbe 84bc be97 aabd
00000010: 74d7 20bd b47a 1ebd 5cda 51b9 9ec6 85bc
00000020: cf37 bbbc 216d 9fbd dd79 81bc 7fa4 a6bc
00000030: 1f06 bf3c 5267 77bd 9c24 52bc c220 5cbd
00000040: a483 3cbc cd58 cfbd 33eb 3ebb f5df 13bd
00000050: 6fc3 31bd 58fc 7cbd 20d6 a93c b849 96bb
00000060: 2b46 003d b9a5 2fbc e258 e4bc 19ff 673c
00000070: a3c8 90bd 927a a13c 92fc d33c a96a 113c
00000080: 26d5 033c 0983 8fbc 0e04 47bd 04a1 6ebd
00000090: ba42 0c3d 3032 a0bd c2bc f7bc fe4d 0bbd
000000a0: 9f09 cbbc 62f3 1b3c 1d5c 2dbc af09 35bc
000000b0: 5d84 ac3b 46ba 98bc cf98 42bd 67fa 073d
000000c0: b873 88bd d689 afbb ce7e 213b 9d66 febc
000000d0: 3dd9 553c 6330 5dbd 7893 e339 d51f e5bc
000000e0: 9783 f4bc f741 febc e31b f73c 02b5 f8bc
000000f0: 91ad 4b3b 3d21 8b3b 7fb1 bdbb 6aef 673c
00000100: 478f 11bd c64f 73bd 1bce 9b3c 2a72 d73c
00000110: 217b 39bd 839a f03c 18bf a3bd fddd 803c
00000120: 902e 7cbd a3b6 cebc 258c da3c 4a9c 69bd
00000130: e5c7 9d3c a689 9dbc 954f 0c3c c108 8e3b
00000140: e5bf 82bd 1e71 8e3b fd0f 28bc 9348 1d3d
00000150: 19f3 b43c 395a e0bc 118e f83b 6d49 1d3d
00000160: 226e de3c 07a9 97bc 81d7 88bd 9c1b ed3b
00000170: 4c06 96bc 2fa4 f73c 077c 5bbd 7fa9 3a3a
00000180: 2ea2 e1bb e909 7bbd 6cd8 43bd 9dc6 d0bc
00000190: e0e9 b3bd 3ef5 1d3c 3569 1fbd b16f 9c3b
000001a0: 31c7 afbd 295a 05bd 4464 84bc cb34 2fbb
000001b0: f784 d7bc cd7f 40bc 1b4f 34bd 0835 79bd
000001c0: 0d98 423d 82ed 933c 1433 b7bd 9fcc ec3c
000001d0: bae5 4d3c 4e9f 46bd ad99 273c 015d bdbc
000001e0: 64ca b3ba 7d7f 09bc a4d4 42bd fda9 60bd
000001f0: ae45 1fbd eec8 9a3c 0fe1 503c 7090 29bb
00000200: ccfb abbc ed5d 38bd 31e5 07bd dd96 61bd
00000210: dabd 16bd fac7 adbc 10f1 aabd 2272 86bd
00000220: bda5 df3c 4efb 3abd 78f6 60bd a510 9ebd
00000230: 4b63 f33c fcd4 eabc 7678 61bd 27a5 9bbd
00000240: 9e31 43bc ed7b 88b9 d0db cbbc 9819 993c
00000250: ab5b 26bd ac68 81bd 5f1b 3dbd b74c afbc
00000260: f8d4 b3bc 63d3 e8bc c779 a1bb bdf3 413d
00000270: 3857 dabd c530 5ebb 8452 98bd 16d3 213d
00000280: d1ea 12bd 4c95 9fbd 1aaa 41bd 7337 a8bc
00000290: 86e1 ee3c a59c 0dbd 1947 cdbc 30e8 1dbd
000002a0: aed5 c4bb 0167 e2bc f161 febc 7a4f 203d
000002b0: 816c 5ebd ca59 bcbd 56a9 ea3b 2d9b 91bc
000002c0: 89a9 90bd 404b 403d 8a63 103c 0177 9d3b
000002d0: e40d 5abc 5a9a dbbc bda9 1bbd 3ee0 dabc
000002e0: 7682 38bd bcf4 88bd abc6 50bd 8ca2 0bbd
000002f0: eef3 6638 c117 90bc d07a 423c aeeb b5bb
00000300: 9a0b 51bd 6c78 86bc c412 583d 07d5 80bc
00000310: 6a18 2c3d aedf 6fbd e552 5f3c a608 9b3c
00000320: c439 8cbd c8c5 8f3b 7b8c e6bd f4b4 14bd
00000330: 4818 d8ba 28fa b2bd 6eec c13b f172 ed3c
00000340: 20ac 01bc 809c 403c 6a4d 15bd 7f33 7dbd
00000350: c54b 32bc bd8e e3bc 803f 81bd 5d0a 88bc
00000360: f7fe 1bbd a00a 31bd 81c7 f5b9 1fd5 67bd
00000370: 9302 373d c25d 82bc 3981 8fbc 6d49 31bd
00000380: c790 65bc 4f83 2bbd 0c8f 18bd 6a33 383d
00000390: 884f 463c 085a 96bb 45e9 00bd b7d2 1dbd
000003a0: 781d 92bc 7bf4 dcbd ed17 eabc f837 eebc
000003b0: f5bb 9ebd c98f 80b9 eae4 7ebd 93c5 90bd
000003c0: 1982 26b9 d934 fabc 2d83 d8bc 95c5 15bd
000003d0: a533 9d38 e775 0c3d b0a5 45bd 8824 b5bd
000003e0: 8e7f b3bc 5526 37bd caf1 edbc 2568 23bd
000003f0: 3694 cc3c 9478 193d ef3d 083c 6b7e 163d
0.058529317 -0.069809906 -0.016204027 -0.08329724 -0.039267972 -0.038691238 -0.00020013138 -0.01633006
-0.02285376 -0.077844866 -0.01580518 -0.02034211 0.023318348 -0.06040127 -0.012826111 -0.053742178
-0.011505995 -0.10124359 -0.002913189 -0.036102254 -0.04339927 -0.06176409 0.020731986 -0.0045864247
0.031316917 -0.010720664 -0.027874414 0.014159941 -0.070695184 0.019711766 0.02587727 0.008875527
0.008046424 -0.017518537 -0.04858785 -0.058259025 0.034243323 -0.078220725 -0.030241374 -0.034009926
-0.024784861 0.009518476 -0.010581044 -0.011049672 0.0052648024 -0.01864351 -0.04750901 0.033197787
-0.066626966 -0.0053570075 0.0024642232 -0.03105479 0.013052282 -0.054001223 0.00043406687 -0.02796928
-0.029847903 -0.031037314 0.030164665 -0.030359749 0.0031078795 0.0042459057 -0.0057889814 0.014156202
-0.03553703 -0.05940225 0.019019177 0.026299555 -0.04528344 0.029370552 -0.079954326 0.015730852
-0.061567843 -0.025233572 0.026678154 -0.057033814 0.019260356 -0.019230675 0.008563896 0.0043345396
-0.06384257 0.0043469807 -0.010257718 0.03839929 0.022088574 -0.027386772 0.007585295 0.038400102
0.027152125 -0.018513216 -0.06681729 0.0072359573 -0.01831355 0.030229656 -0.05358508 0.0007120594
-0.0068857884 -0.061288748 -0.047813818 -0.025485331 -0.087848425 0.00964099 -0.038918693 0.004774057
-0.085829146 -0.032556687 -0.016161092 -0.0026734348 -0.02630852 -0.01174922 -0.044020753 -0.06084159
0.04750829 0.018057588 -0.08945289 0.028906165 0.012566978 -0.04849177 0.01022951 -0.023115637
-0.0013716933 -0.008392212 -0.04756607 -0.054849613 -0.03888481 0.018894639 0.012748971 -0.0025873445
-0.02099409 -0.04501145 -0.03317756 -0.055075515 -0.03680215 -0.02121352 -0.0834676 -0.06564738
0.02730071 -0.04564982 -0.05492255 -0.077180184 0.029710433 -0.028666012 -0.05504652 -0.0759986
-0.011913685 -0.00026032273 -0.024885088 0.018688962 -0.040614765 -0.06318793 -0.04616868 -0.021398885
-0.021952137 -0.02842111 -0.004927847 0.047351588 -0.10661167 -0.003390358 -0.074376136 0.039507948
-0.03586847 -0.07792148 -0.047281362 -0.020534253 0.029160272 -0.034573216 -0.025058316 -0.03855151
-0.006006918 -0.027637007 -0.031052561 0.039138295 -0.054302696 -0.091968134 0.0071612997 -0.017774189
-0.07063586 0.046946764 0.008812794 0.004805446 -0.013308976 -0.026806999 -0.038003672 -0.026718255
-0.045046292 -0.066873044 -0.050970715 -0.034090564 5.506345e-05 -0.017589452 0.011870101 -0.005551777
-0.051036455 -0.016414843 0.05275227 -0.01572658 0.04201547 -0.058562927 0.013630603 0.018925022
-0.068469554 0.004387591 -0.11257263 -0.036305383 -0.0016486729 -0.0873912 0.005918077 0.028985472
-0.007914573 0.0117560625 -0.03645078 -0.06181669 -0.010882323 -0.027778024 -0.0631094 -0.016606504
-0.03808495 -0.043223023 -0.00046878683 -0.056599732 0.04468019 -0.015913848 -0.017517673 -0.043282915
-0.014011568 -0.041873273 -0.037245795 0.044970907 0.012103923 -0.0045883693 -0.031472463 -0.03853103
-0.017836317 -0.107888184 -0.028575862 -0.029079422 -0.07750694 -0.0002452119 -0.06223003 -0.07068934
-0.00015879459 -0.030542778 -0.026429737 -0.036565382 7.495963e-05 0.034292128 -0.048253715 -0.088448584
-0.021911409 -0.04471429 -0.029045958 -0.03989424 0.024973016 0.037468508 0.008315547 0.036741655

fc2.bias f4 [401]
00000000: 8ebd 71bb d813 8bbd 615d 26bd 518e febc
00000010: bd6c d53e 7a27 c83e 3392 a93e 6aa3 a9bd
00000020: 542e 5cbd 1508 113e b0ff 843c e79f d2bb
00000030: ef7a 243e 65da 79bd 587a 67bd 2b2a 733e
00000040: 5642 1ebe d486 b93c f380 763e d39d afbd
00000050: 2160 07be 151d 0a3f 00db 3abd f2f0 303d
00000060: 6124 0fbe dbd6 32bd af4b d9bd 952b c1bd
00000070: 77dd bfbd 7ec1 f7bd 049c a8bc db54 afbd
00000080: cb57 3a3e 74f2 cfbb 72f1 1cbd 18a4 97bd
00000090: 674c fdbd 4059 a8bd 4158 31bb a2a8 783c
000000a0: 0f50 d5bd 9ac8 7dbd 246a abbd cda6 91bc
000000b0: 4329 3a3c aea0 07be 0739 a33b 82c6 89bd
000000c0: 2f95 09bd 25f7 d5bc b8da 05bd 44a5 21bd
000000d0: 9793 c7bd 486f 27bd 577b 5dbe 1e03 b0bd
000000e0: c765 78bd f743 29bd 44b2 e9bd f5d5 8fbd
000000f0: 1c58 953b df7a b1bc b0b6 19be 245a 83bd
00000100: 543c b1bd 18df 95bc 6287 bebd 8334 f7bd
00000110: 5628 89ba 62c7 44bb fcd9 a4bd 6331 2fbd
00000120: 7abd b7bd 52a5 abbd c111 a83c 52d2 bb3d
00000130: d471 cebc 3155 4bbc e0b9 54be 169d babd
00000140: 6488 74be a4f8 4e3d 0bcb 91bd 7f6c 1cbd
00000150: 5aea 16bd 31af 72be 02f7 a2bd 8ad8 52bd
00000160: 81e9 a1bd a7bf 9abd 9069 3d3e c005 2a3e
00000170: 2c72 bbbd 55f3 abbd cfc6 a1bd 5b85 a6bc
00000180: a568 8cbd ec2a 9fbd 319d 67bd 26ca bbbb
00000190: 1e4c d9bd 51d3 ef3d 64f6 a03d 5ab8 67bd
000001a0: e2f9 95bd 7b3b 22bd f7b8 d6bd 94dd b9bd
000001b0: d156 b7bd 9951 8fbd e47b 93bd 21d5 6fbd
000001c0: 6dab dabd 714c 4b3d 5e81 81bd 6b98 0dbd
000001d0: d0c6 b3bd c11e 57bd 01f7 8bbd e531 1dbd
000001e0: 2ba5 68bc e177 86bc 0ef3 653d 0c42 aa3d
000001f0: ea39 13bd 9a71 2f3e 5dbb 043c ff76 c3bc
00000200: 1018 53bd f482 babc 18c2 82bd 4dee 33bd
00000210: 8076 0cbc b52c 7f3e 6604 dcbd 86be b5bd
00000220: 4bba 96bd 3769 c3bd 61a6 9fbd 68d8 16bd
00000230: fc44 89bd bddb 5fbd 2b70 4a3e 12a2 8fbd
00000240: 7457 3e3c eec5 13bc afa1 97bd de50 30bd
00000250: c69e 72bc c731 a1bd a6d9 73bd 32e5 a6bd
00000260: d6c5 91bc 3971 b1ba f4c9 72bd e287 8b3e
00000270: 8940 52bd d5cd 98bd fae7 20be 55ef 5dbc
00000280: ee65 3cbe 0b27 b6bd 1f7f 8fbd 4ccf 94be
00000290: 235e 52bd b292 003d 6520 90bd 5ac3 3dbe
000002a0: 75b1 9fbd 0363 83bd 5d15 ddbd 7c77 3fbc
000002b0: e132 9abd 37cc 04bd aff7 5abe 8288 bdbe
000002c0: f428 63bd b952 8abe 586d 49bd 2dd1 27bc
000002d0: d7c1 1ebd 03cf 84bd cfbc 3ebd 397d f9bc
000002e0: 33ad a4bc 7b79 bc3e b744 93bd c745 74bd
000002f0: e790 bbbd d63e b5bd 42f1 b0be ff26 ed3c
00000300: f035 4d3d 6bd5 a43e 83f7 2ebd 28dd 63bc
00000310: e108 14bd 8f1c b2bd 3419 a3bd eff8 60be
00000320: 63c1 8dbd ff63 38bd 72a9 4cbd 79c8 bebd
00000330: d5fc 83bd 9744 90bd 81d0 6ebd 6df8 74bc
00000340: daed 43bd 48b6 65bd ce7c 063d 030f adbd
00000350: 5458 263e 10cf 8cbd cca8 39be 7121 24bd
00000360: ecb9 d53b 7ff1 b6bd b694 c5bd 0cc7 9ebc
00000370: aff9 adbd 989d 963e 2df7 cbbe ba77 143e
00000380: d2d2 c43d 1e39 dbbc 05f4 03be 73d3 1c3e
00000390: b6ec 883c c50d 86bd f731 84bd 3d1d 693e
000003a0: a572 18bd 377f f9bd e749 6f3e 0a9b 2abc
000003b0: 72ff 29bd e4f1 01bd d870 eb3d 6d27 93bd
000003c0: 1c80 f83c 046b 0cbd d1c1 abbd 9647 5dbd
000003d0: eb26 aa3d e52b 73bd e192 683e a430 e2bc
000003e0: 121c 24bd a367 bdbc 32da 0cbd da4a c43b
000003f0: 30f2 44bd fb2c 823b 1f54 10be 8829 ee3c
-0.0036886665 -0.06790894 -0.040616397 -0.031073721 0.41684523 0.39092618 0.33119354 -0.08283122
-0.05375512 0.1416324 0.016235203 -0.0064277533 0.1606252 -0.060999293 -0.05651316 0.23746555
-0.15454993 0.022647299 0.24072628 -0.085750245 -0.13220264 0.53950626 -0.04561901 0.043198533
-0.13978721 -0.043661933 -0.106101386 -0.09432141 -0.09368413 -0.120974526 -0.020582207 -0.08561107
0.18197553 -0.0063460413 -0.038316198 -0.07404345 -0.12368088 -0.08220148 -0.002706066 0.015176924
-0.104156606 -0.061958887 -0.08369854 -0.017779732 0.011362377 -0.13244888 0.0049811634 -0.067273155
-0.03358954 -0.026118824 -0.03267929 -0.03946425 -0.097449474 -0.04087761 -0.21629082 -0.085943446
-0.060643937 -0.041324582 -0.114109546 -0.07023231 0.0045576226 -0.021665035 -0.15011096 -0.06413677
-0.08654085 -0.018294856 -0.09303166 -0.12070563 -0.0010464292 -0.0030026068 -0.0804939 -0.04277171
-0.08971687 -0.08381142 0.020516278 0.09170975 -0.025200762 -0.012410448 -0.2077403 -0.09111993
-0.23880154 0.05053009 -0.071188055 -0.038189407 -0.03684459 -0.23699643 -0.07957269 -0.05147604
-0.079058655 -0.07556086 0.184973 0.16603756 -0.09152636 -0.08396021 -0.07899248 -0.02032726
-0.06855897 -0.077718586 -0.056546394 -0.005730885 -0.10610221 0.11710227 0.07859495 -0.056572296
-0.07323052 -0.039607506 -0.10484498 -0.09075466 -0.08952106 -0.069979854 -0.07201365 -0.058552865
-0.10677228 0.049633447 -0.06323503 -0.034569185 -0.08778155 -0.052519564 -0.06834222 -0.03837766
-0.014199535 -0.016414585 0.05614 0.08313379 -0.035943903 0.1713318 0.0081013115 -0.023860453
-0.05153662 -0.022767521 -0.06384677 -0.043928433 -0.0085731745 0.24919398 -0.107430264 -0.0887423
-0.07359751 -0.095415525 -0.07795406 -0.036827475 -0.06702611 -0.054652918 0.19769351 -0.07013334
0.01161753 -0.009019358 -0.074038856 -0.04304587 -0.014808362 -0.078708224 -0.059533738 -0.08149184
-0.01779453 -0.0013537771 -0.05927463 0.27252108 -0.051331077 -0.07461134 -0.15713492 -0.013545831
-0.18398258 -0.088941656 -0.07006668 -0.29064405 -0.051359307 0.0313899 -0.07037429 -0.18531552
-0.07797519 -0.06415369 -0.1079509 -0.011686202 -0.07529236 -0.032421317 -0.21383546 -0.3701821
-0.055458978 -0.27016237 -0.049176544 -0.0102427425 -0.03875908 -0.06484797 -0.04656678 -0.030455219
-0.02010212 0.36811432 -0.07190841 -0.059636857 -0.09158497 -0.08849876 -0.34559065 0.028949259
0.050100267 0.32194075 -0.042716514 -0.013907708 -0.03614128 -0.08696853 -0.079637915 -0.2196996
-0.06921651 -0.04501724 -0.049966283 -0.09315581 -0.06444708 -0.070443325 -0.058304314 -0.014951807
-0.047834255 -0.05608204 0.032833867 -0.08450129 0.16244632 -0.068754315 -0.18130797 -0.040070955
0.0065224078 -0.089327805 -0.09647505 -0.019382022 -0.08494889 0.2941711 -0.39837018 0.14498797
0.09610523 -0.026760634 -0.12886055 0.15315036 0.016714435 -0.06545595 -0.064548425 0.2276506
-0.03721871 -0.121824674 0.23368035 -0.010412941 -0.041503377 -0.031724826 0.114961326 -0.07185254
0.030334525 -0.034281746 -0.08386577 -0.054023348 0.08308204 -0.059368033 0.2271228 -0.027611084
-0.040065832 -0.023120707 -0.034387775 0.0059903683 -0.04808253 0.0039726472 -0.1409459 0.029072538

fc3.weight f4 [6, 401]
00000000: 2314 70bc 6579 89bc f15d d43d 4792 2c3d
00000010: 246c 4d3d 188c f13d 49c7 00bd 7ce0 1d3d
00000020: 6ec5 fb3c 3874 32bc 96db 2a3b 3890 9f3d
00000030: f97d 1b3c 874b 193d b547 cfbd b3ce c1bd
00000040: 1352 f3bb 229e 96bc 3121 ab3c e649 263d
00000050: 2e4f 9a3b 2b65 743d 538a b0bb 7014 d73c
00000060: 9f64 d53c 3309 68ba 4062 a43c de69 9d3c
00000070: c878 cc3d f091 253d a0d3 e4bc 32fe 893d
00000080: ee87 0ebc a773 853b b35f a63d 0fe4 babd
00000090: cebe 9ebd 0518 3a3b 4466 b13c fb69 c3ba
000000a0: 2770 7abd b4f2 0f3d e38d 20bd 233d a13b
000000b0: 8931 08bd aaef 353d 8c70 5b3d 1bd7 07bd
000000c0: 33da 103c 557f 3a3b 72f9 23bd 9efd 3a3d
000000d0: 2568 76bc f737 3d3d 8659 c9bd a53a 89bb
000000e0: 8e86 843c 7b7b 883d 4665 56be 72dd 313c
000000f0: 13cf aabc 3a81 253d 6305 d63c a26f 3b3d
00000100: 6f39 0a3d 7beb b83b c1db 943d cc16 d73c
00000110: b89b 0fbc c6e2 b2bc 2392 0f3a 04ee adbd
00000120: 6b96 fa3b 53fd 553b e5e7 04bd 2e2e f13c
00000130: b583 2fbc 7432 693d 0779 6f3e 411e cfbd
00000140: cf17 1c3d 98f7 c53b b03f 8d3d cf2c 433c
00000150: 3a5f a13c 5ead d23d 1ba0 6a3d 29f7 70bd
00000160: d02b 483d 5bef 5f3c c2db 1abd 7a0e 023b
00000170: e727 e53d e16a 683d d7c8 14bd 7ac2 9c3c
00000180: 076b cd3b 5a2a b03b ed74 02be 2e74 533d
00000190: b95b f73c 7b8c d0bc 670a 16bd 8dd8 273c
000001a0: 03ed 903d 7907 46bd 910b 48bd 72d3 3d3c
000001b0: db0c 05bd dfe6 2b3d 68d7 d1bb 9748 093c
000001c0: 5840 e03c c993 aa3b 63ff 94b9 1319 843c
000001d0: 55ce 5abd ab89 c43d f6fa d63d 9b98 083d
000001e0: 961e 713c c433 62bc fa81 19bb 80c1 523c
000001f0: 729c f3bc 2cb6 2dbd 6833 8e3d 2b83 b2bc
00000200: ea37 95bd 3d2f cbbc a3b0 dabb aa03 35bd
00000210: b406 d0bc 07d6 d63d 3b70 9f3d 170a 0cbd
00000220: a930 9cbc 55f8 e83c 065b 6fbc 2b03 403c
00000230: 5376 8e3d 5a31 333d d410 39be e50c 1abd
00000240: c5b3 fd39 b5d7 c83b 9b98 413b 2610 d0bc
00000250: de65 983c 9142 1cbd 6f46 c4bc 2766 003d
00000260: e66a 7abc 86bb 51bb 1805 93bd 3e3d 21be
00000270: f4cf 5a3d 54e1 8f3c fc7a c7bd e257 61bb
00000280: d6ba e93c bc79 13bd f1db 943d 4d6e 4dbe
00000290: e769 063d f95e ed3c 29d3 433c 4d97 133d
000002a0: fa6c d4bc 7204 c2bc 621f 393c 44f7 8ebc
000002b0: dce9 e03b ee93 8d3d 6696 81be 52db 3b3d
000002c0: 8e68 2a3d ab70 94bd 68c7 69bc 1c80 c83d
000002d0: 7465 4cbc 1b39 c2bc 45b5 c4bc 57b4 bf3d
000002e0: a59a d7bc 9059 f73c 2067 a73d d020 1dba
000002f0: 0037 9138 9cc9 c4bd f366 a8bc 779d cebb
00000300: fdb7 8a3c 7e05 453d 8571 c33c a958 783c
00000310: a100 b3bb 06d2 eabc b64b c8bd ab2d c8bd
00000320: f0aa afbc 972b 7d3d fd9b f13c e12b 6c3c
00000330: 8a10 c83c 76e7 b7bc dc26 d93d 71f0 9ebd
00000340: ea83 213d fd7c 883c 8c22 9b3c 5e99 9fbc
00000350: 5c2d 2a3d a9c0 873c e6e4 7dbe 0c95 86bd
00000360: 5be0 3f3c 32d4 563d 2b59 803d 87ac 723d
00000370: 7e6e 10bd 7729 70bc 8551 87be 6ab1 3e3d
00000380: 933b 3a3d 638c 053d ccfe c1bc 0fe6 0b3d
00000390: 01ba 50ba b1b8 cabc 0dd1 053d a55c edbd
000003a0: 6c6e 4d3d 0e64 2abd 7edd 8c3c 8176 b7bb
000003b0: c545 393d ac48 993d d4c4 fb3c 2a52 10bc
000003c0: a5d4 743d ac62 763c e549 c03b 7b10 063e
000003d0: 8c29 433b 2f0b 7cbb 8c04 4bbc ae18 173c
000003e0: f919 c1bb 26d0 b43d 3fdd 27bd 950d 1f3b
000003f0: ea4e 3dba b7f9 c8bd 2ef7 b9bc 99ad f6bc
-0.0146532385 -0.016781518 0.103694804 0.04213169 0.05015196 0.11794299 -0.031440053 0.038544163
0.03073379 -0.0108919665 0.0026070825 0.077911794 0.009490483 0.037425544 -0.10121099 -0.09463253
-0.0074255555 -0.01838595 0.02088985 0.04059782 0.004709146 0.059666794 -0.0053875833 0.026254863
0.026048956 -0.00088514684 0.02006638 0.01921552 0.09983975 0.04042238 -0.027932942 0.06737937
-0.0086994 0.0040726247 0.08123722 -0.0912553 -0.07751237 0.0028395664 0.02165521 -0.0014908904
-0.061142113 0.03514357 -0.039197814 0.004920618 -0.033250365 0.044418015 0.05357413 -0.033164125
0.008841085 0.0028457243 -0.04003281 0.045652024 -0.015039478 0.04619595 -0.09831528 -0.004187899
0.016177442 0.06664177 -0.2093707 0.010856019 -0.020850694 0.040406443 0.026125615 0.04576076
0.03374618 0.005643306 0.07268477 0.026255988 -0.008765154 -0.02183665 0.0005476793 -0.084926635
0.0076473258 0.0032652214 -0.032447714 0.029440966 -0.010712554 0.05693288 0.23386012 -0.10113192
0.038108643 0.0060414784 0.06896913 0.011912539 0.019698728 0.102869734 0.057281595 -0.05882946
0.048869908 0.013667907 -0.037807234 0.0019845054 0.111892514 0.056742553 -0.03632435 0.019135702
0.006268862 0.0053761424 -0.12739916 0.05162447 0.030195104 -0.025457611 -0.036631014 0.010244501
0.070764564 -0.04834697 -0.048839156 0.011586057 -0.032482963 0.041968223 -0.0064038523 0.008379123
0.027374431 0.0052056056 -0.00028419038 0.016125238 -0.05341943 0.095965706 0.10497086 0.03334866
0.014716765 -0.013806287 -0.002342342 0.012863517 -0.029737685 -0.04241006 0.06943399 -0.021791061
-0.072860554 -0.024802798 -0.006673889 -0.044192947 -0.025393821 0.10490041 0.07785078 -0.03418931
-0.019066172 0.028438726 -0.014609104 0.011719505 0.06956162 0.043748237 -0.18072826 -0.037609953
0.0004838986 0.00612923 0.0029540423 -0.025398325 0.018603262 -0.03814942 -0.023959367 0.03134742
-0.015284276 -0.0032002642 -0.07178706 -0.15746018 0.053420976 0.0175635 -0.09740254 -0.0034384658
0.028531473 -0.036004767 0.07268513 -0.20061608 0.03281584 0.02897595 0.0119522 0.036032964
-0.02593087 -0.02368376 0.011298986 -0.01745189 0.0068638157 0.06912981 -0.25310057 0.045863457
0.041603617 -0.07248052 -0.014268734 0.0979006 -0.01247536 -0.02370887 -0.024012217 0.09360569
-0.026318857 0.030194074 0.081739664 -0.0005993964 6.924383e-05 -0.096087664 -0.020556903 -0.0063053924
0.016933436 0.04810094 0.023857841 0.015157857 -0.0054627215 -0.0286646 -0.09780066 -0.097743355
-0.021443814 0.06180915 0.029493326 0.014414758 0.024421949 -0.022449236 0.10603115 -0.07760704
0.039432444 0.016661162 0.018937372 -0.01948231 0.041547164 0.01657136 -0.24794349 -0.06571397
0.011711205 0.05244846 0.062670074 0.059246566 -0.035261624 -0.0146583235 -0.26429382 0.046555914
0.04546697 0.032604586 -0.023681067 0.034154948 -0.0007962287 -0.02474627 0.03267007 -0.11589936
0.050154135 -0.041599326 0.01719546 -0.0055988436 0.045232553 0.07484564 0.030733503 -0.008808652
0.059773106 0.015038174 0.005868184 0.13092224 0.0029779403 -0.0038458814 -0.012391221 0.009222193
-0.0058929888 0.08828764 -0.04098248 0.002426957 -0.0007221537 -0.09813254 -0.022700872 -0.030112075

fc3.bias f4 [6]
00000000: 3de2 10bc 1733 4dbd b4aa 8f3e a04b 223e
00000010: 7f60 c739 01a2 d7bd
-0.008843002 -0.05009755 0.28059924 0.15849161 0.00038028133 -0.10528947
