half_cheetah_im.pth (torch, 685976 bytes, 6 tensors)

fc1.weight f4 [401, 17]
000000 b9 15 fc 3d ac d4 80 be 42 e1 e0 3d 64 7c 1e 3e
       0.12308831 -0.25162256 0.109804645 0.15477139
000010 c7 d4 04 3e 82 29 1f 3e 28 83 6b be 26 2b 6e be
       0.12971793 0.15543178 -0.22999251 -0.23258647
000020 f6 b4 1b be 7d e6 9a 3d da 93 75 be d5 b1 b2 3d
       -0.1520575 0.075634934 -0.23982182 0.08725325
000030 b0 3c 78 be 71 43 1e be e3 cb d4 3d 5d 1b 43 3e
       -0.242419 -0.15455414 0.10390451 0.19053407
000040 84 3c 6c be d9 61 87 be 83 08 be bd b0 99 ba bc
       -0.2306996 -0.2644184 -0.09278967 -0.022778362
000050 ad 99 1b be a3 95 97 3d cb 67 ea bc 7b 62 89 bd
       -0.15195341 0.07401588 -0.028613945 -0.06708237
000060 89 c3 16 3e d2 57 04 be 00 d1 1d be d7 63 cb bd
       0.14723028 -0.12924126 -0.15411758 -0.09931152
000070 fa 1d 75 3e 44 91 33 be 13 5e c8 3d 5d 0a 3b 3d
       0.23937216 -0.17535883 0.09783568 0.04566418
000080 48 db 1f 3c 8f 67 17 bd 98 82 00 be e9 1d b3 3b
       0.009756871 -0.036963996 -0.12549818 0.005466212
000090 a2 b4 71 be 1c 53 08 bb 34 3c 2f bd 69 e5 24 3e
       -0.23604062 -0.002080149 -0.042782024 0.16103138
0000a0 03 06 45 be 00 c7 08 3e 97 8f 60 3e 5f 03 9c bd
       -0.19240575 0.13357162 0.21929775 -0.076178305
0000b0 2d 47 68 be 9e c6 0f 3e 95 52 ba bb 32 e9 4e 3e
       -0.22683401 0.1404061 -0.005686114 0.20206144
0000c0 47 5d df 3d a6 dc 81 bd 87 2f 7f 3d 04 37 f6 3d
       0.10906463 -0.063409135 0.062301185 0.12022212
0000d0 cd 0d 7a bd b3 d8 2e 3e 19 26 99 bc ef 42 81 3e
       -0.061048318 0.17074852 -0.018694924 0.2524638
0000e0 c0 34 6e be aa a9 55 3e 0d a2 bd bd 43 de d6 bd
       -0.2326231 0.20865503 -0.09259424 -0.10491612
0000f0 7a a2 5c 3d 21 ff e7 3c 55 2e 72 3e 35 b3 5c 3e
       0.053865887 0.028319897 0.23650487 0.21552737
000100 26 e6 0d 3c f4 3b e3 bd ab 0f 94 3c d2 67 b4 bc
       0.008660829 -0.110954195 0.018073877 -0.022022162
000110 8c f9 dc 3d 42 43 6b 3e 37 ff bb 3d b3 eb 79 bc
       0.10789785 0.22974876 0.09179538 -0.015253949
000120 aa de 9d bd 9d cf 50 3d be e7 70 be 32 1d 0f be
       -0.077084854 0.050979245 -0.23525903 -0.13975981
000130 3a 15 27 3e 81 7b 05 3e 4c 2e e3 3d 9d 87 5f 3d
       0.16316691 0.13035394 0.11092815 0.05457269
000140 49 5d 55 3d 76 ca 70 bd 35 5e 40 be 48 00 3e 3e
       0.052090917 -0.05878683 -0.18785937 0.18554795
000150 ef 7b 14 3e b8 a2 88 3e 09 60 15 3e 1d 4c 41 3c
       0.14500402 0.26686645 0.14587416 0.011797932
000160 21 51 f3 bd b1 6d e4 bc bb af 5c 3e 1b 84 70 3e
       -0.118807085 -0.027884336 0.21551411 0.23487894
000170 05 dc b3 3d 10 82 62 3e 09 f6 4d be 91 c9 06 be
       0.087822 0.22119927 -0.20113386 -0.13162829
000180 3c 36 98 3d 34 5b 2d be a3 fb eb 3d d0 c2 a7 bd
       0.074322194 -0.16929322 0.11522605 -0.081914544
000190 68 37 31 be eb c6 fb 3d 6a 6e 63 3d 9e 1c 55 3e
       -0.17306292 0.122938 0.05552522 0.20811698
0001a0 2e 9c 23 be 57 8a 91 bd 6b 6d 3c 3e 51 e2 3b bc
       -0.15977547 -0.07106464 0.18401115 -0.011467532
0001b0 ac a1 4d be 0e e7 aa bb 16 b0 30 3e bd 66 e4 bd
       -0.20081204 -0.005215532 0.17254671 -0.11152408
0001c0 56 49 2d be fd 90 f0 bd 45 72 cc 3d b2 98 b1 3d
       -0.16922507 -0.11746404 0.09982733 0.086717024
0001d0 5b 7e 99 3d 28 e1 df 3d 62 bd 19 3e 39 0a d5 3d
       0.074948035 0.10931617 0.1501365 0.104023404
0001e0 09 cc 44 be 47 0e 1a be 8d 20 b3 bd 88 9d 02 3e
       -0.19218458 -0.15044509 -0.08746443 0.12755406
0001f0 db 15 2a 3e 70 61 44 3c 52 d6 af 3c 86 27 e5 bd
       0.166099 0.011986122 0.0214645 -0.11189179
000200 2a d7 b6 3d 53 80 50 bd 87 97 be bd c0 54 51 3e
       0.08927758 -0.05090363 -0.09306245 0.20442486
000210 b7 46 b3 bb f9 f6 0a 3e 7b 5a 1f be 3d f3 70 3e
       -0.0054710764 0.13570775 -0.1556186 0.23530288
000220 19 a9 c8 bd 02 00 41 be d1 e5 38 bc 22 f3 a5 3d
       -0.09797878 -0.18847659 -0.011285261 0.081030145
000230 d1 43 33 bd d7 f2 68 3e 1d 5f 8f bd a0 f7 bb 3d
       -0.043765847 0.22748886 -0.07000563 0.0917809
000240 b8 09 c3 bd a5 c6 6b be e2 36 c4 3d e2 9d a6 bd
       -0.09523338 -0.23024996 0.095807806 -0.081355825
000250 b6 0a 1f bd ca 48 e6 bd b9 12 8f bd 2e 27 4f be
       -0.038828574 -0.11244352 -0.06985993 -0.2022979
000260 42 83 3b bd 14 81 e7 3d 5d a3 20 be 39 32 35 3e
       -0.045779474 0.113039166 -0.15687318 0.1769494
000270 f2 49 0d 3e fe de f9 3d 6f 84 fd 3d df a2 4a 3e
       0.13797739 0.122007355 0.12378775 0.19788693
000280 62 de e8 3d 65 99 4f 3d 95 4e 5b be 16 df e6 bd
       0.11370541 0.050683398 -0.21416695 -0.11273019
000290 6f d9 3f be 14 41 28 bc 36 cf 2a be ac 88 56 be
       -0.18735288 -0.010269422 -0.16680607 -0.20950574
0002a0 13 22 03 3e 18 fe 50 be 8b 75 25 be 06 80 20 3e
       0.12805967 -0.20409429 -0.1615812 0.15673837
0002b0 33 69 2e be b0 30 39 3e d4 f6 e2 bd e3 c1 13 bd
       -0.17032318 0.18084979 -0.11082235 -0.036073577
0002c0 f4 15 17 bd cd 2e 0e 3e 6b 2d 4b bd 35 eb 63 3e
       -0.03688617 0.1388504 -0.04960386 0.22257693
0002d0 e7 e2 53 3e ef a6 2b be 1b 95 b1 bd 40 25 33 bd
       0.20692025 -0.16762899 -0.08671018 -0.043736696
0002e0 95 ad 4c be 89 88 dd bd d4 0a ea 3c 49 a7 73 be
       -0.19988091 -0.10817058 0.028569616 -0.23794283
0002f0 61 40 73 bd 56 ad 4e 3e 1b 53 2d 3e 75 9f 5d 3d
       -0.05938757 0.2018331 0.16926233 0.05410715
000300 60 b1 70 3e 5f 3f 00 3b 3d f5 b9 3d f4 84 e2 bd
       0.23505163 0.0019569022 0.090799786 -0.11060515
000310 a5 90 40 be 62 4c 95 3d b8 f2 60 3c 54 6b 5a 3e
       -0.18805178 0.072899595 0.013729744 0.21330005
000320 3c 60 60 3d dd e0 41 bd c5 a4 66 3c 83 b6 6b 3d
       0.054779276 -0.047333587 0.01407737 0.057547104
000330 f9 37 43 be b7 8d 22 3c e2 a3 e1 3d cc 07 1f be
       -0.1906432 0.009921483 0.11017586 -0.15530318
000340 0a 99 52 be 39 0b 55 be 01 42 5b ba c6 68 46 3e
       -0.20566192 -0.20805062 -0.00083640224 0.19375905
000350 37 6a 3b be c8 bf 70 be 8a 51 cd 3d 19 ae 94 3d
       -0.18302236 -0.23510659 0.10025318 0.07259769
000360 93 df 40 be 6a c0 79 bd c6 ac cd 3c 93 b5 fc bd
       -0.18835287 -0.060974516 0.025106799 -0.1233932
000370 40 5e 6b be ac e4 18 3e f3 03 48 be e1 a4 93 bd
       -0.22985172 0.14930981 -0.19532757 -0.072091825
000380 30 37 01 be ab 52 1b 3c 6e da 04 3e d9 2d 1c 3e
       -0.12618709 0.009480159 0.1297395 0.15251864
000390 fa e2 99 bb de d2 38 bc 23 9d 2c 3e f1 5c ac 3c
       -0.004696247 -0.011280743 0.16856818 0.021040412
0003a0 2e bb 68 bd 6b f1 ea bd f4 95 bb bb 29 80 9a bd
       -0.056819133 -0.11471828 -0.005724663 -0.07543976
0003b0 30 d7 b4 3d cb aa 3a bd 14 90 b9 bd 09 2b ca bd
       0.08830106 -0.045573037 -0.09060684 -0.098714896
0003c0 f0 88 ce 3d 68 a7 0e 3e 55 12 06 3c 88 45 33 bc
       0.100847125 0.13931048 0.008183082 -0.0109418705
0003d0 06 f3 aa bd 5f 13 21 3d 5c 75 46 be 19 d0 35 be
       -0.08347134 0.039325114 -0.19380707 -0.17755164
0003e0 50 a3 f9 3d 6e 99 96 3d 4f 83 0a be 3f 41 d8 bc
       0.121893525 0.07353483 -0.13526653 -0.0263983
0003f0 69 9c 22 3e e5 5b 4d 3e 20 15 5e 3e 08 66 0e be
       0.15879978 0.20054586 0.21687746 -0.1390611

fc1.bias f4 [401]
000000 cc dc a0 3d 2d 9c 63 3e 74 4b da bd f9 ea ed bd
       0.07854614 0.22227545 -0.10658923 -0.11617083
000010 96 0e 1c 3e 4f 4f 21 3e a2 d8 c9 3d d5 07 c1 bb
       0.15239939 0.1575291 0.098557726 -0.005890826
000020 b8 6c 5c 3e a1 f1 2d be 63 63 ee 3d 59 8a 3e bd
       0.21525848 -0.16986705 0.1164005 -0.046518657
000030 7e c2 de bd da 7b 4d be e7 ad 62 be 68 a2 4a be
       -0.1087694 -0.20066777 -0.22136651 -0.19788516
000040 31 9c 61 3d 24 35 14 3c ba 94 b5 3c ef 1a 02 3e
       0.055080596 0.009045873 0.022165645 0.12705587
000050 66 4e 1e bd 35 51 8c 3e b7 2a 02 3e 78 ca 55 3e
       -0.038648985 0.27405706 0.12711607 0.20878017
000060 ca 96 2b 3e d2 9e 38 3d f4 90 08 3d 00 2c 81 3d
       0.1675674 0.045073338 0.033341363 0.063072205
000070 9a e7 50 3e ec 67 74 be c2 00 77 3e 64 23 2c 3e
       0.20400849 -0.23867768 0.24121383 0.16810375
000080 9a 44 95 bd c7 2c 3e 3e 94 ca 16 3e 85 1b 68 3e
       -0.07288475 0.18571769 0.14725715 0.22666748
000090 1b 36 f3 3d d4 ec 12 be 5e a9 fb bc 99 f8 6b be
       0.11875554 -0.14348155 -0.030720409 -0.23044051
0000a0 95 85 b4 bd 00 e5 b7 3d f9 b2 38 3e 2c 02 3e be
       -0.08814541 0.08979225 0.18037023 -0.18555516
0000b0 cf 94 3d be 2b 7a 41 3e 53 40 21 be 37 d7 27 3d
       -0.18513797 0.1889426 -0.15747194 0.04097673
0000c0 fc 8d 5a 3e 7a 9e dc bd ac 0a 1b be 64 13 33 be
       0.21343225 -0.107724145 -0.1514079 -0.17487866
0000d0 dc 47 95 bd 0c de 01 3c 0e b3 06 3e 0d f9 20 be
       -0.07289097 0.007926475 0.13154241 -0.15720005
0000e0 77 67 8a ba f4 f3 7f 3e 54 d0 69 bc 6d e4 62 be
       -0.0010559399 0.24995404 -0.014270861 -0.2215745
0000f0 eb 31 3c be 57 d4 4d be 30 99 ec 3d 70 8b 35 bd
       -0.18378417 -0.20100532 0.11552656 -0.04432243
000100 5d a4 fa bd 22 51 26 be 88 40 95 bd 55 2f c3 3d
       -0.12238381 -0.16241887 -0.07287699 0.09530512
000110 e8 51 b1 3d e4 ee 40 3e 76 1a 14 be d2 7d 59 be
       0.086582005 0.1884113 -0.14463219 -0.21239403
000120 fe 4d 65 3e 54 9c df bc cd 12 53 3b 4d 10 7d 3e
       0.22393033 -0.027296223 0.003220725 0.2471325
000130 3d da 7e 3d 9e 0c 99 3b c8 18 07 be 7a ea dc 3d
       0.062219847 0.0046706935 -0.13193047 0.1078691
000140 7f 52 aa bd 0b 99 49 bd 1a 7c de 3d ec db ad bd
       -0.08316516 -0.04921822 0.10863514 -0.084892124
000150 9a a5 ce bd 5b d3 72 be db 14 0c be 1a bf 28 be
       -0.1009018 -0.23713438 -0.1367983 -0.1647915
000160 c5 61 da 3d 2a 46 36 3e 43 df bb 3d c5 0d 97 3d
       0.10663179 0.17800203 0.09173443 0.07375673
000170 c2 78 38 3e 14 5c 80 3d 62 e0 7b 3d d6 9d b3 3c
       0.18014815 0.062675625 0.061493285 0.021925848
000180 cd 74 f0 bc f7 57 17 3e fe 8c 8a 3e 1d 7b 75 3d
       -0.02935257 0.1477965 0.27060694 0.059931863
000190 05 e4 ba 3d 8f 7a 51 bd 51 88 7a 3d 6f e9 6d 3e
       0.091255225 -0.05114227 0.061165158 0.23233579
0001a0 8c b4 bf 3d a4 00 51 3e 20 bb 69 3e 83 62 9a bd
       0.093606085 0.204104 0.22825289 -0.07538321
0001b0 07 d4 34 3e 6c 87 00 3c 5e a8 44 be 35 b2 98 3d
       0.17659007 0.007844787 -0.19204852 0.07455865
0001c0 74 53 e9 3d 27 07 5d 3d 2a 84 16 be ce 1c e3 3d
       0.113928705 0.0539619 -0.14698854 0.110894784
0001d0 f7 53 bc bd 25 2d c2 3c 57 65 23 3e 20 13 86 bd
       -0.091957025 0.023703167 0.15956627 -0.065466166
0001e0 29 e3 39 3d dd 0f e7 3d f7 27 22 be 69 3d d4 3c
       0.045382652 0.112823226 -0.15835558 0.025908189
0001f0 48 90 94 3d fa b9 07 be 64 52 46 be 20 9e 1d 3e
       0.07254082 -0.13254538 -0.19367367 0.15392351
000200 05 d4 b5 bc 25 f5 f1 bb 8f c7 73 bd aa 34 52 3e
       -0.022195825 -0.00738396 -0.059516486 0.20527902
000210 63 2f 04 3e 5d 51 90 bd 0d be 53 3e 98 99 8c 3d
       0.12908702 -0.07046769 0.20677967 0.06865233
000220 e5 e2 8c 3d 1b 99 63 3e 86 68 a6 3d 21 b8 67 be
       0.06879214 0.22226374 0.08125405 -0.22628833
000230 c1 73 c5 3d 17 21 33 3e bb 57 19 3e 47 27 3f 3c
       0.09641219 0.17493092 0.14974873 0.011667079
000240 0f 47 41 be 0c ac 21 3e bc 89 b7 bc 8d f8 7b 3e
       -0.18874763 0.15788287 -0.022404544 0.24606533
000250 8c 7d 5e bd bc 0a 3c 3d 3c d1 9d bc b4 f1 68 3e
       -0.05431895 0.045908675 -0.01926481 0.22748452
000260 40 8d 5a 3e ca 74 10 3e 47 eb 85 bd 3b 5f 83 3e
       0.21342945 0.14107051 -0.06539016 0.25658593
000270 5c 65 6d bd 47 35 07 3e bc 2f 20 be fd ce 22 3d
       -0.057957992 0.13203917 -0.15643209 0.03974818
000280 c2 c8 3c be f8 4d 07 bd c5 2f 03 3e 7f 6e 6b be
       -0.18435958 -0.03303334 0.12811191 -0.2299137
000290 18 49 3a 3e 0d 72 36 be f8 1b ba 3c a8 3c 53 bc
       0.18191946 -0.17816944 0.022718415 -0.01289288
0002a0 40 4b 4b 3e 19 d8 b0 3c 86 6e 49 be f2 c3 02 bd
       0.19852924 0.021587418 -0.19671068 -0.03192515
0002b0 eb d2 d8 3d 37 b9 a5 3d 3e 59 14 3d 80 26 44 be
       0.105871044 0.080919676 0.03621792 -0.19155312
0002c0 d8 c4 5e 3e 06 23 26 be 8a ab 2c 3e e6 d5 34 be
       0.21754777 -0.16224298 0.16862312 -0.17659721
0002d0 39 a2 9d 3c a0 af d3 3d e3 99 31 be 85 2d 72 be
       0.019242393 0.10336232 -0.1734386 -0.23650177
0002e0 8e f1 f6 3d f4 6a 29 be 2c 57 f6 bd 7e 67 f2 3b
       0.12057792 -0.16544706 -0.120283455 0.007397591
0002f0 a3 80 94 bd 80 a6 12 be e3 38 54 be 73 3e 4c 3e
       -0.07251098 -0.14321327 -0.20724826 0.19945697
000300 27 32 13 be 51 25 76 3e 39 70 e1 bd 9b 50 87 bd
       -0.143746 0.24037673 -0.11007733 -0.06607171
000310 03 16 1a be 05 20 ad bd 90 78 26 3e 89 89 0d 3e
       -0.1504746 -0.08453373 0.16256928 0.13821997
000320 ee b1 28 be db e4 c7 3d 9b 50 db bd a8 45 d6 3d
       -0.16474125 0.097604476 -0.10708734 0.104625046
000330 73 19 b6 3d 81 ed 87 bd de f1 0b 3d f8 1b ec bd
       0.08891573 -0.06637097 0.03416621 -0.11528772
000340 0a 1b 1f bd 6d 13 d4 3d ee 85 47 3e c9 68 1f bc
       -0.038844146 0.10355268 0.19484684 -0.009729573
000350 a1 0a 24 3d c3 0d 4e 3e 55 75 f7 3c 0f de 21 be
       0.0400492 0.20122437 0.030207315 -0.15807365
000360 02 11 79 3e 84 94 1e 3e f4 fb 7f 3e 9a f2 50 be
       0.24322894 0.15486342 0.24998456 -0.20405045
000370 38 07 c3 3c 8a 42 dc bd 5c 6a 61 bc 1c 94 39 3e
       0.023807153 -0.10754879 -0.013758268 0.18122905
000380 9f 6d 71 be 91 cc 23 be 4c 4e 3b be 53 40 6c 3e
       -0.23576973 -0.15996005 -0.18291587 0.23071413
000390 ed e6 c9 3d 26 eb b7 3d c3 b8 7f 3e 6d 57 94 bd
       0.09858499 0.08980398 0.24972825 -0.07243238
0003a0 56 78 4b 3e 42 a2 be bd ac 42 86 3e 7c a5 ae bd
       0.19870123 -0.09308292 0.26222742 -0.085276574
0003b0 75 7c 63 3e 86 25 21 3e 6f df 86 3b 86 b8 ca 3d
       0.22215445 0.1573697 0.004115991 0.09898476
0003c0 c9 d2 d8 3d 18 33 e1 bd 29 75 00 bd 8b da 4d be
       0.10587079 -0.109960735 -0.031361733 -0.20102899
0003d0 8a ae d8 3c 51 ea 06 3e 36 85 6b 3e 36 ef 9b 3d
       0.026450414 0.13175322 0.23000035 0.07613985
0003e0 5f 8f da 3c d6 a9 19 bd f5 b8 47 3e 95 d6 a7 bd
       0.026679693 -0.037515484 0.1950415 -0.08195225
0003f0 f0 e4 f1 39 ac 7e f9 3c ed 46 39 be 81 07 01 3d
       0.00046137674 0.03045591 -0.18093462 0.031501297

fc2.weight f4 [401, 401]
000000 db ae 83 bc 30 40 35 3d 64 61 cb 3c 27 56 2a 3c
       -0.016074589 0.044250667 0.024826713 0.010396517
000010 7c 37 99 bd 2f 0b 33 bd 60 5f a6 3c ba ea 52 bd
       -0.07481286 -0.043711837 0.02030915 -0.051493384
000020 85 73 eb bc 01 b2 1f 3c 47 2f 1d bd 15 d5 39 3d
       -0.028741607 0.009747029 -0.038375165 0.045369226
000030 f9 c4 58 3d 8e 3b bc 3c d5 11 4e bc 41 0a c5 3c
       0.052922223 0.022977617 -0.012577494 0.024052741
000040 ac 4b 18 3d f9 b6 3a 3d 9f 22 04 bc bd 86 1f bd
       0.03718154 0.045584653 -0.008064895 -0.038946856
000050 45 e8 e1 bc d2 79 17 bd 17 c9 e2 bc 26 b9 48 bc
       -0.027576575 -0.03698141 -0.027683778 -0.012251174
000060 2b 71 8c 3c 93 17 25 bb 81 df e7 3c fd 62 42 3d
       0.017143806 -0.0025191053 0.028304817 0.047457684
000070 ef 84 20 3c f3 80 9c 3b a8 2e 02 bd 09 f7 02 3c
       0.009797319 0.004776114 -0.031782776 0.007993468
000080 a8 91 cc 3c 61 73 66 bc 2e 0a 4e 3d 7e 59 f4 bc
       0.024971798 -0.014065594 0.050302677 -0.02982783
000090 1f c4 84 3b 11 77 37 3b b0 6f 2e bd f5 67 99 3b
       0.0040517 0.0027994553 -0.042586982 0.004681582
0000a0 ec bc 52 3c 62 3f 94 bc 26 d5 ba bc ac 2d b0 3d
       0.012862425 -0.01809663 -0.022806715 0.08602461
0000b0 2b 40 32 3d 42 6f 26 3d 0f 62 f5 bb cf 57 b1 3b
       0.043518227 0.040633447 -0.007488496 0.005412079
0000c0 a3 db 55 bc 85 0f 2e 3c 85 a9 f4 3b 3e 50 6c bd
       -0.013052854 0.010623817 0.0074664974 -0.057693712
0000d0 1f 05 20 bc a4 68 a5 bd 35 d5 9a 3c c5 b2 f9 3c
       -0.009766846 -0.08076599 0.018900493 0.030480752
0000e0 a6 9a d4 3c 8c f2 b5 bc d0 95 97 bb ca 3b 3a bd
       0.025952648 -0.022210382 -0.0046260133 -0.045467176
0000f0 05 a3 fe bc ad 76 05 bd f1 ab f7 bc cf d6 e4 bb
       -0.031083593 -0.03258388 -0.030233355 -0.006983615
000100 23 d4 d5 bc b4 ac 74 3d 72 35 c7 3c af 9e 9b bc
       -0.026102131 0.059735015 0.024317477 -0.018996565
000110 a5 fc f2 3c b5 fd 64 3c 8c 80 99 3b 91 2f 38 bd
       0.029661486 0.013976504 0.0046845134 -0.044967238
000120 33 c9 25 bc fb 7e 28 3d 7a 25 54 3b eb 02 19 bd
       -0.01011877 0.041136723 0.003237097 -0.0373563
000130 48 ee b2 3c 32 41 1d bd d4 c4 16 bc 60 a8 c7 bd
       0.021842137 -0.038392253 -0.009202201 -0.09748912
000140 33 33 91 3b 2d e8 3b bd 40 da b1 3c 41 b5 3a bd
       0.0044311523 -0.045875717 0.021710515 -0.045583013
000150 ce 85 72 3c 51 0f 52 3d 76 39 d7 3a ea 2a e3 3c
       0.014802409 0.051284138 0.0016420323 0.027730424
000160 54 e2 1f 3d 0a f7 d5 ba 24 56 d7 3d dc b6 a4 bc
       0.039034203 -0.0016324234 0.10514477 -0.020106725
000170 bc a9 0f bd 1b 92 c1 3b 09 f6 12 3c 6e e1 42 bd
       -0.03507398 0.0059073097 0.008969792 -0.047578268
000180 b8 67 bf bc e7 ba 02 3d a0 da ce 3c fc fa 06 3d
       -0.023364887 0.031916525 0.025250733 0.0329542
000190 5b 2c 95 3c cc 28 ee 3b 52 72 38 bd b1 6b 8a bb
       0.018209627 0.007268047 -0.0450309 -0.0042242636
0001a0 14 3d 48 3d 57 f9 60 3d d2 94 cb 3b be d4 b6 bc
       0.048886374 0.05492529 0.006212809 -0.02231824
0001b0 97 45 33 3c 99 5e 1c 3d 8a f3 e3 bc 48 44 3c bd
       0.0109418845 0.038176153 -0.02782609 -0.045963556
0001c0 2e ee 1b b9 7b cd 3e bd 58 fb 9b 3c 54 7e 03 bc
       -0.00014870681 -0.04658268 0.019040748 -0.008025724
0001d0 5d 3a 09 3c ce d9 41 3d 46 8f 0d 3c 3b 92 01 3d
       0.008375731 0.047326855 0.008640116 0.031633597
0001e0 a3 ce ff bc 0a aa 51 bd 1d 83 f0 3c 2b d8 a3 3c
       -0.031226462 -0.051187553 0.029359395 0.020000538
0001f0 d5 23 ac bb 45 78 32 3c 26 eb 1f bd 90 d8 f6 3c
       -0.005253295 0.010892932 -0.039042614 0.030132562
000200 25 38 5c bd 41 91 fa ba 9f 35 80 bc 06 75 2f 3d
       -0.05376448 -0.0019116775 -0.015650569 0.04283621
000210 bc 3e 4e 3c d8 a4 d5 3b 31 2b 7f ba 9d 12 38 bd
       0.012588199 0.006519895 -0.0009733914 -0.044939626
000220 bd ca 5e 3d fa f3 0a 3c 73 44 84 3c 70 91 11 3c
       0.054392565 0.00848102 0.01614592 0.008884773
000230 8c 89 39 bd f5 7c 52 3d 0a ad 1a bd 55 b1 c1 3a
       -0.04529719 0.0513887 -0.03776268 0.001477758
000240 1e 60 d3 bc 46 a5 4a bd de 3c 1b bd 60 d0 c6 ba
       -0.025802668 -0.049474023 -0.037899844 -0.0015168302
000250 05 11 aa 3c b4 bd e3 bc ef f6 25 bd ff 8c db 3c
       0.020760069 -0.027800418 -0.040518697 0.02680063
000260 bf c2 5a bc 3d b4 e5 bc e3 80 e5 3b b0 b6 74 3c
       -0.013352095 -0.028040046 0.00700389 0.014936134
000270 ab ba fb 3c 56 d8 e0 bc f9 a1 88 bb d7 14 9b bb
       0.030728659 -0.027446907 -0.0041696993 -0.004732709
000280 bc e9 35 3d ca da 30 3d 0c ee 83 bc 38 37 ea 3c
       0.04441236 0.043177404 -0.01610472 0.028590783
000290 e8 5c c6 3c 14 5b e8 bc ea 98 52 bd 33 79 f8 3b
       0.024214223 -0.028363742 -0.05141536 0.0075828074
0002a0 4b 8e 0b bd 33 b8 c7 bc 57 38 04 3d c8 58 43 3c
       -0.034071248 -0.024379825 0.032280292 0.011923023
0002b0 33 6c 7b bd 98 c0 e2 bc cc 35 3f bd 89 02 35 3d
       -0.061382484 -0.027679726 -0.046682164 0.04419187
0002c0 67 83 22 3c 7c e8 66 3d 95 fe 78 3d f7 f5 90 bc
       0.009919024 0.056374058 0.060789663 -0.01769541
0002d0 5f 45 68 3d 64 21 01 bd 74 bc 77 bc 21 7f 31 bd
       0.056706782 -0.031525984 -0.015120614 -0.04333413
0002e0 c6 a1 b2 3d cf 5d 82 3c ed 99 49 3c 7c 6b d9 bc
       0.08722262 0.015913872 0.012304765 -0.02654051
0002f0 e4 dd a6 3a b7 4e 06 3d 9a bd 00 bd 89 50 26 3d
       0.0012730923 0.032789912 -0.03143082 0.040604148
000300 3e 4d 67 bc 8b 72 98 bb d3 a2 86 bc f7 59 9e 3b
       -0.014117537 -0.0046523265 -0.016435063 0.004832502
000310 b0 f6 37 bd fe c5 59 bc fe fe a4 bc aa 6b 01 3d
       -0.044912994 -0.013291834 -0.020141121 0.031596817
000320 97 16 8b bc ba 30 14 3d 62 44 67 3c e1 93 ec bc
       -0.016978545 0.03617928 0.014115425 -0.028879108
000330 99 25 ff 3c a7 c6 48 bd a8 10 f3 3c ee f8 b5 bc
       0.031145858 -0.049017575 0.029671028 -0.022213425
000340 33 e3 ed bc 4f 27 db bc 4e 9f 08 3d 1a 55 0d 3d
       -0.029039001 -0.026752142 0.03335505 0.034504987
000350 cf 59 47 3c 5e ed 18 bc b1 9c 4c bd d6 a6 3d bc
       0.012167408 -0.0093339365 -0.04995412 -0.011575421
000360 ea f7 35 bd fb 39 2b bd 73 85 cc 3c 48 51 d6 3c
       -0.044425882 -0.04180334 0.024965977 0.026161805
000370 d7 a6 0c bd d7 96 a7 bc c0 e9 2c bd 9f 8e 32 3d
       -0.0343388 -0.020457668 -0.04221511 0.043593045
000380 ad 07 20 bd 0b ec 27 bd b2 90 39 bb 80 5a af 3c
       -0.03906982 -0.040996592 -0.0028315005 0.021405458
000390 f0 cb 76 3d be 1c 8d 3c 2f 50 18 3d 68 71 9d bb
       0.060253084 0.01722562 0.037185844 -0.004804779
0003a0 e6 75 2b bc c4 a9 24 bc 02 4b 40 3d bf e8 35 bd
       -0.010465121 -0.010050241 0.046946533 -0.044411417
0003b0 b2 10 f4 3c 0f 85 51 3d b0 d0 71 bd 0b 19 a4 3c
       0.029793117 0.051152285 -0.05903691 0.020031473
0003c0 43 d5 d2 bc 86 03 d6 3b 11 55 18 3d 3a 49 54 bb
       -0.025736457 0.0065311817 0.0371905 -0.003239228
0003d0 02 1c 6b 3d 24 1e 33 3d e1 0f 24 3c eb b7 41 3b
       0.057399757 0.043729916 0.010013551 0.0029559087
0003e0 e3 62 c6 bc 26 74 22 3d 33 16 62 bc af 76 20 bd
       -0.024217075 0.03966155 -0.013799238 -0.039175685
0003f0 d3 80 0f 3b 2c 96 40 3d 3c cc 25 bc 6a 73 01 bd
       0.0021896854 0.047018215 -0.010119494 -0.031604208

fc2.bias f4 [401]
000000 b0 cc 13 3c 9e 3c cd 3b c5 12 2a 3c 78 25 86 bc
       0.009020969 0.0062633296 0.010380452 -0.016375288
000010 75 dc 9d 3d 99 a2 ba 3a 3c a6 5d bd d0 b4 ce 3c
       0.077080645 0.0014239132 -0.05411361 0.025232702
000020 30 76 5d 3c 23 ea 8f 3c d9 e6 bf bc 49 c7 49 bc
       0.013516948 0.0175677 -0.023425506 -0.01231558
000030 9d 36 10 3d 51 01 11 3d bd d4 8d 3c 4e eb 10 3d
       0.035208333 0.035401646 0.017313356 0.035380654
000040 44 1c 9a bc 46 9e 0d 3c e5 20 c1 bc 79 95 29 bc
       -0.018812306 0.008643692 -0.023575256 -0.010350578
000050 66 c6 6f bc fc ff 29 3d b5 25 34 3d 7e 15 5e 3b
       -0.014634704 0.04150389 0.043981273 0.0033887322
000060 61 80 ba bc 4b a6 87 3b e5 da 85 3c b1 85 8c bc
       -0.022766294 0.0041396967 0.016339729 -0.017153593
000070 a0 2a 4f 3c a6 fb 81 3d 07 82 ef bc 10 26 58 3d
       0.01264444 0.06346826 -0.029236807 0.052770674
000080 8c f7 4b 3c 77 9d 56 bc 99 c9 b4 bc 95 30 61 bc
       0.0124491565 -0.013099066 -0.022068786 -0.013744493
000090 cb 92 0b 3d 7e f7 0b bd 3e 21 d6 3c aa b2 d8 3c
       0.03407554 -0.034171574 0.026138898 0.026452381
0000a0 28 66 2f 3d 9a a3 15 3d f8 69 a8 3c 03 ce 36 3d
       0.042822033 0.036532976 0.020558342 0.04463006
0000b0 ff 1c b1 bc b1 21 01 3d ca a3 04 3d 58 57 0a b9
       -0.021620272 0.03152627 0.032382764 -0.00013193244
0000c0 2a 69 f3 3c 7e 41 10 bd 22 71 71 3d 4a 83 97 3c
       0.029713232 -0.03521871 0.058945782 0.01849522
0000d0 81 bb 6a 3c 71 ec 0a 3d fb 7d 40 3d 5a aa bf bc
       0.014326931 0.033916894 0.046995144 -0.02339666
0000e0 c8 c2 96 ba 50 99 a6 3c 3c 1c 4e bd 0e 48 2a 3d
       -0.0011502141 0.020336777 -0.050319895 0.041572623
0000f0 f6 fa 21 bd 82 ab 51 3c a2 fd 35 3d ee 1c 9b 3b
       -0.039545976 0.012797238 0.044431336 0.0047336733
000100 c3 a6 fe ba e3 ee 8a bc 02 27 b9 3c fa 1f 2d bb
       -0.0019428361 -0.016959613 0.022601608 -0.0026416765
000110 cd 40 59 bc ca 0d 5e 3b 5f 31 0b 3d e6 74 00 bc
       -0.013260079 0.003388273 0.03398263 -0.007840371
000120 db 74 2e 3d 6f 0c 89 bc ec 29 c0 bc d7 fe a6 3c
       0.04259191 -0.016729562 -0.02345749 0.020385189
000130 1f 05 f4 bc a8 e6 a8 3c f0 f4 f0 3c ef 4e 81 bb
       -0.029787598 0.020617798 0.02941367 -0.003946177
000140 5c 71 9f bb ec 90 3a bb c1 0d 5c 3d 45 bc b7 ba
       -0.0048658084 -0.0028467728 0.053724054 -0.0014017901
000150 a8 16 2a bd 9d b1 cb 3c f8 a0 b1 bc 76 c3 a5 3b
       -0.041525513 0.024864966 -0.021683201 0.005058701
000160 2c cd 28 3d ba 6f 28 3d 2f 61 d0 3c 9a 6d f9 bb
       0.041211292 0.041122176 0.025436966 -0.0076119425
000170 3e 21 d2 3c ab 92 14 bc 82 d7 fd 3c 36 ca cb 3c
       0.025650617 -0.0090681715 0.030986551 0.024876695
000180 d1 0e 13 3d 41 ce ba 3c a5 08 d8 bc 3d 1e 27 bd
       0.035902802 0.022803428 -0.02637131 -0.04080032
000190 cf fd f2 bc 91 69 48 3d 10 85 15 3d 95 e6 91 3a
       -0.029662041 0.0489288 0.03650385 0.0011131341
0001a0 39 f7 4a bc 50 3e 30 bd 49 a2 13 3c 7d 2b 42 bd
       -0.012388044 -0.043028176 0.00901086 -0.047404755
0001b0 db 75 09 3b c9 30 0c bd c8 b3 b3 3b 46 d6 40 3d
       0.0020974788 -0.034226213 0.005484078 0.047079347
0001c0 8d 36 52 bd b4 b0 e2 bc 32 a1 18 3d b7 fb 8d bc
       -0.051321555 -0.02767215 0.037263103 -0.017331941
0001d0 5f d8 12 3d 76 cd 99 bc f6 b6 03 bd c3 6e 0e bd
       0.03585088 -0.01877473 -0.032156907 -0.0347736
0001e0 d1 2f 26 bd f8 6e 23 3d c3 5d d4 3c 31 fe 5f 3c
       -0.040572945 0.03990075 0.025923615 0.013671444
0001f0 c7 91 20 bb 0f c9 01 bd fa bd f8 bc ce 85 c2 bc
       -0.0024500953 -0.031685885 -0.030364025 -0.023745444
000200 47 ef 46 3d d7 53 3d 3d 0d 09 57 3d d3 be cf 3c
       0.048568036 0.046222534 0.052498866 0.025359547
000210 ab 75 47 3d 91 86 85 3c c8 86 c2 bc 96 28 02 bd
       0.0486962 0.016299518 -0.02374591 -0.031776987
000220 12 cd f2 bb 19 54 a2 3c 30 b8 a6 3c a3 ce 5c bd
       -0.0074097 0.019815492 0.0203515 -0.053908
000230 76 cc b7 bb e5 5b 55 3c a4 b9 18 ba de a2 15 3d
       -0.0056090904 0.013022398 -0.00058260025 0.036532275
000240 ef b8 2d 3b a0 ad 60 bb 68 4b ef bc 21 64 05 bd
       0.0026507934 -0.0034283176 -0.029210761 -0.032566193
000250 9d e9 f7 3a fe e6 27 3c 79 c2 0b 3d 75 6d 08 bc
       0.0018914227 0.010247944 0.03412101 -0.008326878
000260 3b e8 6e bc f2 ee e5 bc e8 fe 01 3d 70 3d 83 bb
       -0.014581735 -0.02806804 0.03173724 -0.0040051267
000270 4d 99 0b 3c 94 d4 95 bc c8 81 5a bd 74 94 83 bc
       0.0085204365 -0.018289842 -0.053346425 -0.016061999
000280 36 ee e6 bc 8c 4c a8 3c 68 ae 23 3d 99 6d f7 3b
       -0.02818976 0.020544313 0.03996125 0.007550907
000290 3c 27 9e 3c 9c f1 d4 bc c6 ed 1b bd 80 ea 9a 3c
       0.019305818 -0.025994115 -0.038068555 0.018910646
0002a0 ba 2b ef bc 24 72 af 3b fe 04 1b bd 8a 61 7a bc
       -0.029195655 0.005354183 -0.037846558 -0.015282044
0002b0 2e 59 d7 3b 6c b9 fc bc 62 29 e9 3c 8a a4 78 bc
       0.0065719103 -0.030850135 0.028462116 -0.015175948
0002c0 6a 0e be bb 0d ff 52 3c 90 9b 10 3c 14 dd 29 bc
       -0.005800058 0.012878192 0.0088261515 -0.010367651
0002d0 56 92 13 3d 04 86 3d bd c7 0f 8d bc bf 91 2a 3d
       0.03602823 -0.046270385 -0.017219437 0.0416429
0002e0 14 e4 4c 3a d5 04 e1 bc aa 8d aa bc 51 9e ee 3c
       0.0007815969 -0.027468124 -0.020819504 0.029128226
0002f0 a6 bb 5a 3c 6e eb de 3c 04 c9 69 bc d7 be 86 3c
       0.013350403 0.027211871 -0.014269117 0.016448421
000300 d8 2e 3b 3c 6e c8 08 3c 23 b9 99 3d 96 86 88 bc
       0.011424743 0.008348567 0.07506015 -0.016665738
000310 dd db 39 3c 53 9f df 3c 80 2d 31 bc e8 c4 00 bd
       0.011343923 0.027297651 -0.010814071 -0.031437784
000320 e0 99 24 3d fd 8e bc 3c 28 5c ac 3b fa c2 b6 3c
       0.04018581 0.0230174 0.0052600093 0.022309769
000330 02 9c c6 3c 1e 7f 0e 3c 97 7f dd bc e0 ff a9 3c
       0.024244312 0.008697299 -0.027038379 0.020751894
000340 c1 3d 17 3d 31 a2 bd 3c 37 4b 18 bd 06 f2 18 3d
       0.036924127 0.023148628 -0.037181105 0.037340187
000350 5e a1 d4 bc a1 0f 23 bd 16 6c 1a bd 91 1b 2e 3d
       -0.025955852 -0.039809827 -0.037700735 0.042506758
000360 ed 9c 44 3d bb d2 7e bc c9 9f d1 bc 29 39 3d 3d
       0.04800122 -0.015553172 -0.025588887 0.04619709
000370 88 44 57 bb 92 2d 14 ba 90 b7 eb 3c ed 09 f0 bc
       -0.0032847244 -0.00056525425 0.028774053 -0.029301608
000380 ca a4 00 3d b5 03 99 3c fc 08 a9 3a 1d ae 4b bd
       0.031407155 0.018678525 0.0012896354 -0.049726594
000390 e9 b2 6b 3d e2 68 8b 3d a0 b8 30 bd 80 9b 83 3d
       0.05754367 0.06807114 -0.043144822 0.06426144
0003a0 9b 80 e1 3c 46 4c 0b 3d 91 9d 44 bd cf 75 7e 3c
       0.027527144 0.034008287 -0.04800183 0.015531017
0003b0 b5 48 52 3c 79 db 96 bb 96 01 11 bd 6c be 68 bd
       0.0128347175 -0.0046038 -0.035401903 -0.056822225
0003c0 07 aa 1b 3d 50 4c 91 bc dd 90 03 3d e8 b9 3b 3d
       0.038003948 -0.017736584 0.032120574 0.04583159
0003d0 11 1a 31 bc 09 50 db bb 37 64 b1 3c f4 f7 d1 3c
       -0.010809437 -0.0066928905 0.021654231 0.025630929
0003e0 b6 b3 bd 3c df 4b 0f 3d 5c 5b 0e 3d 85 f3 da bc
       0.023156982 0.034984466 0.034755096 -0.026727447
0003f0 9a 4d 14 3d be 5a 83 3c b6 e1 c5 3c 5a a5 47 3a
       0.03620682 0.01603448 0.024155479 0.0007615887

fc3.weight f4 [6, 401]
000000 fb 4e 54 3c 19 83 4b bd 66 e1 07 bd b0 22 6d bd
       0.012958284 -0.04968557 -0.03317394 -0.05789441
000010 02 65 dc bd 8f ba 19 3d 2e 3f 0e bd 8a 69 f7 bc
       -0.10761453 0.03753143 -0.03472822 -0.030201692
000020 79 e9 50 3d 58 dc 60 bd 07 09 8d 3b ca 58 2c bd
       0.051003907 -0.054897636 0.0043040547 -0.042076863
000030 71 3e f7 3c dc 62 c1 3c 54 3e 81 bc 68 80 09 3d
       0.030181142 0.02360671 -0.01577679 0.033569723
000040 2a 82 87 bc 6a 57 86 bc c8 43 24 3d 44 da 44 3d
       -0.01654156 -0.016399104 0.040103704 0.048059717
000050 7c 8e f3 bc 79 f8 49 bd 2e 1c 00 bd e5 55 cf 3c
       -0.029731028 -0.049309228 -0.031276874 0.025309512
000060 f1 36 6c bc 63 a1 3e 3d de 05 07 bc d0 f1 07 bc
       -0.014417396 0.04654063 -0.008241145 -0.008297399
000070 20 ec 61 bd 73 bb a7 bc 49 67 11 3d cc 62 9e bd
       -0.055156827 -0.020475125 0.03549889 -0.07733688
000080 ec 51 30 bd 49 e3 0d bb 35 84 0f 3d 74 8b 4d bc
       -0.043046877 -0.0021650365 0.03503819 -0.012545455
000090 76 b9 42 3d 2d ae ad bc 2d 00 36 bd 3e ea e5 bc
       0.04754015 -0.021201218 -0.04443376 -0.028065797
0000a0 ac eb 26 3c 8f 77 3f bd 55 85 c2 3c 5e 78 23 bd
       0.0101880245 -0.04674488 0.023745218 -0.039909713
0000b0 e0 6a 3c 3c 46 61 3b 3d ba fd b3 3c 38 08 e9 bc
       0.01150009 0.045747064 0.021971572 -0.028446302
0000c0 3f 33 7e 3c 75 02 71 bc 87 d3 b4 3d a9 40 51 3d
       0.015515148 -0.014710058 0.08829408 0.051087055
0000d0 2b e5 1e 3d 9a ea a5 bd 6e 11 2c bc fd d3 2a 3c
       0.03879277 -0.08101387 -0.010502202 0.0104265185
0000e0 bb f9 11 3c 34 d9 1c 3d 5b e5 a2 bc 74 e5 0d 3d
       0.008909638 0.03829308 -0.019884756 0.03464265
0000f0 20 5d 55 bb 93 53 24 bb 2e f4 00 3d 26 07 97 bc
       -0.0032556728 -0.0025074228 0.031482868 -0.018436026
000100 fd 76 8f 3d 3b 11 d6 bb 9c 1e b6 3c 19 4d 21 bd
       0.07005117 -0.0065328158 0.022231393 -0.039380167
000110 c0 c8 2a bd a7 56 a2 bc 99 e3 40 3d 92 c5 36 3d
       -0.041695356 -0.01981671 0.047092054 0.04462201
000120 7e 74 0b 3d e6 69 26 bd 4c 8c ee bc f0 20 61 bd
       0.034046642 -0.040628336 -0.029119633 -0.054963052
000130 fb e4 17 3d f5 77 ce bc 99 74 60 bd b1 07 4a bc
       0.037083607 -0.025203684 -0.054798696 -0.012330935
000140 ec 6f 4e 3d 53 bb 9a bc 1a fa 2b 3d c7 6c 18 bd
       0.050399706 -0.018888151 0.041986562 -0.037213113
000150 58 20 2c 3d 0d 26 8f 3d d0 36 85 bc ac a5 f5 3c
       0.042023033 0.069896795 -0.016261488 0.029986225
000160 25 1d 10 3d e7 54 f1 3c f3 b1 55 3d 3c 99 72 bb
       0.035184044 0.02945943 0.05217166 -0.0037017604
000170 a5 03 6b bc 40 59 24 3d 06 1d 88 bc 8f 54 58 bd
       -0.014344131 0.040124178 -0.016615402 -0.052815016
000180 f1 13 91 bc e1 13 42 bd 7a 61 30 3b 6c 19 64 bd
       -0.017709704 -0.04738224 0.002691357 -0.055688307
000190 fd 86 6d 3c 06 47 b5 3c bc 67 4d bd ee bb c5 3c
       0.014497516 0.022128593 -0.050147757 0.024137463
0001a0 b4 37 ec bc d9 49 1f 3d 4c ac 2e 3d 22 1b 0d bd
       -0.028835155 0.038888786 0.042644784 -0.034449704
0001b0 cc 6c 7f 3c 81 c7 9d 3c 87 7b 87 3c 05 a7 a8 3c
       0.015589904 0.01926017 0.016538395 0.020587454
0001c0 08 c4 1e 3c c0 9c bd 3c ad 88 12 3d ae 26 58 bd
       0.009690292 0.023146033 0.035774875 -0.052771263
0001d0 49 cf 67 3b 31 cd 61 bd b1 cf ce 3c 49 6f 94 bb
       0.0035371354 -0.055127326 0.02524552 -0.004529868
0001e0 53 32 96 3b 34 91 00 3c 32 2f d8 bc 54 a5 dc 3b
       0.004583636 0.007847119 -0.026389692 0.006733576
0001f0 ee 38 73 3c dc 4e ce bc 04 79 e1 bc e0 ee 38 3d
       0.014845116 -0.025184087 -0.027523525 0.045149684
000200 d1 fc 31 3d cc 1b 0d 3d 25 10 ae bc 14 7a 4a bd
       0.043453995 0.034450337 -0.021247933 -0.04943283
000210 cf 19 aa 3c 00 cc c7 3c c8 68 1b bd ac ce 1a bd
       0.02076426 0.024389267 -0.037941724 -0.037794754
000220 96 7b bb 3c 09 b8 2f bd 5a 33 3a bd 26 a9 03 3d
       0.022886079 -0.04290012 -0.04545913 0.032143734
000230 7f 99 91 3b 2e 4c 39 bd e9 36 1e 3d 36 4d a4 bc
       0.004443347 -0.045238666 0.038626585 -0.020056348
000240 46 c4 37 bd cb 6b 8b ba 66 54 87 bc 00 e5 27 bd
       -0.044864915 -0.0010636983 -0.016519736 -0.040989876
000250 f1 84 f8 bb 5a 37 7a bc 98 94 1e 3d 8e 76 5c bd
       -0.007584207 -0.015271986 0.03871593 -0.053824
000260 ba 13 60 bb 11 c5 7e 3c 1b 9e 94 3c 4c 9a 61 3c
       -0.0034191445 0.015549914 0.018141797 0.013769697
000270 9a 3e ff 3c b1 f9 db 3b 41 cb 39 bd 4a 7f f5 3c
       0.03115778 0.006713115 -0.045359854 0.029967923
000280 c3 47 60 bd 11 78 7b bc 43 5a fa 3c d1 40 16 bd
       -0.054755937 -0.01534845 0.030560618 -0.036682907
000290 6b ea 8d 3c 89 21 72 3c 90 63 5d 3c ac 6f 1a bd
       0.017323693 0.014778503 0.013512507 -0.037704155
0002a0 3c b5 1e 3d 9d f7 a3 3c 7f bb 5e bd 7e 59 1f bd
       0.038747057 0.020015532 -0.05437803 -0.038903706
0002b0 47 a4 6f bc 8c 08 c1 3a ab 67 83 bc 2c 00 45 3c
       -0.014626569 0.0014727279 -0.016040644 0.012023967
0002c0 48 b2 38 3d c9 b8 f7 3c 9f ea 9a bc 9d 8e 55 bc
       0.045091897 0.03023948 -0.018910704 -0.01303449
0002d0 11 77 a6 bb dd b9 0a bd c1 1d 3a bc af df 31 bd
       -0.005080112 -0.03386866 -0.011359633 -0.043426212
0002e0 6d 54 33 3b 08 cb 05 bb be 48 c9 bc 33 d6 8c 3d
       0.0027363554 -0.0020415206 -0.024570819 0.06876793
0002f0 e7 4a 42 3d b3 7a d6 3b 7b 65 07 bc 11 e9 42 3d
       0.047434714 0.0065453886 -0.008263941 0.04758555
000300 f6 e7 a7 3b b7 2c 3b 3d 6e af 3e bd a8 d1 7a 3c
       0.0051240874 0.04569694 -0.04655402 0.015308775
000310 f8 b2 20 3d 80 ba 82 3c 9e 1a 57 3c a9 c0 72 3c
       0.039233178 0.01595807 0.013128905 0.014816442
000320 a5 5d 63 bd 5c af 84 3c a8 c8 4c bc e8 1c 5c bd
       -0.05550923 0.0161969 -0.012499012 -0.053738505
000330 c5 e5 2a 3d 95 b6 1f bb e7 1d f2 bc 2a 24 00 3c
       0.04172303 -0.0024370302 -0.029555274 0.007821122
000340 69 5e 12 bd e5 2c 0e 3d 0f b0 57 3d 8b 3d 2b bc
       -0.035734568 0.034710784 0.052658137 -0.010451685
000350 36 7b 91 3c 87 fd 27 bc 9e 22 1a 3d cf 17 3e 3d
       0.017758947 -0.010253317 0.03763067 0.046409424
000360 19 cf 18 3d 74 d5 f8 3c 52 c5 04 ba a0 1c 5b 3b
       0.03730688 0.03037522 -0.00050648034 0.003343381
000370 87 da f1 3a fe 24 35 3d 41 ed dc 3c 2f 87 06 bd
       0.0018451967 0.04422473 0.0269686 -0.032843765
000380 bf 6d e6 bc dc 1e e0 bc 4d ca b0 3c 35 15 0c bd
       -0.028128503 -0.027358465 0.02158084 -0.034199912
000390 fb dd 03 3b 35 f7 a1 bd 36 50 b6 3b 12 42 74 3d
       0.0020121324 -0.07908479 0.005563761 0.059633322
0003a0 64 57 b2 bb 94 06 01 bd 89 22 38 bd e9 6a 17 3d
       -0.0054425467 -0.031500414 -0.04495481 0.03696719
0003b0 81 bb a0 3b 6a 54 28 3d f2 60 8b bc a6 0b 70 bd
       0.0049051647 0.04109613 -0.017014 -0.05860486
0003c0 3c 00 91 3c 75 99 ae 3c 19 65 5d 3c 87 d7 61 bd
       0.017700307 0.021313408 0.013512873 -0.055137184
0003d0 50 9d bc 3c d2 4d bd 3c ed 03 49 bd 2a e6 73 bb
       0.023024231 0.023108397 -0.04907601 -0.0037216046
0003e0 34 18 f1 bc b4 1a 8f 3c f6 22 44 3d 67 6b 46 3c
       -0.029430486 0.017468788 0.047884904 0.012110568
0003f0 10 e0 9c 3c fa e3 b6 3c ac 83 a1 bc 9e b3 3f bd
       0.01914981 0.022325505 -0.019716106 -0.046802156

fc3.bias f4 [6]
000000 63 1b 0a 3d e3 8d 4b 3c a7 66 d9 bc f1 8a 88 3c
       0.033717524 0.012423965 -0.026538206 0.016667815
000010 ef 89 ee bb 92 5c 5e bd
       -0.0072796266 -0.0542875
