half_cheetah_im.pt (torch, 290456 bytes, 6 tensors)

fc1.weight f4 [256, 17]
00000000: a725 903e 680c 963d f264 493d 9551 17bd
00000010: a9df 03bd 2f4b 65bc 2dd0 a53d 711c 083b
00000020: ae52 5d3d a11c 183e 4e94 0cbe 3c82 493e
00000030: e4e0 683d dd8e d63d 8191 0e3d 1d58 12be
00000040: fef2 41be ef0f 99bd df16 cf3d a70e 4ebe
00000050: 6ba4 d83d 594e 55be c581 d03d 883e a3bd
00000060: a8c9 17bd 583b 043e 92b1 fb3d 5054 f33d
00000070: 362d b33a 05f4 9cbd f6f7 6b3d 9ecd 173e
00000080: ad59 503c 7639 cb3c 372f 2bbe 60e0 f7bd
00000090: d4e7 ecbd 8dc6 473e ea0b 4e3e 0203 353e
000000a0: 0cc5 533e 77cf ec3d 3aaf c33d 19fe 0bbe
000000b0: 9170 55be 5e52 9b3d f3dc 723d 26de 67be
000000c0: b0db 5ebb 12bf 923c 3294 55be e1ca 453b
000000d0: 2b0c 67be 66de 243e c063 233e 6938 c53a
000000e0: 474f 6d3d 57d1 c53d c5a3 38bd 1217 ffbd
000000f0: 947c 1a3e 7f0b d1bd 803f 4f3e b108 15be
00000100: f53b 02be 7da7 253e 86b4 e0bd b7ed eb3a
00000110: f23d e1bc bb62 82be 9a32 2fbd 8edb 00be
00000120: 7007 c9bd 8edf f93d d019 89bd 561d a83d
00000130: d3fe c63d 3451 a83d 7572 b3bd a8eb a3bd
00000140: 4aeb a1bc 37ca 903c 8b2d 5cbe 39c5 eb3d
00000150: 9002 153d 3c96 80be f9b4 833e 6ded 41be
00000160: a3ed 2a3e 2540 54bd 8766 2a3e 4b6d 84be
00000170: 8368 0e3e 1621 a1bc ff45 a2bd 054b d3bc
00000180: 8e8a 073e 7f51 b4bd 1474 fb3c ba1e f6bd
00000190: 7c92 593d aaf8 443e 7e03 323e c089 273b
000001a0: 4a81 31be 374e 903d 7010 20bc 68b9 23be
000001b0: e1b3 e23d 33f0 ae3c 5d6c cc39 d5f8 3cbd
000001c0: 1601 913d 73f0 69be d024 3abe 4ce6 86bc
000001d0: 3542 75bd 565e 543b 0674 943c 0bbc 36be
000001e0: 514c c7bd aed0 353e f58a 3fbc c119 2b3e
000001f0: 151a 4c3e 632a 7a3e 3c23 eabd 625c 59bd
00000200: f4a9 31be 9080 42be c917 7b3d aded dc3c
00000210: 2254 543e 3132 7cbe fac6 fe3d 3fc7 0f3d
00000220: fc04 713e bf97 9f3d 4335 f1bd d692 733d
00000230: 4c7a 81be 8fc0 323e 55df ed3d a4bd 503c
00000240: af26 6c3e baf6 653e df67 4fbc 38ec bd3d
00000250: b4b2 2abd 41e4 e5bd 4b6e 613d 14ca debd
00000260: 3cf9 2c3e b682 f2bd 2812 403d aca7 cfbc
00000270: 8c7c f03d ecc1 43be d767 2dbe 9054 52be
00000280: d283 43bc bbe7 733d ecc2 d73d 34be 6f3e
00000290: 8205 263d ae54 01be 131f 0bbe 9df8 01bc
000002a0: 32e1 e33d cc1b 843d b70a 2abe e863 1b3e
000002b0: 0977 82bd b94e a83c 24ca fd3d 9a03 573e
000002c0: b0c8 573e d34f 0b3c 9810 2b3e f9dd 62bd
000002d0: 0490 fc3a 30d0 223e 1227 b9bd e59f 84bd
000002e0: a0ac 3c3e 9aef 7dbd 6282 79be 3660 babd
000002f0: 08a5 ba3d 15e1 29bb 30a8 1a3e 6d1b 8b3d
00000300: 9cb5 14bd e78b 16be 419e d0bd d487 273e
00000310: 97c7 543e 0db2 57bd 6f3a 1f3d 6e7d 5cbe
00000320: 1165 113e 52f8 0bbe 5890 a1bd 8546 a7bd
00000330: e6e3 1dbd 5f8e 1ebe e8f1 fabc 2f30 4b3e
00000340: daa2 0e3e bffd c63d c3f7 d8bc 5dbf 47be
00000350: 32ca 093d 3332 d3bd 7b95 1a3e a606 023e
00000360: e594 373b 3ae2 b23d 3e3e d23d 5c59 b33d
00000370: 3b01 773d da02 873d e945 583e b0b6 af3d
00000380: 9663 353e 1409 92be 24b4 41be 7b26 253e
00000390: 37a6 d6bd c7b0 1a3e cada 173e 8ba7 34bd
000003a0: 0bf0 2abe f1c0 41bd 9fe8 2b3e 6001 ec3d
000003b0: af0e 5d3d 64c0 71bd 33cc 153e 9cba 3b3e
000003c0: f152 0a3e c523 12be 9fec 303e 2d98 5a3d
000003d0: 67b0 0fbe e5e0 47bd 52c0 3d3c 4519 e63c
000003e0: 7f2a 0b3e 444c e13d 6815 25be 3221 013c
000003f0: 7fb0 12be e7b8 163e f540 fc3d 3611 143d
0.28153726 0.07326585 0.049168535 -0.036943037 -0.03219572 -0.013994976 0.08096347 0.0020768906
0.054033928 0.14854671 -0.13728449 0.19678587 0.056855097 0.10476468 0.034806732 -0.14291425
-0.1894035 -0.07473742 0.10111784 -0.20122777 0.10578235 -0.20830669 0.101810016 -0.07970911
-0.03705755 0.12913263 0.12289728 0.11881316 0.001367009 -0.076637305 0.05760952 0.1482453
0.012716693 0.024807673 -0.1671723 -0.12103343 -0.11567655 0.19509335 0.20121732 0.17676929
0.20680636 0.11563008 0.09554906 -0.1367115 -0.20843722 0.0758407 0.059292745 -0.22643337
-0.0034005456 0.017913375 -0.20857313 0.003018074 -0.22563235 0.16100463 0.1595602 0.0015046719
0.057936933 0.09659069 -0.045078058 -0.12455572 0.15086585 -0.10207271 0.20239067 -0.14554097
-0.12718184 0.16177173 -0.10971932 0.0017999922 -0.027495358 -0.2546595 -0.042772867 -0.12583753
-0.09815872 0.12200843 -0.066943765 0.082087204 0.097165726 0.08218613 -0.08762065 -0.08003932
-0.019765515 0.017674549 -0.21501748 0.115122266 0.036379397 -0.2511462 0.2572401 -0.18938227
0.16692214 -0.051818985 0.16640674 -0.25864634 0.13907056 -0.019669097 -0.07923507 -0.025792608
0.13236448 -0.08804607 0.030694999 -0.120175794 0.053118214 0.19235483 0.17384145 0.0025564283
-0.17334476 0.07046168 -0.009769544 -0.15988696 0.110694654 0.02135477 0.0003899065 -0.046135742
0.07080285 -0.2284563 -0.18178105 -0.016467236 -0.059877593 0.0032404861 0.01812173 -0.1784517
-0.09731353 0.17755386 -0.011690845 0.16709043 0.19931825 0.24430232 -0.11432502 -0.05306662
-0.17349988 -0.18994355 0.06130198 0.026968801 0.20735219 -0.24628522 0.124402955 0.035102125
0.23537058 0.07792615 -0.11777737 0.059466206 -0.25288618 0.17456268 0.11614863 0.012740526
0.23061632 0.224574 -0.012659042 0.09273571 -0.04167433 -0.112251766 0.055036824 -0.10878387
0.1689195 -0.118413374 0.046892315 -0.025348507 0.117425054 -0.19116944 -0.16934143 -0.2054007
-0.011933284 0.059547167 0.10535225 0.234124 0.040532596 -0.12629959 -0.13586073 -0.007932809
0.11126937 0.06450614 -0.1660565 0.1517483 -0.063703604 0.02054535 0.12392071 0.20997468
0.2107265 0.008502918 0.16705549 -0.05538747 0.0019268994 0.1589973 -0.09040655 -0.0647581
0.18425226 -0.06199608 -0.24366143 -0.09100382 0.091135085 -0.0025921513 0.15103221 0.067923404
-0.03630601 -0.14701806 -0.101864345 0.16360408 0.20779262 -0.052660037 0.038874086 -0.21532223
0.1419871 -0.13668945 -0.078888595 -0.081677474 -0.03854742 -0.15483998 -0.030632928 0.198426
0.1392931 0.09716367 -0.02648533 -0.19506593 0.033640094 -0.10312309 0.15096085 0.12697849
0.0028012332 0.087345555 0.10265778 0.08757278 0.060303908 0.06592341 0.21120419 0.08579767
0.1771377 -0.2852255 -0.18916374 0.1612796 -0.10480922 0.15106498 0.14829555 -0.044105094
-0.16693132 -0.047303144 0.16787957 0.115237 0.05396908 -0.05902137 0.14628677 0.18332905
0.13508202 -0.14271457 0.17277764 0.053367782 -0.14032136 -0.04879846 0.011581497 0.028088221
0.1359043 0.11000875 -0.16121447 0.00788145 -0.1432514 0.14718972 0.12317077 0.036149226

fc1.bias f4 [256]
00000000: 0113 4cbe 93c3 023e 78a6 123e e349 1dbe
00000010: 09f0 39be 284b 843e 9d83 1c3e 39da 61bc
00000020: 9ea9 5b3d f099 17be 2c7d c2bd 59b0 40be
00000030: f953 843d a4f9 873e a308 fa3c 8ba5 b2bd
00000040: d449 81be 4e2e 12be 3232 84ba 345a 7d3c
00000050: 406b b2bc 59e7 a83d 5b23 033e 120d 93bd
00000060: b174 21be 3f74 26be c987 083e 2a06 3dbe
00000070: 01aa 453e 0e2d 823e bf3b 8ebe 88ef d8bd
00000080: cc10 14bd 896b 773e 64ba 973e ced9 1bbe
00000090: e7da fc3d ee75 90be f38b d6ba c391 853e
000000a0: 9d0b 2e3e 942f a8bd d26c 023e 2763 ff3d
000000b0: e76a f3bd 5b71 fabd 9e1c 2c3d 78f7 e9bd
000000c0: 018a 0b3e acc6 21be 5e61 563b 975a 703e
000000d0: b7b4 0bbe 76e8 143e 7863 803e 3be3 b93d
000000e0: af01 ff3d 6228 72be 3818 8fbe e691 4fbe
000000f0: 5358 41be 46cd 77be 2874 ff3c 61db 2f3d
00000100: cb44 7f3e c4c1 eebd 1020 593e 0c3a 09be
00000110: 041a e73d ae78 14be aaa7 813e b84b 4dbe
00000120: 3895 f13d 6f11 923c 45b4 533d bfe0 2dbe
00000130: f0f3 5abd 155a 4abe 31e0 52be 8b0d 24be
00000140: 993d f33c 030a 3ebe e09e 443d 1e6e 813e
00000150: a84f 8fbd 24c6 6a3e 0f5b 9e3e 1b06 cc3c
00000160: 019d 563d 92d3 dbbc 27f8 0cbe f300 b2bd
00000170: ee18 103d 50ca 403d b896 253e 3aeb eb3d
00000180: 0339 4fbe c2de f0bd 2e10 d6bd 6785 3c3c
00000190: d318 343e 4878 313e 31cf 0d3c 88c7 16be
000001a0: 2478 293e bd30 13be a6d6 a83d 9072 063e
000001b0: 0e11 90bd 1795 fa3d 87d8 b2bc 071f 0dbe
000001c0: 1475 13be f6b3 25be adae fc3d 2afe f73d
000001d0: f0b0 fcbd 79f4 683e a117 043e 9c8b 2abe
000001e0: 31be f4bd 546c 8cbd 5886 1d3e d42e 88bc
000001f0: cc9a 623e 6cdb 143e e278 59bd 70c4 363e
00000200: 4ed5 1e3d 415f 863e fb0a de3d 2b86 7ebd
00000210: 198f c0bc 46d2 9ebd 974e 6bbe d27b 7dbd
00000220: b798 2abb f6ee c8bd 25f4 67be 345c 2e3e
00000230: c5d0 e1bb 2b53 8a3d 619f 113e a8fe efbc
00000240: fdf3 a03c 8f12 66be 7b55 f1bd 0447 3b3c
00000250: ace3 67be d83d 18be e569 7a3e a567 0bbe
00000260: a41a 3dbd a051 20bd bdd2 d83d 8815 933b
00000270: 960e 433d 2e4c a1bd 7301 103e 2309 973d
00000280: 52b0 3b3c a10b 60be 89f3 e9bd 1941 473c
00000290: 257d 35be eac6 1f3d 96ec 703e ddac 223e
000002a0: 0995 8b3d 9ab3 e13d c512 4f3e 9d23 e33d
000002b0: 5711 1f3e 794e 43bd f7c1 48be cabd 133e
000002c0: 2f65 ffbd 6a34 aebd ff04 463e 6fe8 bfbd
000002d0: 6af3 b93d a93f 35bd 413e 363e 20b3 08be
000002e0: 5074 f0bd f24d 89bd 593d 56be 4aad 883e
000002f0: 1f4b 463e 797b 2b3d 4316 d5bb da8e 6c3d
00000300: c5df 16be d193 713e 8991 1e3e b367 943e
00000310: a544 31be ce0c 133e 74f5 ce3d 598d 7b3e
00000320: b60e 1f3e 10fd 6abd 06e6 88bd c39b 1e3d
00000330: 346f ab3c 429e 5c3e 4d07 15be 606f 933d
00000340: ea00 613e 1340 57bd 1a30 00bd 63ab 8bbd
00000350: 24ed 72bc 7d89 41be d05a 77be 3b75 46be
00000360: 2dc6 5dbe ad13 9c3e fe0c ca3d 7549 483c
00000370: 6ff7 ac3d 04c1 11be 0fe4 1abe 308c 783e
00000380: 38d4 76be 59e9 1b3e 2fb5 053e e42c 38bd
00000390: a831 94bd c15a 0c3e 1536 5fbc 1665 20be
000003a0: cfd1 803e 2b06 0b3e a283 1abe df71 7c3d
000003b0: 56df 643d f0ed fdbd 84fe 383e c677 b5bc
000003c0: ece5 18be 3cd6 453e d0ca 163d 794e 133e
000003d0: 3a73 0fbe 618a 583e 27e5 133e 2dc3 b1bc
000003e0: 6c8d 19bd f5ac 40be c352 0cbe c2aa 6b3d
000003f0: 4201 263e 76f3 233e fa7f 8cbb c8fe 043e
-0.19929124 0.12769918 0.14321315 -0.15360217 -0.18157972 0.2583859 0.15284581 -0.0137849385
0.053628556 -0.14804816 -0.09496531 -0.18817271 0.06461329 0.26557648 0.030521696 -0.08722981
-0.2525164 -0.14275476 -0.001008576 0.015463401 -0.021779656 0.08247251 0.12806456 -0.07180227
-0.1576717 -0.16255282 0.13333048 -0.18459383 0.19303133 0.25425 -0.27779958 -0.10592562
-0.03614883 0.24162115 0.29634392 -0.15219805 0.1234644 -0.28214973 -0.0016368612 0.2608777
0.16996618 -0.082122 0.12736824 0.12470084 -0.118856244 -0.12228652 0.04201948 -0.11424154
0.13626863 -0.15798444 0.0032711844 0.23472057 -0.13643156 0.14541802 0.2507589 0.09076544
0.12451493 -0.23648217 -0.27948165 -0.202705 -0.1888135 -0.241994 0.031183317 0.042933825
0.24928586 -0.116580516 0.21203637 -0.1340105 0.11284259 -0.1449916 0.2532323 -0.20048416
0.11796039 0.017830579 0.05168559 -0.16980265 -0.053455293 -0.19760926 -0.20593335 -0.16020791
0.029692458 -0.18558507 0.048003078 0.25279325 -0.06997615 0.22927147 0.30928847 0.024905255
0.052395824 -0.026834283 -0.13766538 -0.08691587 0.035180025 0.04706794 0.16170776 0.11519475
-0.20236592 -0.11761238 -0.10452305 0.011506415 0.17587595 0.1733104 0.008655355 -0.14724553
0.16549736 -0.14374061 0.08244066 0.1312964 -0.07034503 0.12235468 -0.021831764 -0.13781367
-0.1440013 -0.16181931 0.12338004 0.12109025 -0.12338436 0.22749509 0.12899639 -0.16654819
-0.11950339 -0.068565995 0.1538328 -0.016623892 0.22129363 0.14536828 -0.0530938 0.17848372
0.038777642 0.26244548 0.10841938 -0.06213967 -0.023505734 -0.0775495 -0.22979198 -0.061885662
-0.0026030967 -0.09811203 -0.22651727 0.1702736 -0.0068913423 0.06754144 0.14220954 -0.029296234
0.019647593 -0.22468017 -0.11783882 0.011430506 -0.22645444 -0.14867342 0.24454458 -0.13613756
-0.046167985 -0.039140344 0.1058707 0.0044886507 0.047621332 -0.07875858 0.14063053 0.073747896
0.011455612 -0.21879436 -0.11423404 0.012161517 -0.1772352 0.03900806 0.2352775 0.15886255
0.068155356 0.110205844 0.20222004 0.11090777 0.15533958 -0.04768226 -0.19605242 0.14427868
-0.12470471 -0.08506091 0.19337843 -0.09370505 0.09079631 -0.044250164 0.17797185 -0.13349581
-0.11740935 -0.0670432 -0.2092184 0.2669471 0.19364594 0.0418658 -0.006502898 0.05775342
-0.14733799 0.23591544 0.15485205 0.28985366 -0.17311342 0.14360353 0.1010541 0.24565639
0.15532956 -0.057370245 -0.066844985 0.038722765 0.02092705 0.21544746 -0.14553566 0.071989775
0.21973005 -0.05255134 -0.031295873 -0.06819799 -0.014827047 -0.18900104 -0.24155736 -0.19380657
-0.2165763 0.3048376 0.09865759 0.012224545 0.08445632 -0.14233786 -0.1512606 0.24272227
-0.24104393 0.15225734 0.13057397 -0.044964686 -0.07236034 0.13706495 -0.013623734 -0.15663561
0.2516007 0.13576572 -0.15089276 0.061632033 0.055877052 -0.123988986 0.1806584 -0.022151839
-0.14931458 0.19320005 0.03681451 0.14385404 -0.14008799 0.21146537 0.14442883 -0.021699512
-0.037488386 -0.18815978 -0.13703446 0.057535894 0.16211417 0.16010842 -0.004287717 0.12987816

fc2.weight f4 [256, 256]
00000000: 9d87 b6bb abd4 82bd 221a 75bd d80c 363d
00000010: 20a8 96bd da1a aa3c 2f9b 65bc 41bc bcbd
00000020: 91e5 39bc 05fc d1bc 7af4 58bd 8947 06bc
00000030: 4278 8339 03d6 74bc f8fb 14bd 58e4 1ebd
00000040: 2e5c 6dbd 64fb 17bd e244 7a3d 398a 56bd
00000050: 22fe 2bbd 559c 1d3d e4e4 bbbc 4921 08bd
00000060: c37b e7bb 6107 0e3c 7dcf b93d e285 b3bc
00000070: 3bcd 5b3d ac06 263c c370 cebc 8a22 1bbc
00000080: f1aa 6cbc c436 19bd bbc0 bd3d 1fb1 ccbc
00000090: 3630 43bd ce64 543d 4247 b3bc 9e16 01bd
000000a0: 7354 be3c 8cf8 183d d480 d6bc db05 a63d
000000b0: 902b cbbd 92ab a5bc d064 ab3b 0c57 8cbc
000000c0: 4529 dc3b 060e 5ebd 475b ce3b 53c1 5c3d
000000d0: 743c 863b 4787 4c3d 6bfa e3bd 64c8 3c3d
000000e0: ade0 65bd 2b30 66bd 5b30 903c 8ebb 1e3d
000000f0: 2ec7 af3d 7271 543d 877a f2bc 7d06 d3bb
00000100: f48f 5f3d 8653 4ebd 2a89 f0ba c69d b9bd
00000110: bf73 e8bd 96fd b03b 27dd f23d 348a a43b
00000120: 5f62 dbbc 3999 9f3d 420c 323b 5915 193c
00000130: e752 4fb9 6a17 a9bd 8656 223c ad27 bdbb
00000140: 0a16 743d 1b5d 72bd 2ed1 0cbd 5d10 953d
00000150: a59e 11bd ce94 6e3b 9065 d4bb 9677 30bc
00000160: 2c7f d93d bb64 253d 3b60 92bd ca05 0f3e
00000170: 5c88 a1bd 7007 383c b208 a8bd c19d 1cbd
00000180: b7a6 033d 611d 4c3d 34e2 a5bd da45 49bd
00000190: 9f04 3f3d b248 21bd f687 55ba 5e1d 96bd
000001a0: bb5d 193c e837 88bc 0c82 a43d c250 0f3d
000001b0: 4513 27bd 4b70 893b 382c 5ebb 56db 013d
000001c0: d683 47bd 3eb5 893c 3421 95bc 492f 9fbd
000001d0: 1e9c ed3c 0c77 e0bc e468 453d a74d 9fbc
000001e0: c019 fb3c c0ec 62bc e64d 9d3c 3fe4 793d
000001f0: 7afc d03c 49d7 623d 5185 07bc 974b cb3d
00000200: fcde 2b3d c762 b5bc e470 07be 6bdf 9bbc
00000210: 8f7f 483d 0db6 4dbd 19dd ab3c 1c72 aebc
00000220: b41b a33b ad41 bfbc d68b 90bd 8311 3f3c
00000230: aa7c 46bd 0dd9 e8bc 900c 91bc 6f73 b7bd
00000240: cc65 89bd d50f 923d 6721 52b9 702e bf3c
00000250: 02a7 883d 5baf 71bd 2763 283d 0de1 6d3d
00000260: d2c7 b23c 1957 1ebc fd26 3ebd b344 0cbc
00000270: 1aaa ee3d 2ea0 bcbc 07e7 07bd ab51 883d
00000280: 7c73 89bd ce81 57bd f9ee cc3d 1936 863d
00000290: ed9a 64bd 64b4 75bd 7fd7 383d d2bf b2bb
000002a0: d1de 843d f2fc e7bc 99e4 7abc 6e5b d03c
000002b0: 8a39 3f3d 7eb5 4e3d cfc9 3abc d694 a03d
000002c0: f850 303b b50c 073d ff50 79bd b8ca ea3c
000002d0: 0f53 21bc 2df8 c53b dd8d 793d ff22 2a3d
000002e0: 2d75 c1bc 6d70 e5bc de2c 2bbd 9791 8c3b
000002f0: 7d55 833d 000e 98bc 7ca4 cebd 19e2 7d3a
00000300: ffc3 a3bb 6009 15bd 61d4 1d3d e828 f9bc
00000310: dfba 4c3d 59fd 4fbd ac64 24bd 9942 9d3d
00000320: b9fb c6bc 3bc7 6b3d 9a59 a8bc 3317 0b3d
00000330: d49b d23c 918a a83d 3c72 1bbd 4e1a 5cbd
00000340: 6ec6 7ebb 81ef a0bc 6e63 87bd 25a0 c2bd
00000350: 9509 91bc 1ed9 1b3d 9b6a 81bc b26a 753d
00000360: bec8 5b3d fc34 c23c d1f7 a53c 48df ba3c
00000370: d234 a93d 8807 413d e517 11bd d5d8 b33d
00000380: 743a 46bd 2cad 5e3c bf74 51bc a0ab f03d
00000390: a0cb c23c dc16 933c 930d d8bb bcef e13c
000003a0: 509d 4a3d 1659 64bc d905 51ba f9f3 58bc
000003b0: 1952 17bd 3084 a23c d61b 8abc 001c bd3d
000003c0: 4ff2 1b3c 0067 b9bd 36ec 5abd 979c 9d3b
000003d0: f483 1e3c 0ddd e33c 35e2 443c af45 89bb
000003e0: 5e12 9abd 0162 42bd 3141 4d3c a69b 8b3c
000003f0: 9b1b 33bd 82ae a93b cdaf 943d 65a4 623d
-0.0055703656 -0.063882194 -0.059839375 0.044445843 -0.07356286 0.020764757 -0.014014049 -0.09215594
-0.011346237 -0.025632868 -0.052967526 -0.008195766 0.00025075866 -0.0149436025 -0.03637311 -0.038791984
-0.057949238 -0.03710498 0.061100848 -0.052377913 -0.041990407 0.038479168 -0.022936292 -0.03323487
-0.007064314 0.008668751 0.090727784 -0.021914426 0.05366252 0.010133427 -0.025200253 -0.009468684
-0.0144450525 -0.037405744 0.09265276 -0.024986802 -0.0476534 0.051853947 -0.021884564 -0.03151571
0.023233628 0.037346408 -0.026184477 0.081065856 -0.09920418 -0.020223413 0.0052305236 -0.017131351
0.006718787 -0.054212593 0.006297502 0.053895306 0.004096562 0.049933698 -0.11131748 0.046089545
-0.05612247 -0.05619828 0.017601183 0.038753085 0.085829124 0.051866002 -0.029599441 -0.0064399824
0.054580644 -0.050372623 -0.0018351425 -0.09063296 -0.11350202 0.0054013235 0.11858588 0.005021358
-0.026780305 0.07792897 0.002716795 0.009343469 -0.00019771942 -0.08256419 0.009908324 -0.005772552
0.05959133 -0.059170824 -0.034379177 0.07278512 -0.035551686 0.0036404612 -0.0064818338 -0.010770699
0.10619959 0.040379267 -0.07147261 0.13967052 -0.078873366 0.011232242 -0.082047835 -0.038236383
0.032141414 0.049832705 -0.080997854 -0.04913888 0.046635266 -0.03937597 -0.0008145565 -0.0732982
0.009360726 -0.01662822 0.08032617 0.034989126 -0.04078986 0.0041942946 -0.0033900868 0.031703316
-0.048709713 0.016810056 -0.018204309 -0.07772691 0.029005107 -0.027400516 0.048195735 -0.019446207
0.030651927 -0.013850391 0.019202184 0.061008688 0.025511015 0.055381093 -0.008271531 0.09926527
0.0419607 -0.022141827 -0.13226658 -0.019027432 0.048949774 -0.050222445 0.020979451 -0.021294646
0.0049776677 -0.023346746 -0.070579216 0.01166189 -0.048458733 -0.02842381 -0.017706186 -0.08957564
-0.06708869 0.07131926 -0.00020039604 0.023337573 0.06672479 -0.059005123 0.041110184 0.058075953
0.021823797 -0.00966432 -0.0464239 -0.008561301 0.11653538 -0.023025598 -0.03317931 0.06656202
-0.0671148 -0.052614026 0.10006518 0.06553287 -0.05581181 -0.059986487 0.045127388 -0.0054549957
0.06487811 -0.028318856 -0.015313291 0.025434222 0.046685733 0.050466053 -0.011400654 0.07840888
0.002690373 0.032971103 -0.06086826 0.028661117 -0.009846463 0.0060415477 0.060926307 0.04153728
-0.023615444 -0.02800771 -0.041790836 0.0042898166 0.0641279 -0.018561363 -0.10089967 0.0009684875
-0.00499773 -0.036385894 0.03853262 -0.030415013 0.0499829 -0.05077872 -0.04013507 0.07678718
-0.024289953 0.057563048 -0.020550538 0.03395767 0.02570907 0.082295544 -0.03795074 -0.053736024
-0.0038875598 -0.019645454 -0.066107616 -0.095032014 -0.017704764 0.038048856 -0.015797904 0.059916206
0.05365824 0.023706906 0.02025977 0.022811547 0.08262028 0.047126323 -0.03542318 0.08781592
-0.04839559 0.013591092 -0.012784182 0.11751485 0.023778737 0.017955236 -0.006593415 0.027580135
0.04946643 -0.013937255 -0.00079735887 -0.013241761 -0.03694353 0.019838423 -0.016858976 0.09233856
0.00951822 -0.09052849 -0.053447925 0.0048099267 0.009675015 0.027815366 0.012016823 -0.004189215
-0.075230345 -0.047456745 0.01252775 0.017041992 -0.0437275 0.0051782737 0.07260094 0.05533256

fc2.bias f4 [256]
00000000: 2660 113b 8550 803d cc19 83bc b5dc 413d
00000010: 6ccf d9bc e67a 523c a414 b93a 6ad1 593d
00000020: 16e2 a33d ad12 ffbb 453e 30bc 526c b23d
00000030: d97d 21bc 2702 81bd 7215 db3c 9ee1 77bc
00000040: e927 a0bd e183 54bc e7ce 5fbd ae0a a13d
00000050: 7e4d 0dbd e210 dbbc 3959 8a3d e2b4 8bbd
00000060: a0f0 11bd 9a87 173d 1eee 15bd f256 3ebd
00000070: c036 463d fbbb 8b3d df54 8d3c b3a8 86bd
00000080: 3488 2fbc 5547 c13a 5dca 0dbd e232 3c3d
00000090: 3016 a53c b595 653c 6285 083d 90f7 1b3d
000000a0: 00cf 263d c921 323b 8f4b 903c ba34 b7bc
000000b0: 73c7 023d 8cfe fc38 cfd8 49bd de95 10bd
000000c0: 69ad 6abd 023c 193c 8e77 a43a e1b4 d0bc
000000d0: ede7 163d 6fd4 8a3c 8dea afbc a210 8abd
000000e0: b543 3c3d b2a5 4abd ebd3 11bd 0b3b 983d
000000f0: 1a35 3f3d ba97 d43c c3c5 143d e2dc f4bc
00000100: 148f 34bc d02a 5c3d eedf 213d 1be4 d43d
00000110: e2bb d53c 868c 903d ecbb d83d 4632 513d
00000120: 8a3b 4c3d 5135 403d ae38 be3c 1775 353c
00000130: 2236 4d3d d5e0 44bb 1a46 ebbc f9a8 1abc
00000140: c2ce 563d b078 a53d 7e10 093d 2563 6ebc
00000150: 459c 533d da0a 743d 2f3d 79bd f0c4 cfbc
00000160: b874 f2b9 10bd 233c 2054 c13d f800 71bc
00000170: d796 8cbc d68c f2bc 5a0d 113d 3cce 353d
00000180: 63ce 943d ab74 393d a8d5 8a3c a8cc bd3c
00000190: a5fa f93d 1257 8a3c f7dd b23c 6fe1 75bc
000001a0: 8b16 15bd 4d32 e43c 53da 5b3d b645 ed3d
000001b0: e5ca 38bd 6d65 913d 3914 963c 3028 1c3d
000001c0: 9541 3fbd 8115 2d3b 258a 933d 88c9 e9bd
000001d0: 0fc0 8fbd f823 47bc b90a 033d 12bb b1bc
000001e0: 5ecf 9dbc 7a48 073d 3c7a 5ebd 2dad 95bd
000001f0: 208b b53c 3935 2d3d ce63 083d cca7 413c
00000200: 550d 9f3d 3c3c 1a3d fd81 5d3d ccdb 233d
00000210: b208 14bd 8c96 373d b7bc 663c a34c c83d
00000220: 6127 5f3c 78c0 bd3c 9982 a9bd ec01 553d
00000230: 6090 59bd 1a3f 973c 7458 403d 4532 833d
00000240: 47ca e43d 9dcc 2cbd 942c 64bd 9eef 593d
00000250: 9f08 843c 49ce 46bc 64bc bb3c 4506 6a3d
00000260: f2b7 863b 0952 b5bc 816a 8bbb e57a 393c
00000270: f671 6dbd 0c2d 88bc 4a03 17bd 668b 6d3d
00000280: 5793 0b3d b009 7abd c3f3 80bd 3a10 153a
00000290: a7a6 223d 0875 6abd efb0 36bd 754f b93b
000002a0: b28f ce3c 9307 7dbd f170 40bd 63e9 6f3d
000002b0: f620 f53d bd8e 823d 304c 833c 209a ab3c
000002c0: f391 023d 7261 00bd 047d 513c 2f0f 7c3c
000002d0: 49fa 6d3d 287e 6bbd a5f6 6f3d e304 1dbd
000002e0: c48c b0bc 68bc 613c 5694 573a 5030 273c
000002f0: 7a6c 373d 0ad5 0fbc d9e8 85bd d39e c2bd
00000300: 8603 023d 7a51 4e3d d54f 553c 2daf 9b3d
00000310: e0fa 943d b2c1 373d 465a c0bc e9ef b0bc
00000320: 9a23 b03d 3d47 60bb d418 263c ba10 82bd
00000330: 9cd7 f93a 5af1 1c3d 5186 2abd 9674 093d
00000340: 793f c93c c2df 123d 38ee dd3c f280 853d
00000350: f6b1 67bd e80c 36bd 81b9 273d 1b6c 93bd
00000360: 36e9 9abc 1ccb 30bd 8c7b 1abc f616 a9bc
00000370: 1ddc b73c 457b 9cba 0527 213e 5c7d eaba
00000380: 9f1b 103d 1784 233b e78d 6d3d f3d2 50bd
00000390: b0b4 2e3c a017 95bc 92cb f6bc 4e47 c63c
000003a0: 4820 42bd 9aa1 113d 0eb3 7c3c 9daa b5bc
000003b0: 89b0 9c3d ff55 4dbd b0b9 843d aa1d 2e3c
000003c0: 3695 5f3d 2157 adbd 8228 b03d 462a 0fbc
000003d0: 9269 fb3d 9c6d 293c c3e8 cb3a 09ea 8dbd
000003e0: d29f 2a3d 950d 97bd 8b3c 933d 47f9 78bd
000003f0: 692b 363d bbfe 393d c07d f53c 6b67 1f3e
0.0022182553 0.06265358 -0.016003512 0.047329623 -0.026588164 0.012846684 0.0014120531 0.05317823
0.08002107 -0.0077842087 -0.010757034 0.08712067 -0.009856665 -0.06299239 0.026743624 -0.015129475
-0.07820112 -0.0129708955 -0.054640677 0.07863365 -0.03449773 -0.026741449 0.06755299 -0.0682161
-0.03562987 0.036994554 -0.03660404 -0.046469636 0.048392057 0.06822964 0.017252384 -0.065751456
-0.010713626 0.001474599 -0.034616817 0.045946963 0.020152181 0.014012744 0.03333033 0.03807789
0.040724754 0.0027180782 0.017614154 -0.02236401 0.03192849 0.000120637094 -0.04927903 -0.035299174
-0.057294283 0.009352686 0.0012547837 -0.025476875 0.036842275 0.016947 -0.021474147 -0.06741454
0.045963008 -0.049474426 -0.03560249 0.074331366 0.0466815 0.025951255 0.036321413 -0.029890481
-0.011020441 0.053751767 0.039520197 0.1039507 0.026090566 0.07058053 0.10582718 0.051073335
0.04986147 0.046925846 0.023220386 0.01107528 0.050100453 -0.0030041237 -0.02871995 -0.0094397
0.052443273 0.0807966 0.033462994 -0.014550005 0.051662702 0.05958066 -0.060849365 -0.025362462
-0.000462448 0.0099938065 0.09439874 -0.014709704 -0.01716177 -0.029608171 0.035413124 0.044386134
0.07265928 0.04527728 0.016947582 0.023168877 0.1220601 0.016887221 0.021834357 -0.015007361
-0.03639845 0.027856017 0.053675007 0.11585562 -0.04511537 0.070994236 0.01832019 0.038124263
-0.046693403 0.0026410522 0.07204083 -0.11415392 -0.07019054 -0.012154572 0.031992648 -0.021695647
-0.01926392 0.033028103 -0.05431579 -0.07308421 0.022161067 0.042287085 0.033298306 0.011819791
0.07766215 0.0376551 0.054079045 0.040004537 -0.036141105 0.044821307 0.014083079 0.09780242
0.0136202285 0.023163065 -0.08276863 0.052003786 -0.053116202 0.018462706 0.046959355 0.064060725
0.11171394 -0.042187322 -0.055706576 0.053207032 0.016117392 -0.012134143 0.02291698 0.057134885
0.0041112835 -0.022133844 -0.0042546396 0.011320804 -0.05797001 -0.016623043 -0.03686837 0.05799427
0.03407606 -0.061044395 -0.06296494 0.0005686317 0.039709713 -0.057240516 -0.04460233 0.005655224
0.025215004 -0.0617748 -0.04698271 0.058572184 0.119691774 0.063748814 0.01602754 0.020947516
0.03187747 -0.03134293 0.012786154 0.015384479 0.05810002 -0.05749336 0.058584828 -0.03833474
-0.021551497 0.01377783 0.0008223703 0.01020439 0.044781186 -0.00877882 -0.06538553 -0.095029496
0.03174164 0.05037067 0.013019522 0.076017715 0.07274413 0.044862457 -0.023480546 -0.021598773
0.086005405 -0.0034222149 0.010137755 -0.063508466 0.0019061449 0.03831611 -0.041632 0.03355845
0.024566399 0.035857923 0.02709113 0.06518735 -0.0565662 -0.044445902 0.040948395 -0.07198354
-0.018910032 -0.04316245 -0.00942887 -0.020640831 0.022443825 -0.0011938593 0.15737541 -0.0017890143
0.03518259 0.0024950558 0.057996657 -0.050982427 0.010663196 -0.018199742 -0.030126367 0.024203923
-0.047394067 0.035554506 0.015423549 -0.022176081 0.07650859 -0.05013084 0.064807296 0.01062719
0.054585658 -0.08463884 0.08601476 -0.008738106 0.12275995 0.010341074 0.0015557039 -0.06929404
0.041656323 -0.073756374 0.07189282 -0.060784604 0.044474993 0.045408946 0.029967189 0.15566795

fc3.weight f4 [6, 256]
00000000: 6ef7 cebd d177 0c3c 72ba 1d39 9705 683d
00000010: 058e 7ebd 5200 57bd 524d e8bc 2a55 eebc
00000020: ffeb 4abd d792 913c 3417 5b3c 9b77 e4bc
00000030: b6d6 5abd a7c1 953c 406f db3b 8d40 07bd
00000040: c338 9fbc fe7b b33b 7a5b 813c e012 53bd
00000050: d61b 61bb 00e9 773c c330 41bd f4fb 13bc
00000060: 2196 983c d56b 803c 878a 323d af88 063d
00000070: a57c 1e3d dd11 653c d4f5 a23c 94d5 61bb
00000080: 5616 18bd 2808 5c3d 1dec 403c cd1b 0abc
00000090: 7cec cebc a26f d43c 72ff e43c 5f50 57bd
000000a0: b4f1 2fbc f93c ce3c b09f 84bc 515f 89bb
000000b0: fc99 d9bc d0ec 5fbc 54d2 4fbd fc9b a7bc
000000c0: 5718 44bd a812 643d b9b0 eabc 7e57 5dbc
000000d0: fa92 8a3d 18a1 183c 39fd f93c cd47 d4bb
000000e0: 1235 18bd 5204 bfbb 4a20 003a b380 393c
000000f0: b6a3 613d e815 2abe 5fc6 5d3d 9e56 503d
00000100: 39c2 583d 2c2f c9bb 57d8 a3bc 1126 40bb
00000110: f41b 2a3d 20e1 b8bc 3c6c 713c 1db7 54bd
00000120: 30a8 01bd 9e32 44bd db59 4a3d 6164 4f3d
00000130: b27e 363d 5c83 d0bc 36ed 9d3a 2d2e 243c
00000140: b275 43bd 927f 56bd f4db 2f3d 5d9b 313d
00000150: d126 453d 562d 67bd e63f 1abd e4c4 0bbd
00000160: 85c6 093d 8e39 d5bc 3a9e 8a3d 39be c8bc
00000170: c0ad 243d 521e 0bbd a6e3 cb3b 75bc 0bbc
00000180: 67ae ed3a e0c7 27bd c264 f2bc 868e 3e3c
00000190: 61bb 4a3d c06f b0bc 4cff 3c3d 8f0c d3bc
000001a0: e609 2239 aced 25bd c3e6 ff3c 8c0f ae3d
000001b0: 0c19 e03c cd13 0abd 9e10 923c af44 263d
000001c0: 002d 30bc 4375 e03b 2634 c43c 4988 e2bd
000001d0: b27d 2cbd 8406 94bc 6066 02bd 17fe f83c
000001e0: 4cc6 ecbc 577a fabd b7bc 1d3a 6805 54bd
000001f0: ac11 25bd 0089 0d3c c1e3 f4bc b597 ee3c
00000200: f6ac 2c3c 5aec 54bd f90b 1dbc 0290 3b3c
00000210: ccc7 39bc 51ac 343b 132c 4ebc 95f3 4f3d
00000220: aadc 703d b92f 91bd e661 47bd 1a1e cd3c
00000230: d9ad b3bc 542a dbbc f6b8 8d3c db34 1a3c
00000240: 7317 fc3c a45f 67bd 2042 23b9 4e17 513d
00000250: 3534 2cbd 0138 45bc dc7e ffbd 8d5b 583d
00000260: cf01 df3c 1143 2dbd 1e9c 89bd ed53 95bd
00000270: 250f 923c 4bab 41bc 32c0 d03c 6bfc 12bc
00000280: b23f 113c 438e b13c 45ca 9bbc 94e6 85bd
00000290: ad2d 0a3d 181b f9bb 89ea 243d ed2f 183d
000002a0: 238a 3a3d 8bac a7bb 3536 d93b 53a2 953d
000002b0: 41c1 efbc 9bf4 93bc 9b07 a23c 1154 05bd
000002c0: 0242 3bbd caa6 43bc 382a 07bd 83ad 5ebd
000002d0: 23eb 473d 9967 1e3d c5ac 403d 317e 64bd
000002e0: 2089 833b 6dff 81bd da13 d4bc 39e3 7cbc
000002f0: 966b 0e3d cb81 153d 1b38 3abd 36cc 6abd
00000300: 2c9d 24bd 75fc 823d ecc3 dbbc c622 48ba
00000310: 50fa be3c d337 093d 6131 fa3c a24f 2a3d
00000320: 0b3b 983d be83 313c 3eb3 c6bc c395 cbbc
00000330: e82e 1abc 781e 273d 72c4 373d 6430 b43d
00000340: eb42 a7bc 7b7c 293d 90b3 a4bd e89f e43c
00000350: 7021 273c f186 cb3b d3b6 0f3d 9f29 023a
00000360: 1c95 7dbc 9843 593c 979c 8cbd 4642 243c
00000370: 8a8d 8d3d 1286 123d cefd c6bd a79b a13b
00000380: 1fcc e23c 50d6 84bc 2fde 8b3b 84d6 00bd
00000390: 2f26 05bd 10e2 2ebb fafd 6bbd 2417 133c
000003a0: 30c1 043d b36d 0ebd 08d8 9dbd 67c4 d23a
000003b0: 17f2 86bd 1752 34bd 4bec 013d 3e1e 163b
000003c0: 7d07 8ebd b1b5 7dbd 6d7c 033d 2bba 0f3d
000003d0: b7da 373d 2812 a43d 884e 27bd 4958 9abb
000003e0: 4ad8 5f3c eaed 50bd c878 3fbd b2ca 68bc
000003f0: c8b9 153d fed1 06bc 3376 12bd ad3a ae3d
-0.10105787 0.008573488 0.00015042143 0.056645956 -0.06214716 -0.05249054 -0.028357182 -0.029093344
-0.04954147 0.017770214 0.013372231 -0.027889064 -0.05342742 0.018280817 0.0066966116 -0.033020545
-0.019436246 0.0054774275 0.01579069 -0.051531672 -0.0034348867 0.015131235 -0.047165643 -0.009032238
0.018626275 0.015676418 0.04358914 0.032845195 0.03869309 0.01398131 0.01989261 -0.0034459578
-0.037130676 0.053718716 0.011775044 -0.00842948 -0.025259249 0.025932137 0.027953837 -0.052566882
-0.010738779 0.025175558 -0.016189426 -0.004192271 -0.026562683 -0.0136673 -0.050737694 -0.020460121
-0.047874775 0.055681854 -0.028648721 -0.013509629 0.06766315 0.0093157515 0.030516254 -0.006478286
-0.037159987 -0.0058293724 0.0004887624 0.011322188 0.055087768 -0.16609919 0.05414426 0.050863855
0.0529196 -0.0061396565 -0.02000062 -0.0029319564 0.041530564 -0.022568285 0.014735278 -0.051932443
-0.031654537 -0.047899835 0.0494021 0.05063284 0.04455442 -0.025453262 0.0012048844 0.010020775
-0.047719665 -0.052367754 0.042934373 0.043361057 0.04813272 -0.05643972 -0.037658595 -0.034123316
0.03363659 -0.02602842 0.067684606 -0.024504768 0.040204763 -0.033964463 0.006222206 -0.008528818
0.0018133641 -0.0409621 -0.02958906 0.01163066 0.049495105 -0.021537662 0.046141908 -0.025762824
0.00015453211 -0.040509865 0.031237965 0.08499059 0.027355693 -0.03371029 0.01783019 0.040592846
-0.010752916 0.006849916 0.023950648 -0.110611506 -0.04211206 -0.018069513 -0.031835914 0.030394597
-0.028903149 -0.12230366 0.00060171954 -0.05176297 -0.040300056 0.00863862 -0.029893758 0.029125074
0.010539284 -0.051983215 -0.009585374 0.011447908 -0.011339139 0.002756853 -0.01258375 0.050769407
0.05880419 -0.070891805 -0.048677348 0.025038768 -0.021933483 -0.026753582 0.01730011 0.009412016
0.0307729 -0.056487694 -0.00015569525 0.051047616 -0.042041976 -0.012037278 -0.124753684 0.052821685
0.027222542 -0.042300288 -0.0671923 -0.07291398 0.017829487 -0.011820625 0.02548227 -0.008971314
0.008865284 0.021674281 -0.019017348 -0.0653812 0.033734966 -0.007602107 0.040262733 0.03715508
0.045541894 -0.0051170043 0.0066287764 0.073063515 -0.029266955 -0.018060973 0.019779017 -0.032550875
-0.045717247 -0.011941621 -0.032999247 -0.054364692 0.04880823 0.038673017 0.047039766 -0.055784408
0.0040141493 -0.06347547 -0.025888372 -0.0154350335 0.03477057 0.036500733 -0.045463663 -0.057323657
-0.040188953 0.063958086 -0.026826821 -0.0007634576 0.023312718 0.033500504 0.030541124 0.04157985
0.074331366 0.010834632 -0.024255391 -0.024851685 -0.009410597 0.04080054 0.04486508 0.08798292
-0.020417651 0.04137848 -0.08042061 0.02790828 0.010200843 0.0062111546 0.035086464 0.00049653085
-0.015477445 0.0132607445 -0.06865805 0.010025566 0.06911762 0.03577239 -0.09716378 0.0049318853
0.027685223 -0.016215473 0.0042684297 -0.031454578 -0.032507118 -0.0026685037 -0.057615258 0.008977685
0.0324108 -0.034772586 -0.0770722 0.0016080261 -0.06589144 -0.0440236 0.031719487 0.002290621
-0.06935022 -0.061940853 0.032101084 0.035089653 0.044886317 0.080112755 -0.040846378 -0.0047102314
0.013662407 -0.051008143 -0.046746045 -0.014208483 0.036554128 -0.008228777 -0.035757255 0.08507285

fc3.bias f4 [6]
00000000: 5eca 483c b54d 18bd 35cf 00bc f382 863c
00000010: 9d5b 413c f1f8 c3bb
0.012255279 -0.037183482 -0.007861902 0.016419863 0.011801627 -0.005980604
