half_cheetah_im.pth (torch, 25496 bytes, 6 tensors)

fc1.weight f4 [64, 17]
000000 5c 6d 5f be f3 7f 8a 3d 74 46 57 3c 9e d0 8c 3d
       -0.21819061 0.067626856 0.013139356 0.06875728
000010 0e 53 b0 3d 9d 58 96 bd f0 41 70 3d a7 a0 c3 bc
       0.086095914 -0.073411204 0.058656633 -0.023880316
000020 a0 91 d1 3d c2 e4 a5 bd 02 bc 1b 3d 13 60 42 be
       0.10232854 -0.08100273 0.038021095 -0.18981962
000030 f0 20 c9 bd b1 d7 0f 3e ae 61 30 be 82 38 84 be
       -0.098207355 0.14047123 -0.17224762 -0.25824362
000040 b8 8f 9e 3d df 86 9a bc 6d 82 30 3d 31 47 58 be
       0.07742256 -0.01886314 0.043093134 -0.21120907
000050 95 d1 06 be 83 f3 92 3c 71 09 78 3c 66 c3 0a be
       -0.13165887 0.017938381 0.01513897 -0.13551101
000060 d2 d0 46 be ed b8 25 bd 8a 84 98 bc a0 f3 0e be
       -0.19415596 -0.040459562 -0.018617887 -0.13960123
000070 68 72 06 be ed d8 20 be 26 16 51 bc bf c7 43 3e
       -0.1312958 -0.1570775 -0.012761628 0.19119166
000080 13 b0 d1 bd 81 f0 04 bc 93 bd 88 3e 0e df 2f be
       -0.102386616 -0.008113981 0.26707134 -0.17174932
000090 08 e8 3c 3e 6c 3d 1e be 35 fd fc 3d 4a c6 10 3e
       0.18447888 -0.15453118 0.12352983 0.14138141
0000a0 2e 4b dc bd 32 1c 57 be c2 1e ce bd ba e0 fb bd
       -0.10756527 -0.2100685 -0.1006446 -0.122987226
0000b0 67 10 3a be e8 fb 25 bc e8 52 2a be 5b 1d 57 3e
       -0.1817032 -0.01013086 -0.16633189 0.21007292
0000c0 25 90 6a 3e a2 23 18 be 89 0f b5 bc c6 59 02 3e
       0.2290655 -0.14857343 -0.022102134 0.12729558
0000d0 a8 6b 9a 3e 4c 07 e0 bd 7c 6c 11 3d 89 74 40 be
       0.3016026 -0.10938892 0.03550385 -0.18794455
0000e0 dd 5e 9a be 2b 2e 84 3e 92 4d 4c 3a 02 33 67 be
       -0.301505 0.25816473 0.00077935413 -0.22578052
0000f0 45 14 84 be 45 f3 41 3e 70 59 8f 3e 51 11 93 3c
       -0.25796714 0.18940456 0.27997923 0.017952593
000100 5d 87 42 3d 9d 97 20 3e bb 56 9b be e8 43 f7 bd
       0.047492374 0.15682836 -0.30339608 -0.12073499
000110 b4 1e 88 3d 18 06 6a be 66 01 ab bd f6 70 a0 bd
       0.06646481 -0.22853887 -0.08349876 -0.078340456
000120 a0 b7 0e be d0 5a 79 be 69 7a 3f be 97 81 54 3d
       -0.13937235 -0.24351048 -0.1869904 0.0518814
000130 7b 95 df 3c 65 5e 40 3e cd 4f 73 be 17 01 37 be
       0.027292958 0.18786009 -0.2376091 -0.1787151
000140 7c f4 36 3e e5 8f eb 3d 26 29 7d 3e 2d c6 0b be
       0.17866701 0.11502055 0.24722728 -0.13649817
000150 4f 06 0c be a7 22 40 be ac 60 d5 bd 99 10 85 bd
       -0.13674282 -0.18763219 -0.10418829 -0.064973064
000160 c6 da 94 3d 54 f8 36 3d a3 58 1d be 25 02 53 3d
       0.0726829 0.044670418 -0.15365843 0.051515717
000170 5e 16 1e 3e 4b 89 b9 3d ba 7a 9a bd fe ba d0 3b
       0.1543822 0.0905939 -0.075429395 0.0063699475
000180 c1 4f 32 ba 2d a7 22 3e 18 1d d2 bd a5 5d 00 bd
       -0.00068020454 0.15884085 -0.102594554 -0.031339306
000190 ed 2e 37 be d3 b6 f7 3d e9 dc 2e 3d fd 2c 25 be
       -0.17888995 0.12095418 0.042691145 -0.16130443
0001a0 b4 c3 97 3c 5f a0 48 be 0f f5 00 bd 3a d6 ea bc
       0.018525936 -0.19592427 -0.031483706 -0.028666604
0001b0 1e 4e 26 be 78 39 2d 3e 21 c2 82 3e fb df 40 3e
       -0.16240737 0.16916454 0.25538734 0.18835442
0001c0 33 73 48 be da a1 81 be 20 a9 8d 3e 07 cb 52 be
       -0.19575195 -0.25318795 0.27668095 -0.20585261
0001d0 52 b4 c6 3d 2d 94 bb 3d 4c 97 0f 3d f6 3d e3 bd
       0.09702362 0.09159122 0.035056397 -0.110958025
0001e0 c7 96 42 3e 19 e4 91 bd d9 3f 61 be 5d eb a2 3d
       0.1900283 -0.07123584 -0.21997012 0.07955048
0001f0 df 41 58 be ed 14 86 3e 20 02 ec bc 73 42 16 3d
       -0.21118878 0.2618784 -0.028809607 0.036684465
000200 b5 ef 98 bd 5d 2b c0 3c e5 99 82 bd 33 f5 65 3d
       -0.074675955 0.023458177 -0.06377009 0.056142043
000210 b5 85 79 3e d8 b8 52 3e 77 a8 11 3e c1 0c 18 3d
       0.24367411 0.20578325 0.1422442 0.037121538
000220 fe 05 0b 3c 00 ce a5 bd 6a a3 e3 bd 1b 0e 74 3d
       0.008485315 -0.08095932 -0.11115153 0.059583765
000230 2a 58 47 be 47 7d bb 3d 2d 22 cf bd ae 54 f0 3d
       -0.19467226 0.09154754 -0.101139404 0.11734901
000240 ee 9f 09 3e ac a5 d1 3d b0 da d5 bd f1 01 5d 3d
       0.13439915 0.102366775 -0.10442102 0.05395693
000250 64 db 44 be ae 6b 10 be 98 5f 4b 3e a1 1e c0 3d
       -0.19224316 -0.14103577 0.19860685 0.09380842
000260 22 ca 12 3d 27 55 67 be 5f 3c c9 3d e8 6b 9d bd
       0.0358373 -0.22591077 0.09825968 -0.07686597
000270 7e 60 08 be 74 91 5c 3e f6 99 2d be 17 74 58 3d
       -0.13318059 0.21539861 -0.16953263 0.052845087
000280 08 5c 97 3e 4d 09 5c be 14 cd dc bd 39 97 1a 3c
       0.29562402 -0.21487923 -0.10781303 0.009435468
000290 63 c8 f7 3d 0e 80 88 bd 66 ab e0 bc 30 58 5e 3d
       0.120987676 -0.066650495 -0.02742548 0.05428332
0002a0 7f 0c 73 be 72 c6 96 be 0c d9 2e 3e 0c 2d 43 3e
       -0.23735236 -0.29448277 0.17074984 0.19060153
0002b0 15 e0 1b 3d ee 39 4a 3e c0 52 29 3e 64 c5 0e 3e
       0.0380555 0.19748661 0.16535473 0.13942486
0002c0 dc 20 38 be a2 68 74 3e 47 83 94 3d 3d 4d c3 3b
       -0.17981285 0.23868039 0.07251602 0.0059601353
0002d0 11 42 e6 bc 46 14 d8 3d ca 89 32 3d 0a 15 a2 3d
       -0.028107675 0.10550742 0.043588437 0.07914169
0002e0 b0 95 48 3e 5e 0a 03 3e 86 d1 b9 3d 39 1a 0f 3e
       0.19588351 0.12796924 0.090731665 0.13974847
0002f0 81 a3 c3 bd c6 1f 17 3d c3 54 e8 3d 9b 9b f4 3c
       -0.0955267 0.036895536 0.11344292 0.029859355
000300 da 0a 6b 3c cc 76 ba 3d d7 e3 3e be 18 82 39 3e
       0.014345849 0.0910469 -0.18641602 0.18116033
000310 90 c0 b2 bd cb 64 1c 3d df 05 09 be fd 68 84 3e
       -0.08728135 0.03818206 -0.13381146 0.2586135
000320 ef 3c d5 3d 83 f1 4d be f9 66 17 be 6e a7 46 bd
       0.10412013 -0.2011166 -0.14785375 -0.048499517
000330 aa 87 6e be 82 1b 85 3e a8 58 51 be 84 cc 72 3d
       -0.23293939 0.2599755 -0.20443976 0.059277073
000340 61 47 79 3e 0e 51 95 3d 33 17 0e 3b 16 bd 96 3d
       0.24343635 0.072908506 0.0021681308 0.07360284
000350 48 33 97 bc b5 57 50 3d 0c 99 a0 bd a3 ac 38 bd
       -0.01845707 0.050864894 -0.078416914 -0.045086514
000360 dd aa 80 3e 32 48 fa bd da 34 fe 3d 3c 51 26 bd
       0.25130358 -0.122208014 0.124124244 -0.040604815
000370 d0 e2 a7 3d 80 e1 37 3d 0d 75 bd 3d 12 8b 39 3e
       0.08197558 0.044892788 0.09250841 0.18119457
000380 3a 02 33 be de 62 61 be 75 a7 0a 3e 8d b0 b0 3d
       -0.17481318 -0.22010371 0.13540442 0.086274244
000390 98 e9 38 be 9c c1 fe 3b cf b2 73 be c9 2f 74 be
       -0.18057859 0.007774545 -0.23798679 -0.23846354
0003a0 a6 26 18 3d 2d dc db bd e3 2e 72 3c 4c fc 45 3e
       0.037146233 -0.107353546 0.0147816865 0.19334525
0003b0 20 f0 30 be db 11 eb 3d 2b 49 0d 3d b4 11 bf 3d
       -0.172791 0.11478015 0.034493607 0.093295485
0003c0 98 da ec bb 64 01 f0 bc f0 c2 d9 3c fd f8 26 be
       -0.007228207 -0.029297538 0.026582211 -0.16305919
0003d0 c3 e6 55 3e 14 ff 7c 3d 62 8d 6e be d9 fc 16 be
       0.2088881 0.0617667 -0.23296121 -0.14744891
0003e0 f4 e5 e5 bd cb e8 93 3d be 6b a6 3d db 5b eb 3d
       -0.11225501 0.07222136 0.08126019 0.114921294
0003f0 89 5a 93 3e af 43 ac bc 44 76 a2 bd a6 ab 4e 3c
       0.2878001 -0.021028368 -0.07932714 0.012614166

fc1.bias f4 [64]
000000 5e e5 da bd 21 04 d5 bc df f8 82 3d 34 28 6c 3d
       -0.106882796 -0.026002945 0.06395125 0.05765553
000010 cc e0 91 3d 1c 8b 11 3d f7 b5 c5 3d 16 9f 80 3d
       0.07122955 0.035533056 0.09653848 0.06280343
000020 ad 79 d3 bd 4f 01 70 3e d1 b0 9b 3e b1 35 b2 bd
       -0.10325942 0.23437999 0.30408338 -0.08701647
000030 5a 1a 01 3e ee 4a 14 be 15 ec 84 3e ba ad 30 be
       0.12607709 -0.14481708 0.25961366 -0.17253771
000040 22 6a 69 3e 77 74 2f 3e cb b9 53 bd 36 a7 30 be
       0.22794393 0.17134272 -0.051690858 -0.17251286
000050 fa ec 85 3e 14 b3 10 be 5f 82 85 3d 98 7f 83 bb
       0.2615736 -0.14130813 0.06519007 -0.004013013
000060 90 ae b3 bd bc 8a 32 3e 6b e8 60 3e 7b 11 82 3d
       -0.087735295 0.17435735 0.2196366 0.063509904
000070 94 97 5d 3e 30 ae 4e be 42 b6 49 3e a6 89 d7 3d
       0.21639854 -0.20183635 0.19698432 0.10524301
000080 98 60 b6 bd 2c a9 eb bd a5 5f 50 3e 3a a4 d8 3d
       -0.089051425 -0.11506876 0.20348985 0.10578199
000090 bf 0c c0 3d 07 24 39 3e 5b 32 60 3e a7 d3 1e be
       0.09377431 0.1808015 0.21894209 -0.15510426
0000a0 f0 dd 70 3e 87 99 03 be 97 7c fb 3c a6 52 02 bd
       0.23522162 -0.12851535 0.030699058 -0.0318171
0000b0 91 31 09 3e 19 5f c8 3c 88 c2 83 3e 72 e7 6e 3e
       0.13397814 0.024459409 0.25734353 0.23330477
0000c0 1d d8 a3 3d 76 5a 32 bd 4c 34 b8 bd 13 07 0f be
       0.08000205 -0.0435433 -0.0899435 -0.13967542
0000d0 d8 2b b8 3d e6 35 4c be 39 ab 9b bd d3 30 2a be
       0.089927375 -0.19942436 -0.076010175 -0.16620187
0000e0 56 6f 67 3e e2 75 33 3e 77 7a 7b 3e de 88 0e 3c
       0.22601065 0.17525437 0.24558435 0.008699624
0000f0 f0 2c 81 bc a8 c8 11 bc fb 52 03 3e e6 b0 d8 bd
       -0.015768498 -0.008897938 0.12824623 -0.10580616

fc2.weight f4 [64, 64]
000000 ce f2 f0 bd 46 c3 cf bb 35 81 4b bb 98 2d dc ba
       -0.11765061 -0.006340417 -0.0031052355 -0.0016798256
000010 3c 5b 09 be b1 d8 d9 bc f3 5a 45 bd f4 92 37 bc
       -0.1341371 -0.026592584 -0.04818244 -0.01120447
000020 f8 ff 70 3d 14 02 d7 bd 51 b4 02 bc f3 22 b3 bd
       0.05883786 -0.10498443 -0.007977561 -0.087469004
000030 e7 06 11 be 0f b7 6e 3d 99 11 5c 3d 2e 9a b1 bd
       -0.1416279 0.058280047 0.05372772 -0.086719856
000040 77 a7 3f bd c0 1a 1f be ee 1e 08 be 5a 1b a6 3d
       -0.046790566 -0.15537548 -0.13293049 0.08110686
000050 23 48 7e bd d1 6c 91 bd 56 42 d6 3d 5e ac 2b bd
       -0.062080514 -0.07100833 0.10461871 -0.04191243
000060 53 73 58 bd 99 b9 7c ba ea 64 ff bc f6 3f 0d 3c
       -0.052844357 -0.00096406933 -0.03117605 0.0086212065
000070 4a 70 ab 3c 47 66 ae 3c 50 77 3b 3c 8a 77 c0 3d
       0.020927567 0.021289004 0.011442021 0.093978
000080 2e 85 c7 3d 6e 84 91 bd c5 08 b1 bd 74 75 11 be
       0.09742199 -0.07105337 -0.08644251 -0.14204961
000090 f6 57 60 3c 2a 5b ea 3d e0 02 57 bd d9 3a d5 3c
       0.0136928465 0.114431694 -0.052492976 0.026029037
0000a0 ad 8c a9 3d 28 2a d3 bd d7 47 05 be 60 31 24 be
       0.08278785 -0.10310775 -0.13015686 -0.1603446
0000b0 24 57 90 bd 7e a2 0c bb 38 a9 fa bd 2c 11 d7 bd
       -0.07047871 -0.0021459158 -0.12239307 -0.10501322
0000c0 8f 9f 14 be 7f 81 02 bc 63 fd f8 3d e2 98 c7 bd
       -0.14513992 -0.007965445 0.12157705 -0.09745957
0000d0 46 bd 29 bd 79 f4 54 bd db ef bd 3d 36 7a c0 bc
       -0.04144027 -0.05199096 0.092742644 -0.023495775
0000e0 17 dd 83 3c be b7 c0 3d 7f 0d 1e 3e 42 0a c6 bd
       0.016096635 0.09410046 0.15434836 -0.09669925
0000f0 61 46 04 bd 94 6b 9e 3d c6 f9 c4 bd 48 2a dd bd
       -0.03229368 0.07735363 -0.09617953 -0.1079908
000100 a3 ec 42 3e 36 89 74 bd aa af de bd e2 aa 93 3c
       0.19035582 -0.059701167 -0.10873349 0.01802582
000110 e3 8d ae bd 85 d6 bb 3d fd 49 8b 3d 90 09 7b bd
       -0.085231565 0.09171776 0.068012215 -0.061288416
000120 d2 cc 8e 3d fa 0f 32 3d e4 d4 cd bd af 3e 38 3d
       0.0697266 0.043472268 -0.10050371 0.044981655
000130 3e 66 9f bd ae d0 c4 3d 99 c8 9c 3d a8 65 af bd
       -0.07783173 0.09610115 0.076554485 -0.08564311
000140 92 0b cb bd b3 a5 5a 3d 3b ed 89 3d 8b a7 09 3e
       -0.09914316 0.05338068 0.06734701 0.13442819
000150 fa 90 c0 3d 2c bc b3 3d 8a cf 1c 3e cf a1 71 bc
       0.09402652 0.08776125 0.15313545 -0.014748051
000160 1e 60 15 be 68 46 b3 3d bd 20 41 bd d3 79 e1 3d
       -0.14587447 0.08753663 -0.047150362 0.11009564
000170 98 04 f7 37 35 e7 9d 3d d9 60 12 bd d9 4e aa 3c
       2.9446834e-05 0.07710115 -0.035736892 0.02078955
000180 71 2d fe 3d d1 67 8b 3d 3e b4 86 bd 9c 2b 93 bd
       0.12411011 0.06806911 -0.06577347 -0.07186052
000190 63 45 2e bd 0a b2 03 3e 3d 4d 0c 3e f3 81 c3 bd
       -0.04254664 0.12860885 0.13701339 -0.0954627
0001a0 c0 d1 8f 3c a8 0a f5 3b 3e 87 4a bd f4 e0 c9 bd
       0.017556071 0.007478077 -0.049445383 -0.098573595
0001b0 81 e7 f0 3c 8f b7 46 3d b2 c7 1a 3e 10 2c 36 bd
       0.029407265 0.0485149 0.1511524 -0.044475615
0001c0 69 80 0e 3e c0 f1 76 3d c7 32 1a 3d 6c 27 44 3e
       0.13916172 0.060289145 0.03764608 0.19155663
0001d0 31 0e 14 be 3c 33 76 bd 10 34 c9 3d 1a 62 84 3d
       -0.14458539 -0.060107455 0.09824383 0.06464024
0001e0 65 3e 16 3e 32 48 da 3c 13 cd 37 3e 91 c3 f2 bd
       0.14672239 0.026645754 0.17949323 -0.118537076
0001f0 46 68 e2 3d 28 29 3d 3d 81 f4 3e 3d 3c 28 80 bd
       0.11055045 0.046181828 0.046619896 -0.06257674
000200 76 09 35 3d ea 63 9e bd f6 21 c8 bd e0 73 ee bd
       0.044198476 -0.07733901 -0.097721025 -0.11643195
000210 06 a6 94 bd bc b3 9c 3d 00 03 0a be 18 0c b1 3d
       -0.07258229 0.07651469 -0.13477707 0.08644885
000220 e3 13 a9 bc ae d9 be 3d f7 c3 01 bd 14 85 7b bd
       -0.020639366 0.09318863 -0.031681027 -0.06140621
000230 1a d3 89 bd 35 51 52 bd b5 2d 13 be 7f 1a bd 3d
       -0.067297176 -0.051346976 -0.14372905 0.09233569
000240 b1 b3 81 bd 25 73 f5 bb bc ff 58 bd 77 2e ab bd
       -0.063331015 -0.007490533 -0.052978262 -0.08358472
000250 50 76 fa 3c d9 9b 5b bd 53 90 68 3d a4 ca d0 3c
       0.030573994 -0.053615425 0.056778263 0.025487252
000260 42 79 83 bd 14 46 3b 3d 15 87 a2 3c 62 af 77 bd
       -0.064196125 0.04572113 0.019839803 -0.060469992
000270 bc 1b 87 3d 8b 9a 13 3c bc 6a 74 3c 28 f4 c9 3d
       0.06597087 0.009009014 0.014918026 0.09861022
000280 34 25 6b 3b 27 10 9e bd 7d ec 25 3d b0 a3 d0 bb
       0.003588033 -0.077179246 0.040508736 -0.0063671693
000290 51 6d 18 bd 99 be 8a bc 78 cc b7 bd 9e 1d 42 bd
       -0.037213627 -0.016936587 -0.08974546 -0.047391526
0002a0 f7 8c 9a bd 84 a5 d5 bc a7 03 9b bd d9 09 63 3d
       -0.07546418 -0.0260799 -0.07569056 0.055429313
0002b0 bd 04 16 3c 23 c3 90 3d 3b 67 c2 3d f4 72 fc bc
       0.009156403 0.070684694 0.09492346 -0.030816533
0002c0 c1 b5 8b 3c 88 3e c0 3c be d6 b3 3c 49 d7 9a bd
       0.01705444 0.023467317 0.021952983 -0.07560594
0002d0 8c dc 52 bc 30 34 b8 3d be 53 96 bd 3b 4a 91 bd
       -0.012869965 0.08994329 -0.07340191 -0.070942365
0002e0 ca a6 ef 3b dd 11 4d bd a4 22 8a 3c b1 4e a8 bd
       0.007313584 -0.050065864 0.016862221 -0.08218134
0002f0 69 8f a6 3d e9 1d 1c 3d 48 57 1b bb 44 f6 d6 bd
       0.08132822 0.038114462 -0.0023703147 -0.1049619
000300 68 f2 4f 3d 9b 7e 89 3d 17 72 a2 3d e1 04 ba 3d
       0.050768286 0.06713601 0.07931917 0.09082962
000310 76 cc 45 bd 6c 47 80 bd f6 84 f6 bd 6b 0a 1b 3e
       -0.048290692 -0.06263623 -0.12037079 0.15140693
000320 06 cc 22 3d 68 51 3a 3e 29 63 06 3d ff 83 ec 3d
       0.039745353 0.18195117 0.03280941 0.11548614
000330 86 0f 8b bc 21 cb 8d 3d 8a b5 2c 3e 54 b3 ab bd
       -0.016975176 0.069235094 0.16866127 -0.083838135
000340 53 c1 17 be dc 4a 17 3d f0 1a bf 3d 5d 29 26 3d
       -0.14819841 0.036936626 0.0933131 0.04056679
000350 a3 23 2d bb 4a 33 82 bd c6 c0 15 bc 7e ba 35 3b
       -0.0026418946 -0.06357439 -0.009140199 0.0027729566
000360 2d 9d 04 3d f0 ce 12 3e c3 cc 99 3d be e1 b1 3c
       0.032376457 0.14336753 0.07509758 0.021714088
000370 7e 4e 87 3d 1a 33 08 be 7c 19 02 be 4d ae 8a 3d
       0.06606768 -0.13300744 -0.12705034 0.067715265
000380 ff 48 6e bc 88 e9 be bd 8f 79 20 3e ab 6d 4d bb
       -0.014543771 -0.09321886 0.15671371 -0.0031345885
000390 fb 28 00 bd c3 06 18 be 78 d9 86 3d 29 ed b8 bd
       -0.031289082 -0.1484633 0.065844476 -0.0902961
0003a0 c1 aa 22 3e 87 38 28 3e 6b be bd 3d 38 ba 59 3d
       0.1588545 0.16427813 0.09264835 0.053156108
0003b0 43 d9 da 3d 63 2b fd 3c fc 0d 27 3c 20 4c 06 3e
       0.10685971 0.030904477 0.010196205 0.13114977
0003c0 93 e6 1f 3d 0e 77 db 3d df 8f 74 3d be 97 8b 3d
       0.039038252 0.10716067 0.05970752 0.06816052
0003d0 bc 11 f4 3c 8e 37 f8 bc 66 22 1c be 2c 70 ef bd
       0.029793613 -0.030299928 -0.15247497 -0.11691317
0003e0 1c 8b 91 3d 32 c1 6d bd 98 c8 31 bc 1a 7b 88 bd
       0.07106611 -0.058045574 -0.010851048 -0.06664105
0003f0 2b 02 ae bd 18 15 7f bd d1 83 eb bd cc ba d8 bd
       -0.08496507 -0.062275976 -0.11499751 -0.10582504

fc2.bias f4 [64]
000000 c8 f5 d2 3d f7 b8 7d bd f3 f6 2e bd 61 79 d7 3c
       0.10300785 -0.061943974 -0.042715978 0.026302995
000010 66 35 91 3c a5 18 73 bc 26 59 13 bd 23 85 12 3e
       0.017725658 -0.014837419 -0.03597369 0.143086
000020 97 d3 b6 bd dc b3 17 3e 83 00 dd 3d 2f 31 92 3d
       -0.08927076 0.14814705 0.10791113 0.07138287
000030 89 9f ff bc 76 35 c4 3d 5e 01 8b 3d 33 d1 1d 3e
       -0.031204002 0.09580509 0.0678737 0.15411834
000040 9b d2 e4 3d 9e cf 8f 3c 74 49 d3 bd 77 c6 4e bc
       0.11172982 0.017555054 -0.103167444 -0.01262056
000050 50 0c 35 3b 40 6a 39 bd f8 3c 01 3e cf 22 26 bd
       0.0027625747 -0.045267344 0.12620914 -0.04056054
000060 4a e0 1c 3e ef 34 01 3e 37 77 27 bd 32 b6 29 3d
       0.15319934 0.12617849 -0.040885177 0.04143352
000070 98 e3 3a 3d 05 97 0c be a8 0d 20 3e 58 14 07 3c
       0.045627207 -0.13729484 0.1563021 0.008244596
000080 6b 33 9f 3c 2c 67 c7 3d e2 87 d4 3d 08 f7 14 3e
       0.019433698 0.09736475 0.1037748 0.1454736
000090 31 d8 bb bd a2 22 c1 bc b6 b5 d0 3d 1e 5e 13 3d
       -0.091720946 -0.023576085 0.101909086 0.03597843
0000a0 6e 30 01 be 61 cf f1 bd 65 ee d4 3d 07 82 43 3d
       -0.1261613 -0.118071325 0.10397033 0.047731426
0000b0 84 ea 85 3d b6 41 a7 bd c0 9d bc 3d aa 87 c3 bd
       0.06538871 -0.0816683 0.09209776 -0.0954736
0000c0 87 66 24 3e d5 0a 09 bd d8 17 e5 3d c9 37 1b 3e
       0.16054736 -0.033457596 0.111861885 0.15157999
0000d0 26 ce 0e be ff dd 86 bc 49 4e ad bc c4 6c 16 3e
       -0.13945827 -0.016463278 -0.021155493 0.14689928
0000e0 07 c6 10 3e 68 2d 48 3e 41 67 22 3d 4e be 9f bd
       0.14138041 0.19548571 0.03964925 -0.077999696
0000f0 bf 2f 2e 3e b6 31 fa 3d 90 2a 51 3b 1e ac fa 3c
       0.17010401 0.12216513 0.0031916238 0.03059965

fc3.weight f4 [6, 64]
000000 6a 78 19 3d ca c6 2c 3e c5 c2 80 3c a0 b6 69 bc
       0.03746835 0.16872707 0.015717873 -0.014264733
000010 6e 54 34 3e 4a 82 01 be d5 e0 14 be 75 39 f7 3d
       0.17610332 -0.12647358 -0.14538892 0.12071506
000020 d1 08 a9 bc 25 92 ea 3d f7 08 47 3e 39 48 d0 3c
       -0.020634087 0.11453656 0.19437014 0.025425063
000030 4f 2c 87 bd b2 fe 88 bd 6a 79 00 be be 5e d5 bd
       -0.06600248 -0.06689204 -0.12546316 -0.10418461
000040 ec df 32 bd e6 86 26 3e 34 f8 99 bd 7b 3c b9 bd
       -0.04367058 0.16262397 -0.07518044 -0.09044739
000050 90 1c 5a be a6 a3 1f be dc 6a 2c be 1d b9 8e bd
       -0.21299958 -0.1558977 -0.16837639 -0.06968901
000060 e6 f2 c8 bd 6d e7 c7 bd e9 ad af 3d 9b 83 25 3e
       -0.09811954 -0.09760938 0.085780926 0.16163485
000070 71 4c 51 3d c7 51 bb 3d 2d 0a b4 3c f8 9e 03 3d
       0.05109829 0.09146457 0.021977508 0.032134026
000080 d8 3d e1 bd fe cd e4 3d ff 68 c8 3d b8 b0 d3 3d
       -0.10998124 0.111721024 0.097856514 0.10336441
000090 8e 32 c0 3d 14 0d 01 be 39 f8 15 bd 18 5c 0b bc
       0.093846425 -0.12602645 -0.036613677 -0.008505844
0000a0 8f 2f 0c 3e 3e c7 99 bd 6e 86 5e 3b 1a 4b 13 3e
       0.13690017 -0.075087056 0.0033954638 0.14384118
0000b0 77 66 ab 3d 67 dc 0a be dc d3 93 bd da 24 d0 3d
       0.08369153 -0.1356064 -0.07218143 0.10163279
0000c0 c5 db c9 3d ff a0 05 be 45 53 26 bb 65 72 ae 3d
       0.09856371 -0.13049696 -0.0025379222 0.08517913
0000d0 1b 33 bc 3c ea e7 a3 3c 47 19 16 3e 7a 30 e6 3d
       0.022973588 0.020008046 0.1465808 0.11239715
0000e0 6c a9 1f 3e ad 1d 71 bd 17 89 ef 3d f7 11 84 3d
       0.15591973 -0.05886619 0.1169607 0.06448739
0000f0 b5 c0 25 be e0 f3 a8 bd aa c7 07 3e 0c 52 a2 3d
       -0.16186793 -0.082496405 0.1325976 0.079258054
000100 42 77 11 3e fc 88 48 3d ea d8 f3 3c f4 00 71 bd
       0.1420565 0.048958763 0.029766519 -0.0588388
000110 54 b6 d1 3d 88 57 2f 3d 27 66 e5 3c db 33 c4 bc
       0.102398545 0.042808086 0.028002812 -0.023950508
000120 52 76 a8 bd 62 72 b1 bd 2c bd 86 bd e2 97 7e 3d
       -0.08225693 -0.08664395 -0.065790504 0.062156565
000130 48 8b 18 be 48 17 07 3e e4 1b 06 bd 6c 1d 9b 3c
       -0.14896882 0.13192475 -0.032741442 0.018934928
000140 ec e3 9a ba 36 e4 14 3e 37 dd d0 bd d8 3c a0 bd
       -0.0011817194 0.1454018 -0.101984434 -0.07824105
000150 b1 32 12 3e c5 30 95 3d c4 54 ea bd d4 b0 f4 bd
       0.1427715 0.07284693 -0.11441949 -0.1194779
000160 e4 15 15 3e 80 da 19 3e c5 06 3a bd f7 01 01 39
       0.14559132 0.15024757 -0.045416612 0.0001230313
000170 88 f4 cc bd 36 71 cb bc 44 4f 87 3d 2b 13 1c be
       -0.10007578 -0.024834257 0.066069156 -0.15241687
000180 4e 71 eb 3c 59 f7 b1 bd 6c cf 09 bc 9d 74 98 3d
       0.028740551 -0.08689756 -0.00841127 0.07444117
000190 63 9c de 3d 80 32 7b 3b 36 e9 3e bd b2 44 87 bc
       0.10869672 0.003832966 -0.046609126 -0.016512249
0001a0 8f 5c a6 bd c5 f9 b9 3c d1 45 4b 3d 36 db ff bd
       -0.08123123 0.022702107 0.04962713 -0.12492983
0001b0 50 d5 09 be 76 61 fd bd a0 90 29 3d 26 12 89 3c
       -0.13460279 -0.12372105 0.04139769 0.016732287
0001c0 76 49 84 bd fd d2 b0 3d 04 1d 55 3c 3c 97 80 3c
       -0.06459324 0.08633993 0.013007406 0.015697114
0001d0 3a 39 23 3d 8a 02 c4 3d 99 99 f1 bc 93 dd 1c bd
       0.039849497 0.09570797 -0.029492186 -0.038297247
0001e0 21 90 8e 3d 68 46 2b be d0 df d7 3d 8f f0 47 3d
       0.06961084 -0.16726077 0.10540736 0.0488134
0001f0 73 1b be 3c 20 38 a9 3d 65 96 f2 bb c8 e7 a3 3d
       0.023206448 0.08262658 -0.0074031823 0.08003193
000200 d3 bf 76 3d 3e c9 9e bb d3 87 99 bb 60 8c 00 be
       0.06024153 -0.0048457673 -0.004685381 -0.12553549
000210 ad e8 0d 3e 17 76 56 bd 11 69 a6 3d ae 12 b7 bd
       0.1385829 -0.052358713 0.081255086 -0.0893911
000220 7c db a2 bc 03 c5 73 3c cc 04 82 3c a8 41 fa 3c
       -0.019880049 0.014878514 0.015871428 0.030548885
000230 f1 ba d8 bd 8b e6 a4 bd 45 33 03 3e 3c cd fc 3d
       -0.10582531 -0.08051785 0.12812527 0.12343833
000240 a3 04 db 3b 61 e1 6e 3d 03 07 d8 bd d4 be 68 3d
       0.0066839023 0.058320407 -0.105482124 0.056822613
000250 bd 1c 9a 3d ab 13 e0 3d 80 a0 cb bd b8 55 de 3d
       0.07525013 0.10941251 -0.09942722 0.10856193
000260 de 5c ca 3d 81 1f 78 bd 60 88 34 be ff 35 a9 3c
       0.09880994 -0.06057692 -0.17630148 0.02065563
000270 33 d9 e0 bd 3e 4e 3e bd 95 f9 b1 3d a2 88 a6 3d
       -0.109789275 -0.046461336 0.08690182 0.081315294
000280 e6 f7 b7 3d bb 39 19 be 0b fa 30 bd a4 dc e2 3d
       0.0898283 -0.14963429 -0.04320721 0.1107724
000290 49 f5 17 bc f5 80 0a bc f0 cf 19 bd e7 55 51 bd
       -0.009274789 -0.008453597 -0.03755182 -0.051107313
0002a0 2c 7b 31 3e 0a 2e 8c bd f4 7e e5 3d 23 b1 8b 3d
       0.17332143 -0.06844719 0.11205855 0.068208955
0002b0 8a 20 f7 bd 4f e1 26 3e 1d 4a 42 be 78 4b 31 bc
       -0.12066753 0.16296886 -0.18973584 -0.010821216
0002c0 58 4f 46 3d 69 b2 a7 bd 82 9e db bd 2f 4b 7f bd
       0.04841551 -0.08188326 -0.10723592 -0.06232756
0002d0 50 8e ec 3c e1 aa 05 be 2a 43 31 bd b2 d4 32 bd
       0.028876454 -0.13053466 -0.043276943 -0.043659873
0002e0 7a 3d 8e bd 60 0f f9 3d 0c 84 8d 3c 3a 30 3b bc
       -0.069453195 0.12161136 0.017274879 -0.011425072
0002f0 f4 56 ad 3d 7d 9a e0 3d ad aa 2d be 4c 90 21 bd
       0.084638506 0.10966966 -0.16959639 -0.039444253
000300 95 88 0d be dc 9d a3 3d 13 05 aa 3c b1 ad 3f 3e
       -0.13821633 0.07989094 0.020754373 0.18718602
000310 3d b3 b5 bd 97 7c 80 3c e3 cb 2a 3e 8a 99 e9 bd
       -0.088720776 0.015684409 0.16679339 -0.114062384
000320 4a 89 c2 3d 75 60 ba 3d 76 eb 70 3c 38 c9 dd bd
       0.09498842 0.09100429 0.014704576 -0.10829395
000330 47 47 a9 3d eb 23 1e 3d 3a 7f c7 3c 99 34 f0 3c
       0.08265548 0.038608473 0.024352659 0.029321956
000340 0f 0b 08 3c 5c 94 9c bd d4 50 03 bd 1d 07 19 bd
       0.008303418 -0.07645485 -0.032059506 -0.0373603
000350 ca a4 c5 bd fb 83 ec bd c6 88 87 bd 1e 14 63 bd
       -0.09650572 -0.11548611 -0.06617884 -0.055439107
000360 0c 9a 06 be 57 07 44 be 60 d6 e5 3d 77 e9 3b be
       -0.13144702 -0.19143425 0.112225294 -0.18350779
000370 93 fe b0 3d db 86 de 3d 39 66 02 be 76 69 6b 3d
       0.08642306 0.108655654 -0.12734307 0.057473622
000380 1e b0 01 be 2b ac f3 bd 69 92 1c be 8d 22 8f bc
       -0.1266484 -0.11898073 -0.15290226 -0.01747253
000390 96 d0 0f be cd b1 31 3e 4b d7 cb 3d 3f dd b1 bb
       -0.14044413 0.17352982 0.09953173 -0.005427986
0003a0 7b db 3d bd ce 96 ea bc 44 5d 89 bd a7 a8 c9 3d
       -0.04635189 -0.028636362 -0.06707242 0.09846621
0003b0 9a 21 0e 3e 80 85 f3 3d 26 24 4d bd 6b 0f 26 be
       0.13880005 0.118906975 -0.050083302 -0.16216819
0003c0 c9 64 0f be b2 fb 29 3e 7c 69 a4 3d 4c 23 8e 3d
       -0.1400329 0.1659992 0.08027932 0.06940326
0003d0 0d 4b bc 3c a0 c8 a7 bd 6d 1e 04 be 08 02 50 bd
       0.022985006 -0.08192563 -0.12902232 -0.050783187
0003e0 fb 29 6f bc 62 1b 70 3e d7 68 2d 3d 1f cf 11 be
       -0.014597411 0.23447946 0.04233631 -0.14239167
0003f0 c6 80 13 3e dd b7 d9 bd e2 6e fa 3d 7a 52 bc 3d
       0.14404592 -0.10630772 0.122281805 0.09195419

fc3.bias f4 [6]
000000 e6 c8 1a 3e fa 68 ff bb b9 2e 49 3d d8 62 da 3d
       0.15115699 -0.0077944966 0.049116824 0.10663384
000010 f6 fa d1 bb 63 cc c1 bd
       -0.0064080907 -0.09462812
