half_cheetah_im.pth (torch, 685976 bytes, 6 tensors)

fc1.weight f4 [401, 17]
0	0xbe067729	-0.13131393
1	0xbe35caf5	-0.17753203
2	0xbdf9f33b	-0.12204596
3	0x3e9706fd	0.2949752
4	0xbe909f17	-0.28246376
5	0x3cc06eb0	0.02349028
6	0x3e142167	0.14465867
7	0x3e416300	0.18885422
8	0xbe8452cf	-0.25844428
9	0xbe2887e0	-0.16458082
10	0xbe9b891a	-0.30378038
11	0x3d1a7cfe	0.037716858
12	0x3d79c233	0.06097622
13	0xbe197f54	-0.14989978
14	0x3db00c4e	0.08596097
15	0xbe5e2a13	-0.21695738
16	0x3e39fdef	0.18163274
17	0xbef32e1c	-0.47496116
18	0xbddfea95	-0.10933415
19	0x3e2e43a1	0.17017986
20	0x3d8bdee0	0.068296194
21	0xbe08f45a	-0.13374463
22	0xbd204ce4	-0.03913583
23	0x3da3ffcf	0.08007776
24	0xbdc8e7d3	-0.09809842
25	0x3db108aa	0.08644231
26	0xbe1e8ee9	-0.15484203
27	0xbd90e4c4	-0.070748836
28	0xbd9a2796	-0.07527082
29	0xbde14702	-0.10999872
30	0x3e0b8a29	0.13626923
31	0x3dc1f909	0.09471328
32	0x3e95bc23	0.292451
33	0x3e83d172	0.25745732
34	0xbb8977da	-0.0041951956
35	0xbc0a46c2	-0.008439722
36	0xbe17e3ca	-0.14832988
37	0x3ec7da5c	0.39033782
38	0xbe823a5d	-0.25435153
39	0x3decf29f	0.11569714
40	0x3ee4d93e	0.44696993
41	0x3e074829	0.1321112
42	0x3d492a85	0.049112815
43	0xbd496069	-0.04916421
44	0x3d5af00e	0.05345159
45	0x3edd843d	0.43264952
46	0xbe8e1526	-0.2775051
47	0xbe10e2f3	-0.14149074
48	0x3e79adeb	0.2438275
49	0xbdf3e73b	-0.11909338
50	0x3efe9aca	0.4972747
51	0xbf13a7e0	-0.5767803
52	0xbe46b061	-0.1940322
53	0x3cbe799d	0.02325135
54	0x3ee468e7	0.44611284
55	0xbefe07d2	-0.4961534
56	0x3e113888	0.14181721
57	0x3e697351	0.22797896
58	0x3dc108cf	0.09425508
59	0x3e87698c	0.26447713
60	0xbe0019e5	-0.12509878
61	0xbd9fc0d7	-0.07800453
62	0x3e126cb1	0.14299275
63	0x3e6f7664	0.23385006
64	0x3c6a1054	0.0142861195
65	0x3db7a250	0.089665055
66	0x3e140a08	0.14456952
67	0x3e73e342	0.2381716
68	0xbea4a63e	-0.32158083
69	0xbe563e69	-0.20922245
70	0xbebcca62	-0.36873156
71	0x3e0b1890	0.13583589
72	0xbe105e68	-0.14098513
73	0xbbf607ef	-0.00750827
74	0x3d08ed32	0.033429332
75	0x3e23361c	0.1593861
76	0x3d1ea4f8	0.038731545
77	0xbd3f1802	-0.046653755
78	0xbdbe4339	-0.092901655
79	0xbe3dd337	-0.18537603
80	0xbd62091f	-0.05518448
81	0xbd9f88da	-0.07789774
82	0x3e499dcc	0.19689101
83	0xbe131c55	-0.14366277
84	0x3e99aa25	0.30012622
85	0xbe2efc13	-0.17088346
86	0xbe99f412	-0.30069023
87	0x3d9c7104	0.076387435
88	0x3ee445a9	0.44584396
89	0xbd2608f1	-0.04053587
90	0xbc5ea2bc	-0.013588604
91	0x3e50539f	0.20344399
92	0x3ee68430	0.45022726
93	0xbe02f9b3	-0.12790565
94	0xbe00fc9f	-0.12596367
95	0xbe6aba3b	-0.22922604
96	0x3df8b65d	0.12144158
97	0xbcde874a	-0.02716412
98	0xbd5f626c	-0.05453722
99	0x3e5303dd	0.20606942
100	0xbced001e	-0.02893072
101	0xbdda6711	-0.106641896
102	0xbe3ca1e3	-0.1842113
103	0x3d82d7f1	0.06388844
104	0x3de1eb0c	0.1103116
105	0x3ea2799b	0.31733403
106	0xbe83229c	-0.25612342
107	0x3cf6cd3e	0.030127164
108	0x3f11e8ee	0.5699605
109	0x3ed26226	0.41090506
110	0x3eaf323c	0.34218013
111	0x3e535064	0.20636135
112	0xbca2b255	-0.019860426
113	0x3ecaf54e	0.39640278
114	0xbeacaa12	-0.33723503
115	0x3e12eb46	0.14347562
116	0xbe79b71e	-0.2438626
117	0xbe8ffb51	-0.28121427
118	0x3e2d002d	0.16894598
119	0x3ddb2bfd	0.107017495
120	0xbe4887dd	-0.19583078
121	0xbc0f5e6d	-0.00875054
122	0x3f236b28	0.6383538
123	0xbea2330e	-0.31679577
124	0x3d1de2ba	0.0385463
125	0x3ed275a0	0.41105366
126	0x3ed61fe6	0.41821212
127	0xbb2bfa1d	-0.0026241608
128	0x3d3d9959	0.04628882
129	0xbcd9f071	-0.02660391
130	0x3e25fe0b	0.16210191
131	0xbe533587	-0.20625888
132	0xbe279fb8	-0.16369522
133	0xbe9f48a4	-0.31110108
134	0x3eb1482d	0.34625378
135	0x3e90ef24	0.2830745
136	0x3c54ce90	0.012988701
137	0x3de40e41	0.11135531
138	0xbe490ffb	-0.19635002
139	0x3f3f0278	0.7461314
140	0xbe5664b9	-0.2093686
141	0x3cbf896a	0.023380954
142	0x3d1778ca	0.036980428
143	0x3c435241	0.011921466
144	0x3d434488	0.04767278
145	0x3d5994cf	0.05312043
146	0xbca98066	-0.020691108
147	0x3e228d86	0.158743
148	0xbe7f2b31	-0.2491882
149	0xbccca572	-0.024981234
150	0x3cbfc53f	0.023409484
151	0xbc81e325	-0.015855381
152	0xbe3379ad	-0.17526884
153	0xbf018311	-0.50590616
154	0x3e060f8d	0.1309187
155	0x3e6176f7	0.22018038
156	0x3ee82212	0.45338494
157	0xbed6b7ad	-0.41937009
158	0xbe51b8f9	-0.20480718
159	0x3e8151a4	0.252576
160	0x3ee2c6da	0.44292337
161	0x3dd3c6f7	0.10340684
162	0x3e2362a1	0.15955593
163	0x3d72cc11	0.059276644
164	0x3e0568d5	0.13028271
165	0xbde578ef	-0.11204707
166	0xbe1a1a8e	-0.15049192
167	0xbe824d38	-0.25449538
168	0x3ee60ec8	0.44933152
169	0x3ebf3088	0.37341714
170	0xbe3f3862	-0.18673852
171	0xbe2cb36c	-0.16865319
172	0xbd457f9f	-0.048217412
173	0x3ecd6a03	0.40119943
174	0xbef80904	-0.48444378
175	0x3e1cb298	0.15302503
176	0x3ea396dc	0.31951034
177	0x3e476a1c	0.19474071
178	0x3e4951a8	0.19660056
179	0x3e5c5ab6	0.21518978
180	0xbe94ac68	-0.29037786
181	0x3dd6279f	0.10456776
182	0x3ef67d5b	0.48142514
183	0xbdcabbd0	-0.09899104
184	0x3cf6db22	0.030133788
185	0x3dcbe41c	0.09955618
186	0x3e8104d0	0.25198984
187	0xbe4e35e2	-0.20137742
188	0xbdc01ef1	-0.093809016
189	0x3e434dd6	0.19072661
190	0x3e3e1a6d	0.18564768
191	0xbe7f1316	-0.24909624
192	0x3e124ba3	0.14286666
193	0x3d081560	0.03322351
194	0xbd15a291	-0.03653199
195	0x3e52a20f	0.20569633
196	0xbc9941ca	-0.018708128
197	0x3d91c436	0.071175024
198	0x3e23f0c9	0.16009821
199	0x3e2661f4	0.16248304
200	0x3dd81b62	0.10552098
201	0x3e02102c	0.12701482
202	0x3b347652	0.0027536345
203	0x3da38e2a	0.079861
204	0xbda113eb	-0.07865127
205	0x3d79834e	0.060916238
206	0x3dc34846	0.095352694
207	0x3db66e6e	0.089077815
208	0xbe1cc22d	-0.15308447
209	0x3e9bdc6b	0.30441603
210	0x3e9e86df	0.30962273
211	0x3e16217d	0.14661212
212	0x3d84a891	0.06477464
213	0x3d8b49c2	0.068011776
214	0xbe83514b	-0.2564796
215	0x3a76f1a8	0.0009420165
216	0x3e77bae8	0.24192393
217	0xbe937109	-0.28797176
218	0xbdbb9f21	-0.09161211
219	0x3ed3037d	0.412136
220	0x3f100aa4	0.56266236
221	0xbe56be6f	-0.20971082
222	0x3ec32ced	0.38120213
223	0x3db19540	0.08671045
224	0xbd8685d5	-0.06568495
225	0xbe889257	-0.26674148
226	0x3dd03715	0.10166756
227	0x3e1185d4	0.14211208
228	0xbd5ff178	-0.054673642
229	0xbe95f53e	-0.29288667
230	0x3e3c8de3	0.184135
231	0xbed95812	-0.42450005
232	0x3ddb84e8	0.10718709
233	0x3dab2b2d	0.083578445
234	0xbe1852f3	-0.14875393
235	0x3d44883f	0.047981497
236	0x3eb1def5	0.34740415
237	0x3e03b5a6	0.12862262
238	0xbec0f665	-0.37687984
239	0x3e0a1b54	0.13486987
240	0xbda8dfaf	-0.08245789
241	0xbe2601a5	-0.16211565
242	0xbe5cdf53	-0.21569566
243	0x3dfe5f83	0.12420561
244	0xbc1c79c5	-0.0095505165
245	0x3e400abf	0.187541
246	0x3dd67ad4	0.10472646
247	0x3ea08b5d	0.31356326
248	0x3dd9df97	0.106383495
249	0xbd88efb9	-0.066863485
250	0x3e59990c	0.21249789
251	0x3db0e141	0.08636714
252	0x3caae613	0.020861661
253	0x3e5a2f5d	0.2130713
254	0x3e66a141	0.22522451
255	0x3f045e26	0.5170616

fc1.bias f4 [401]
0	0xbe0a82be	-0.13526437
1	0xbe16d7a5	-0.147307
2	0xbefe98cf	-0.4972596
3	0xbf8433ad	-1.032827
4	0x3cf9a603	0.030474668
5	0xbf1bc00d	-0.6083992
6	0xbd25bb40	-0.04046178
7	0xbf22176f	-0.63317007
8	0xbef7666a	-0.48320323
9	0xbe979f1b	-0.29613575
10	0xbf679b29	-0.9047113
11	0xbe89c133	-0.26905212
12	0xbf43069f	-0.7618198
13	0xbf17c130	-0.59279156
14	0xbe0cbdef	-0.13744329
15	0xbf7add6e	-0.97994125
16	0x3dab55a7	0.08365946
17	0xbe8afe81	-0.27147296
18	0xbeda22fc	-0.42604816
19	0xbecd2198	-0.40064692
20	0xbf43e1e4	-0.76516557
21	0xbf50347d	-0.8133009
22	0xbe300842	-0.1719065
23	0xbf16f061	-0.5896054
24	0xbf2158ad	-0.63025934
25	0xbeb1cfd0	-0.3472886
26	0xbcdb36d1	-0.026759537
27	0xbf04e4cf	-0.51911634
28	0xbe380e7b	-0.17974274
29	0xbf566622	-0.8374959
30	0xbe264759	-0.16238154
31	0xbe9a69d7	-0.30158874
32	0xbfaba593	-1.3409904
33	0xbf20041b	-0.62506264
34	0xbe45e396	-0.19325098
35	0xbef3fec1	-0.476553
36	0xbd8af6ca	-0.067853525
37	0xbf1a67ff	-0.60314935
38	0xbf3f4aa3	-0.7472326
39	0xbf8df335	-1.1089846
40	0xbf777edf	-0.96677965
41	0xbf0469ae	-0.51723754
42	0xbf322a2f	-0.6959562
43	0xbf7d5766	-0.98961484
44	0xbe49f752	-0.19723251
45	0xbe923dbc	-0.28562725
46	0xbf261b46	-0.64885366
47	0xbefc7f78	-0.49316
48	0xbf4fa65c	-0.8111322
49	0xbf52b6cd	-0.8231018
50	0xbea3f897	-0.32025596
51	0xbf315429	-0.69269043
52	0xbf7bb90d	-0.9832924
53	0xbe5fdb58	-0.21861017
54	0xbee82d2e	-0.4534697
55	0xbebb4249	-0.3657401
56	0xbf77d5a2	-0.9681035
57	0xbf08b30c	-0.53398204
58	0xbeabc6e0	-0.33550167
59	0xbf9cad86	-1.2240455
60	0xbf141556	-0.57845056
61	0xbdc810f3	-0.09768858
62	0xbee8cdb2	-0.45469433
63	0xbe9e3fee	-0.3090815
64	0xbfc07c46	-1.5037925
65	0xbf4f591b	-0.8099534
66	0xbed330d6	-0.41248196
67	0xbecc45b6	-0.39896935
68	0xbec5a59c	-0.38602912
69	0xbd9a586e	-0.07536398
70	0xbf25d269	-0.64774185
71	0xbd9f26bb	-0.07771059
72	0xbecb7a54	-0.39741766
73	0xbf9cda4c	-1.2254119
74	0xbee991d8	-0.45619082
75	0xbf410ce0	-0.7541027
76	0xbf6a92d9	-0.9163032
77	0xbf1ba33e	-0.6079596
78	0xbef7b7a8	-0.48382306
79	0xbecb2461	-0.39676192
80	0xbfc6b8a1	-1.5525094
81	0xbf3e8fb1	-0.74438006
82	0xbef3f2a4	-0.47646058
83	0xbf398f4e	-0.7248429
84	0x3bb1112e	0.0054036593
85	0xbecd12de	-0.40053457
86	0xbf359bf0	-0.70941067
87	0xbfdeb82a	-1.7399952
88	0xbf2c71be	-0.67361057
89	0xbf58e0a5	-0.8471778
90	0xbf1427bc	-0.5787313
91	0x3d79d4ff	0.060994145
92	0xbf0a5bf7	-0.5404658
93	0x3e4759d4	0.1946786
94	0xbe94336e	-0.28945488
95	0xbf9ea24b	-1.2393278
96	0xbe4737f9	-0.19454946
97	0xbeff3885	-0.49847808
98	0xbea74ba7	-0.32674906
99	0xbe9b9bbe	-0.3039226
100	0xbe81031f	-0.25197694
101	0xbe95c256	-0.2924983
102	0xbe8257de	-0.25457662
103	0xbef2dbbb	-0.47433266
104	0xbeadd2f1	-0.33949998
105	0xbf78a3be	-0.9712485
106	0xbf0696bd	-0.5257376
107	0x3e3bc339	0.1833619
108	0xbf8dd5da	-1.1080887
109	0xbf1eae5c	-0.619848
110	0xbf039592	-0.514001
111	0xbf1da059	-0.61572796
112	0xbf871f76	-1.0556476
113	0xbfb9a117	-1.4502286
114	0xbf63c0d2	-0.88966095
115	0xbf350bbb	-0.70721024
116	0xbe46247e	-0.19349858
117	0xbf703292	-0.93827164
118	0xbf6a9357	-0.9163107
119	0xbf088269	-0.5332399
120	0xbf952c79	-1.1654197
121	0xbf65df40	-0.8979378
122	0xbf36f19d	-0.7146242
123	0xbed92611	-0.42411855
124	0xbf7d08fb	-0.9884183
125	0xbf17281f	-0.59045595
126	0xbf578859	-0.84192425
127	0xbdadb524	-0.084818155
128	0xbf6765c6	-0.9038967
129	0xbefcca13	-0.4937292
130	0xbf946bd0	-1.1595402
131	0xbf10b625	-0.5652793
132	0xbec92308	-0.3928454
133	0xbe8e0835	-0.27740636
134	0xbe4a6a00	-0.19766998
135	0xbe3ac6b9	-0.18239869
136	0xbf92e650	-1.1476536
137	0xbddbef1c	-0.10738966
138	0xbf2bac20	-0.67059517
139	0xbf8ffaeb	-1.1248449
140	0xbf1e1eee	-0.61765945
141	0xbd906248	-0.07049996
142	0xbee889d9	-0.4541767
143	0xbf219cc1	-0.6312981
144	0xbe9ec9b1	-0.31013253
145	0xbe8ac564	-0.27103722
146	0xbdf47288	-0.119359076
147	0x3d3455d6	0.044027172
148	0xbecf88b1	-0.40533975
149	0xbef0e825	-0.47052112
150	0xbf32d068	-0.6984925
151	0xbee40a22	-0.4453898
152	0xbe4b31d0	-0.1984322
153	0xbee252e0	-0.44203854
154	0xbec3f991	-0.38276342
155	0xbf2842b2	-0.6572677
156	0xbf2b2479	-0.6685253
157	0xbf2da296	-0.6782621
158	0xbf2bef04	-0.67161584
159	0xbf3550fb	-0.7082669
160	0xbf6af879	-0.9178539
161	0xbf24ed9d	-0.6442507
162	0xbedf796f	-0.43647334
163	0xbead60e9	-0.33863
164	0xbf7aab95	-0.97918063
165	0xbf66825b	-0.90042657
166	0xbf4714ad	-0.77765924
167	0x3b90e2c0	0.004421562
168	0xbf414e8f	-0.75510496
169	0xbebe1598	-0.3712585
170	0xbf3b6594	-0.7320187
171	0xbf9b2729	-1.2121326
172	0xbe450d1b	-0.1924328
173	0xbed9cd26	-0.42539328
174	0xbeb3386f	-0.35003993
175	0xbec20709	-0.37895992
176	0xbf776561	-0.96639067
177	0xbe8a9f9b	-0.27074894
178	0xbf801abc	-1.0008159
179	0xbf3ffbd2	-0.7499362
180	0xbf2519eb	-0.6449267
181	0xbf408225	-0.75198585
182	0xbf8f7204	-1.120667
183	0xbf30d1d3	-0.69070166
184	0xbe7d436d	-0.24732752
185	0xbeb3bc22	-0.3510447
186	0xbf2649f1	-0.64956576
187	0x3c5b3c84	0.013381127
188	0xbf3e8b41	-0.74431235
189	0xbf261835	-0.64880687
190	0xbeb7b3e6	-0.3587944
191	0xbf2a38c5	-0.66492873
192	0xbf65161e	-0.89486873
193	0xbed5825a	-0.41701013
194	0xbe5efdc7	-0.21776496
195	0xbee39e27	-0.44456598
196	0xbf66bc0d	-0.9013069
197	0xbf3f3be6	-0.7470077
198	0xbf57edf0	-0.8434744
199	0xbe34ff04	-0.17675406
200	0xbf3ff557	-0.74983734
201	0xbe44d3a9	-0.19221367
202	0xbf8746db	-1.0568498
203	0xbe4b34f0	-0.19844413
204	0xbf658aeb	-0.89665097
205	0xbf5a0af8	-0.85172987
206	0xbea91b21	-0.3302851
207	0xbf7c4a99	-0.98551327
208	0xbf29f6cf	-0.66392225
209	0xbea2179a	-0.31658632
210	0xbdb7bc82	-0.08971502
211	0xbee84fbf	-0.4537334
212	0xbeeada53	-0.45869693
213	0xbe88c54b	-0.26713023
214	0xbf25faab	-0.64835614
215	0x3c457933	0.012052822
216	0xbefdb8ac	-0.49554956
217	0xbf098f0b	-0.5373389
218	0xbf18d3fc	-0.5969846
219	0xbf782103	-0.9692537
220	0xbeda7d48	-0.42673707
221	0xbf42840a	-0.75982726
222	0xbf1dc202	-0.6162416
223	0xbf72118e	-0.94558036
224	0xbe50e5f8	-0.20400226
225	0xbe97ff8f	-0.29687163
226	0xbd990f04	-0.07473567
227	0xbf2eac52	-0.6823169
228	0xbf190d95	-0.5978635
229	0xbf3e5974	-0.74355245
230	0xbf815a3e	-1.0105665
231	0xbea9b453	-0.3314539
232	0xbed6def9	-0.4196699
233	0xbe127251	-0.14301421
234	0xbef22af4	-0.47298396
235	0xbf5c807a	-0.8613354
236	0xbf182a0c	-0.5943916
237	0xbf07a1b3	-0.5298111
238	0xbf0a449d	-0.54010946
239	0xbea5450b	-0.32279238
240	0xbf70c4f6	-0.9405054
241	0xbc4235bb	-0.011853631
242	0xbf0286b0	-0.50986767
243	0xbf322bff	-0.6959838
244	0xbf77777b	-0.9666669
245	0xbf72d9c9	-0.94863564
246	0xbf1048c2	-0.5636102
247	0xbee1f684	-0.4413339
248	0xbf6d0aa8	-0.92594385
249	0xbed3a9e7	-0.41340563
250	0xbedeaf9a	-0.43493348
251	0xbd99c460	-0.07508159
252	0xbf892689	-1.0714885
253	0xbf611203	-0.8791811
254	0xbf287416	-0.65802133
255	0xbf1b6cb7	-0.6071276

fc2.weight f4 [401, 401]
0	0xbddae205	-0.10687641
1	0xbd327c76	-0.043575726
2	0x3ca47192	0.020073686
3	0xbb406ba5	-0.0029361036
4	0xbddc1b4f	-0.10747396
5	0x3c8d27ee	0.017230954
6	0x3d03a6d0	0.032141507
7	0xbd6cec2a	-0.05784241
8	0xbd84a6e5	-0.06477145
9	0xbdbafdef	-0.09130465
10	0xbd829280	-0.06375599
11	0x3d1a4efa	0.037672974
12	0xbd56abb9	-0.05240986
13	0xbd34fdd3	-0.04418738
14	0xbcdd4227	-0.027009083
15	0xbd44d6ef	-0.04805654
16	0xbd174b64	-0.036937132
17	0x3c1c72f2	0.0095488895
18	0xbd0dfc2f	-0.03466433
19	0xbcd92614	-0.026507415
20	0xbd566689	-0.05234388
21	0x3ba7d00d	0.005121237
22	0xbd3849e4	-0.044992343
23	0x3d69531f	0.056964036
24	0xbddbcb12	-0.10732092
25	0x39c75fc9	0.00038027603
26	0xbcc2d42d	-0.023782814
27	0x3c6bbb7b	0.014387961
28	0x3c31b2ca	0.010845849
29	0xbce84e05	-0.028357515
30	0xbd4d8886	-0.050179027
31	0xbc95e96f	-0.018299786
32	0xbdc96787	-0.098341994
33	0xbdd73e44	-0.10509923
34	0xbbac3277	-0.0052550393
35	0xbd1130fd	-0.03544711
36	0xbd54b487	-0.051929977
37	0xbd448bac	-0.047984764
38	0x3b3aa78b	0.002848121
39	0xbdda99b5	-0.106738485
40	0xbcab26cb	-0.020892521
41	0x3cd2d771	0.025737496
42	0xbde83a3c	-0.11339232
43	0xbd0f22dd	-0.034945358
44	0xbdfb924b	-0.122837625
45	0x3d3e292d	0.046425987
46	0xbd871db9	-0.06597466
47	0x3d263ca8	0.04058519
48	0x3c16aa23	0.009195837
49	0xbcdbcdd1	-0.02683154
50	0x3d0495a2	0.032369263
51	0x3caa10ef	0.020760028
52	0xbdc2e7cf	-0.0951687
53	0x3d89a7dc	0.0672147
54	0xbd4b8261	-0.049684886
55	0xbd1bde58	-0.03805384
56	0x3c92f87d	0.017940754
57	0xbd716f2d	-0.058943916
58	0xbdbbaf91	-0.09164346
59	0xbdcee5d4	-0.1010243
60	0xbdaf0eaa	-0.08547719
61	0x3cff366e	0.031153884
62	0xbc9eb34c	-0.019372605
63	0xbd8f0e5b	-0.0698516
64	0xbd11fa94	-0.03563936
65	0xbdb1cbfa	-0.086814836
66	0xbe0252aa	-0.12726846
67	0xbdfd2162	-0.12359883
68	0xbde50f03	-0.11184504
69	0xbd6c2c3c	-0.057659373
70	0x3d2ede2a	0.04269234
71	0x3c92c877	0.017917855
72	0xbc3ba328	-0.011452474
73	0x3d3d610e	0.046235137
74	0xbd3cfe90	-0.046141207
75	0x3ce47792	0.027889047
76	0xbdc72850	-0.09724486
77	0x3ce12a1e	0.027485903
78	0xbd6807b7	-0.056647982
79	0x3ca7558c	0.020426534
80	0xbde5c7ff	-0.11219787
81	0xbd012f68	-0.03153935
82	0xbe088742	-0.13332847
83	0xbd7de395	-0.061984617
84	0x3cc5d927	0.024151398
85	0xbda630d8	-0.08114785
86	0xbd51581e	-0.051109426
87	0xbe086c60	-0.13322592
88	0xbddb70a7	-0.10714846
89	0xbd57d7c5	-0.05269601
90	0xbcd25b1c	-0.02567821
91	0xbdbf7d76	-0.09350102
92	0xbcd8e5b5	-0.02647672
93	0xba30d673	-0.00067458226
94	0xbd39936c	-0.045306608
95	0xbdb1af23	-0.08675983
96	0xbd91c285	-0.0711718
97	0xbd3ec31a	-0.046572782
98	0xbd7a5163	-0.061112773
99	0xbd855332	-0.06510009
100	0xbb8ac6b6	-0.004235114
101	0xbcdff32c	-0.027337633
102	0x3c11712b	0.008877079
103	0x3b43fdfe	0.002990603
104	0xbdb2e1db	-0.08734485
105	0xbd70a5db	-0.058751922
106	0xbe04b97e	-0.12961385
107	0xbcf46be4	-0.029836603
108	0x3b7127f7	0.0036797503
109	0xbd4ba032	-0.04971332
110	0xbd3da726	-0.046301983
111	0xbd474000	-0.04864502
112	0xbd9ae6d5	-0.07563559
113	0xbdc1b634	-0.094585806
114	0x3c033456	0.008008083
115	0xbc9cb7f2	-0.01913068
116	0xbd16b3f5	-0.036792714
117	0x3dc3ad7a	0.095545724
118	0xbd61b7d4	-0.055106953
119	0xbd5d0f1b	-0.053969484
120	0x3d72a0e1	0.059235457
121	0xbc85944a	-0.016306061
122	0xbc73d26f	-0.014881714
123	0xbc0c4d41	-0.008563341
124	0xbcff7178	-0.031182036
125	0xbe05e2b9	-0.13074769
126	0xbd3778be	-0.044792883
127	0xbdcbe3de	-0.099555716
128	0xbdcca619	-0.09992618
129	0xbdb6dcc6	-0.08928828
130	0xbc300834	-0.010744143
131	0x3cf67440	0.03008473
132	0xbba15058	-0.004922908
133	0xbd627373	-0.055285882
134	0xbda8f43c	-0.08249709
135	0xbd797b15	-0.060908396
136	0xbdfb1b3d	-0.12261055
137	0xbdb22f9c	-0.08700487
138	0x3d065da1	0.032804135
139	0x3d4f1f41	0.050566915
140	0xbdc48f3a	-0.09597631
141	0xbda224fb	-0.0791721
142	0xbd0a3e4d	-0.03375082
143	0xbcb8e744	-0.022571214
144	0xbd34e653	-0.044164967
145	0x3ba45739	0.0050152806
146	0xbd2513aa	-0.040301956
147	0xbd437ac1	-0.04772449
148	0xbc85610e	-0.01628163
149	0xbd3ca45a	-0.046055175
150	0xbdda160e	-0.10648738
151	0xbdb15da4	-0.08660439
152	0xbc115655	-0.008870681
153	0x3d0472ae	0.03233593
154	0xbd35141f	-0.044208642
155	0x3cecf63d	0.02892601
156	0xbdb41a1f	-0.08794045
157	0xbde519b8	-0.11186546
158	0xbc0cb3c9	-0.008587786
159	0xbca48483	-0.020082718
160	0xbdc21cf0	-0.09478176
161	0xbcac24cb	-0.021013638
162	0x3d1c6f4f	0.03819209
163	0x3c4f25ec	0.012643319
164	0xbdb52597	-0.0884506
165	0xbd3c6d0a	-0.046002425
166	0xbd440cee	-0.047863893
167	0xbd89ff6c	-0.06738171
168	0xbd71ed92	-0.059064455
169	0xbd90cea3	-0.07070663
170	0xbca91c6d	-0.020643437
171	0xbc8554f7	-0.016275866
172	0xbdb3e28d	-0.087834455
173	0xbd2c7f7a	-0.04211376
174	0xbd14b89b	-0.036308866
175	0xbdb962ea	-0.090520695
176	0xbddfa0ab	-0.10919317
177	0xbbecd5d3	-0.0072276383
178	0xbd8d5333	-0.069006346
179	0xbdfe7cd9	-0.124261566
180	0xbda14626	-0.07874708
181	0xbd7334c6	-0.0593765
182	0x3ce5ce31	0.028052421
183	0x3ca8cc08	0.020605102
184	0x3be980c3	0.0071259453
185	0xbd895faa	-0.067076996
186	0xbcc5222e	-0.02406415
187	0x3b20b3a1	0.002452113
188	0xbdd40d8a	-0.10354145
189	0xbd60c86a	-0.05487863
190	0xbd63aa37	-0.05558225
191	0xbd3ea575	-0.04654451
192	0xbbb0ae11	-0.005391844
193	0xbddf473d	-0.109022595
194	0xbce9e7cf	-0.028552918
195	0xbcb5c48f	-0.022188453
196	0xbe0383bc	-0.12843221
197	0xbd9cef88	-0.076628745
198	0xbd96ace2	-0.073571935
199	0xbda4202c	-0.08013949
200	0xbc1a5740	-0.009420216
201	0xbd942c99	-0.07235069
202	0xbd855014	-0.06509414
203	0xbd5e0fff	-0.054214474
204	0xbce0793e	-0.027401563
205	0xbd3b454b	-0.04572038
206	0xbc697740	-0.014249623
207	0xbd9fb369	-0.07797892
208	0xbc077d54	-0.008269627
209	0xbd9f9425	-0.07791928
210	0xbd354e27	-0.044263985
211	0xbd9effb4	-0.07763615
212	0xbd50f700	-0.051016808
213	0xbc3bc9ea	-0.011461714
214	0xbd70eb50	-0.05881816
215	0xbaa516cc	-0.0012595295
216	0xbd26d093	-0.040726256
217	0xbbf25f48	-0.0073966123
218	0xbcd9241b	-0.026506474
219	0xbdd15acf	-0.102223985
220	0x3d0b69a0	0.03403628
221	0xbc387f80	-0.011260867
222	0xbd9ce5a4	-0.07660988
223	0xbdbc566b	-0.091961704
224	0xbdb30707	-0.08741575
225	0xbde0aef4	-0.1097087
226	0xbd2d4d6f	-0.042310175
227	0x3c580f1e	0.013187198
228	0xbb276521	-0.0025542455
229	0x3cdfcdcc	0.027319811
230	0x3c32cb4d	0.0109127285
231	0xbdabefb4	-0.08395329
232	0xbdd16b52	-0.10225548
233	0xbd4790a1	-0.048721913
234	0xbcbe7931	-0.023251148
235	0xbd1505cf	-0.036382493
236	0xbcf6530d	-0.030068899
237	0xbdb830f8	-0.08993715
238	0xbd44a1f7	-0.048006024
239	0xbd73fd49	-0.059567723
240	0xbdedd98b	-0.11613759
241	0xbd57425b	-0.052553516
242	0xbd99566d	-0.074871875
243	0xbd0e3c28	-0.03472534
244	0xbd21a279	-0.039461587
245	0x3d92a623	0.07160594
246	0xbdb0f525	-0.086405076
247	0xbd30cae6	-0.04316225
248	0xbdde37df	-0.108505
249	0xbdac07c3	-0.08399918
250	0x3d86837b	0.06568047
251	0xbe189fa3	-0.14904647
252	0xbd08d3f0	-0.033405244
253	0xbdde0ade	-0.108419165
254	0xbd03892d	-0.032113243
255	0x3cf07cc5	0.02935637

fc2.bias f4 [401]
0	0xbde46dc0	-0.11153746
1	0xbdea23b9	-0.11432595
2	0xbdb35ed8	-0.087583244
3	0xbdca7c5b	-0.09887
4	0xbe7e5039	-0.2483529
5	0xbddad179	-0.10684485
6	0xbd950eda	-0.07278223
7	0x3b829965	0.003985571
8	0xbdae1aca	-0.08501203
9	0xbc84b463	-0.016199296
10	0xbe87c4c1	-0.265173
11	0xbe037e35	-0.12841113
12	0xbdfc2f17	-0.12313669
13	0x3e903db8	0.28172088
14	0xbe0418c4	-0.12900072
15	0xbe3d741e	-0.18501326
16	0xbe2960cc	-0.16540831
17	0xbd9ad7f4	-0.07560721
18	0xbd58c671	-0.052923623
19	0x3b63fec4	0.0034789303
20	0xbe0778ca	-0.13229671
21	0xbd3433f8	-0.043994874
22	0xbd879c8c	-0.06621656
23	0xbdc0ed93	-0.09420314
24	0xbe87a5cd	-0.26493683
25	0x3d3c385c	0.045952186
26	0x3e5d03cb	0.21583478
27	0xbda3101f	-0.07962059
28	0x3e52909f	0.20562981
29	0xbd94b888	-0.07261759
30	0xbd6e5002	-0.05818177
31	0xbdf11553	-0.117716454
32	0x3ecdb519	0.4017723
33	0x3eb5ee56	0.35533398
34	0xbe4dfc46	-0.20115766
35	0xbe1da7bc	-0.15396017
36	0xbe07e8ba	-0.13272372
37	0xbe0c3d47	-0.1369525
38	0xbdc10e27	-0.094265275
39	0xba905c77	-0.0011013885
40	0xbd84bf6c	-0.06481823
41	0xbe02d88a	-0.12777916
42	0x3e5c2921	0.21500064
43	0x3c690f6b	0.014224867
44	0x3e2ab727	0.1667143
45	0x3bd812eb	0.006594052
46	0xbd84f051	-0.06491149
47	0xbdcde539	-0.100534864
48	0xbd5c06d2	-0.05371744
49	0xbd733c04	-0.059383407
50	0xbdcc0b48	-0.09963089
51	0xbd1558d7	-0.036461677
52	0x3c6de7c6	0.014520591
53	0x3cbc3b0e	0.022977378
54	0x3ec02ded	0.3753504
55	0xbd54e208	-0.051973373
56	0xbdc358af	-0.095383994
57	0xbdc728e9	-0.097246
58	0x3de7c442	0.1131673
59	0xbb8edfc1	-0.0043601696
60	0xbd776233	-0.060396384
61	0xbc7f68ba	-0.015588934
62	0xbc653353	-0.013989287
63	0x3d25333c	0.040332064
64	0xbc7dd451	-0.015492515
65	0xbe28a595	-0.16469415
66	0x3cd44085	0.025909672
67	0xbc98f646	-0.01867212
68	0xbc7480e5	-0.014923309
69	0xbc0475ce	-0.008084727
70	0xbcd14795	-0.025546828
71	0xbe70f78b	-0.2353193
72	0xbd06b9dc	-0.032892093
73	0x3d20e16b	0.039277475
74	0x3d1dc338	0.038516253
75	0x3d37da64	0.044886008
76	0x3e987a22	0.2978068
77	0xbe662f32	-0.22478941
78	0x3d03a19a	0.032136537
79	0xbda4a04b	-0.08038386
80	0x3e94e559	0.29081228
81	0x3de0abbc	0.10970256
82	0xbd6f80cc	-0.05847244
83	0xbe81e3d2	-0.25369126
84	0xbd074d05	-0.033032436
85	0xbda54b88	-0.08071047
86	0xbd744a5e	-0.059641235
87	0xbdd16e51	-0.10226119
88	0x3ed4a54f	0.4153237
89	0xbd3bc9c1	-0.045846704
90	0xbe65e885	-0.2245198
91	0xbd475d4b	-0.048672955
92	0x3d897dd2	0.067134514
93	0x3e1e4ddf	0.15459393
94	0x3dc9ad8b	0.09847554
95	0xbeb99107	-0.3624346
96	0xbdc0d18d	-0.09414969
97	0xbab5d16e	-0.0013871619
98	0xbd07e2aa	-0.033175148
99	0x3eac098c	0.33601034
100	0xbe1a3699	-0.1505989
101	0xbda0c88c	-0.07850751
102	0xbd1e4578	-0.03864047
103	0x3d115695	0.03548296
104	0xbd72e0a1	-0.059296254
105	0xbdce8e55	-0.100857414
106	0xbd5da644	-0.05411364
107	0xbe0f6cf9	-0.14006414
108	0xbe127e9a	-0.14306107
109	0xbcc59246	-0.0241176
110	0x3e172ded	0.14763613
111	0xbe2b2045	-0.16711529
112	0xbd5a210a	-0.053254165
113	0x3f27291e	0.65297115
114	0xbc80a0be	-0.015701648
115	0xbdbcf18e	-0.092257604
116	0x3c0f2c4e	0.00873859
117	0xbe085016	-0.133118
118	0xbca80dce	-0.020514395
119	0x3c3c100a	0.011478433
120	0x3de6ed6c	0.112757534
121	0xbc34fa87	-0.0110460585
122	0xba00095e	-0.00048842083
123	0xbda35ee7	-0.079770856
124	0xbd77b6ef	-0.060477193
125	0xbdae7c31	-0.085197814
126	0xbda01a95	-0.0781757
127	0x3e5ae673	0.21376972
128	0xbd72d88f	-0.059288558
129	0xbd76c9b8	-0.060250968
130	0xbdd00c90	-0.10158646
131	0xbdbb8b7d	-0.09157465
132	0xbe134471	-0.14381577
133	0xbd9aaa93	-0.07552066
134	0x3d4e79c1	0.050409082
135	0xbdcf6332	-0.10126342
136	0xbdd5ec03	-0.10445406
137	0x3c838c32	0.016058061
138	0xbdbeba88	-0.09312922
139	0xbd6d631c	-0.057955846
140	0xbdb6db68	-0.08928567
141	0xbd7b4f6a	-0.061355032
142	0xbdad17af	-0.08451783
143	0xbd51f783	-0.051261436
144	0xbca0893f	-0.019596694
145	0xbcfda4df	-0.030962406
146	0x3c47d649	0.012197086
147	0x3e0c7522	0.13716558
148	0x3eaea699	0.3411148
149	0xbdba6e85	-0.09103111
150	0xbd9630a1	-0.07333494
151	0xbe13b112	-0.14423016
152	0xbbc04c9f	-0.005868509
153	0xbe23c7d9	-0.15994205
154	0x3d475628	0.04866615
155	0xbd6d2579	-0.057897065
156	0xbe8e8701	-0.27837375
157	0xbe8fea7c	-0.28108585
158	0xbd496023	-0.04916395
159	0xbe0ea679	-0.13930692
160	0xbdef815c	-0.11694595
161	0xba9682d2	-0.0011483079
162	0x3d41accd	0.047283936
163	0x3c0513a2	0.008122357
164	0xbd5cb892	-0.053886957
165	0xbd09ecde	-0.03367316
166	0x3e115f78	0.14196575
167	0x3df0e6f4	0.11762801
168	0xbe16f2f1	-0.14741112
169	0xbceba3a3	-0.028764552
170	0xbd7a2544	-0.061070696
171	0xbde3f8b9	-0.111314245
172	0xbeb92777	-0.36162922
173	0xbd0a5c4b	-0.033779424
174	0xbe9e5ea1	-0.3093157
175	0xbdc1cb22	-0.09462573
176	0xbbcd61d3	-0.006267765
177	0x3e13c746	0.14431486
178	0xbcffc8bf	-0.031223653
179	0xbcd3e62d	-0.025866592
180	0xbd84de8c	-0.0648776
181	0xbea700c6	-0.32617778
182	0x3d3c2954	0.04593785
183	0xbe64fbaa	-0.22361627
184	0x3d06702c	0.03282182
185	0x3bfa0fd3	0.007631281
186	0x3d7c6fb3	0.061629962
187	0xbd84e078	-0.064881265
188	0xbde38a69	-0.11110384
189	0x3d0bdab2	0.03414411
190	0xbda4bc1c	-0.080436915
191	0x3bcc8e62	0.0062425593
192	0xbda12c4d	-0.07869778
193	0xbd9450a4	-0.072419435
194	0x3e02a4e6	0.12758216
195	0xbd0bf4ba	-0.034168936
196	0xbdd2fbda	-0.10301943
197	0xbd92cdb3	-0.0716814
198	0xbd0ca070	-0.034332693
199	0xbdc7b9e8	-0.09752256
200	0xbd626ff2	-0.05528254
201	0xbd2ebc25	-0.042659897
202	0xba9ba36d	-0.0011874266
203	0xbe3537c9	-0.17697062
204	0xbd2b24da	-0.04178319
205	0xbc91eab4	-0.01781211
206	0xbc7d06a3	-0.015443477
207	0xbd01e882	-0.031715877
208	0xbdaff679	-0.08591933
209	0xbe5545c4	-0.20827395
210	0xbd694ba0	-0.056956887
211	0xbd3229ae	-0.04349678
212	0xbc91bc2d	-0.017789925
213	0xbe713f52	-0.23559311
214	0xba2cc962	-0.00065912877
215	0x3bf7f77c	0.0075673442
216	0xbd562db5	-0.052289683
217	0xbd3fa5fa	-0.046789147
218	0xbdb69e57	-0.0891692
219	0xbd824ac2	-0.06361915
220	0xbcbbc0b0	-0.022919029
221	0xbdc30659	-0.09522695
222	0xbdb3afbe	-0.087737545
223	0xbc9a5cfd	-0.018843168
224	0xbd4d1b08	-0.050074607
225	0xbceb6aa7	-0.02873738
226	0xbd8fd90c	-0.0702382
227	0xbe20f558	-0.15718591
228	0xbd332d74	-0.04374452
229	0xbdb2a765	-0.08723334
230	0x3d69f588	0.057118922
231	0xbd58bfe1	-0.052917365
232	0x3eaaf93d	0.3339328
233	0x3de0e79d	0.10981677
234	0xbd96d699	-0.0736515
235	0x3efd2cc6	0.49448222
236	0xbd5d40e5	-0.054016966
237	0xbd56c60f	-0.052434977
238	0xbd8a39ee	-0.067493305
239	0x3db870a5	0.0900586
240	0xbd48ce38	-0.04902479
241	0xbe13788c	-0.14401454
242	0x3ef2ca68	0.4742005
243	0x3e612718	0.2198757
244	0xbd288b7c	-0.041148648
245	0xbca4a6c1	-0.020099046
246	0xbcae7f4f	-0.02130094
247	0xbd2c49a8	-0.04206243
248	0xbc66b015	-0.014080067
249	0xbdfdeb81	-0.123984344
250	0xbdbf2197	-0.09332579
251	0xbd510b2f	-0.051036056
252	0xbd4d802f	-0.050171074
253	0xbe635575	-0.22200568
254	0xbdd13f8c	-0.10217199
255	0x3e998ec3	0.2999173

fc3.weight f4 [6, 401]
0	0xbccffdaa	-0.025389511
1	0x3d23d20e	0.039995246
2	0xbcdc8a48	-0.026921406
3	0x3d23af87	0.039962318
4	0xbd33f4b0	-0.043934524
5	0xbd279f5f	-0.040923472
6	0xbc6f8c7d	-0.014620897
7	0xbc809a45	-0.015698561
8	0x3d6216c0	0.055197477
9	0x3d777bc4	0.060420766
10	0x3d09ac0b	0.03361134
11	0x3c6fbb93	0.0146321235
12	0xbc54e4d3	-0.012994009
13	0x3e157260	0.14594412
14	0xbdb32ffd	-0.087493874
15	0xbe16fc32	-0.14744642
16	0x3d3b8057	0.04577669
17	0xba6f4e35	-0.000912878
18	0x3cb8d176	0.022560816
19	0x3cf54c0b	0.029943487
20	0x3b6364b7	0.0034697482
21	0x3d3d8dd7	0.046277847
22	0x3af9780f	0.0019032973
23	0xbcebc5a3	-0.028780764
24	0xbe76c16e	-0.24097225
25	0x3d9e9ae9	0.077443905
26	0xbe33a2ce	-0.17542574
27	0x3c58c23a	0.013229901
28	0x3d3438b8	0.043999404
29	0x3ca91dd5	0.020644108
30	0x3d0f3643	0.034963857
31	0x3ca9afce	0.020713713
32	0x3d8f10da	0.06985636
33	0x3d5c2251	0.053743664
34	0xbdc8f582	-0.09812452
35	0xbc6ebb30	-0.014570996
36	0x3d052b7e	0.03251218
37	0x3c1f5f2e	0.009727282
38	0x3d3a914e	0.04554873
39	0xbc54be98	-0.012984894
40	0x3d8c1468	0.0683983
41	0x3b7ee4ea	0.0038893768
42	0xbdac71aa	-0.08420117
43	0x3d29d2cb	0.041460793
44	0xbd9e3838	-0.077255666
45	0x3b0b5f4a	0.0021266514
46	0x3c9eb7ae	0.019374695
47	0x3c080350	0.008301571
48	0x3c78247a	0.015145415
49	0x3c7bd565	0.015370701
50	0x3dd0156b	0.10160335
51	0x3c2ef763	0.010679099
52	0xbc986ddd	-0.018607074
53	0x3c149e58	0.009070955
54	0xbe1c45d2	-0.1526101
55	0xbcb2ef16	-0.02184252
56	0x3d6c2c05	0.057659168
57	0xbcc8dcaf	-0.024519293
58	0x3b081bda	0.0020768554
59	0x3dc49dc1	0.09600402
60	0xbd4b44c3	-0.049626123
61	0xbdb7b654	-0.08970323
62	0xbdc8aa5b	-0.09798118
63	0xbca067c3	-0.019580727
64	0xbc90a878	-0.017658457
65	0x3ca33117	0.019920869
66	0x3c6fa1fb	0.0146260215
67	0xbbd34bdd	-0.0064482526
68	0x3c216f27	0.009853161
69	0xbc16ad63	-0.009196612
70	0x3cf2e424	0.029649802
71	0xbd9e7f8a	-0.0773917
72	0x3ce51fbf	0.02796924
73	0x3c8a3d15	0.01687483
74	0x3c3cca04	0.011522774
75	0xbe86d22f	-0.26332232
76	0xbe0aa83f	-0.13540743
77	0x3ca191c0	0.01972282
78	0x3c42c6dd	0.011888233
79	0xbe1b5804	-0.15170294
80	0x3d7f59cd	0.0623415
81	0xbd649db3	-0.055814456
82	0x3b2dca8b	0.002651843
83	0xbd16432d	-0.036685158
84	0xbbf64f04	-0.0075167436
85	0xb916691e	-0.00014344274
86	0x3d0edb18	0.034876913
87	0x3d41757b	0.04723118
88	0xbd5c7f63	-0.053832423
89	0x3d86c480	0.06580448
90	0xbe0e3cda	-0.138904
91	0x3bf7b399	0.0075592515
92	0x3b3a1b7d	0.0028397732
93	0xbab90c60	-0.0014118068
94	0x3be71b6b	0.007052829
95	0x3e054597	0.13014828
96	0x3c031f70	0.008003101
97	0x3b6f1629	0.0036481714
98	0x3c8e6b40	0.017385125
99	0xbda365b8	-0.07978386
100	0xbd4e6496	-0.050388895
101	0x3c246f80	0.010036349
102	0x3c36dc09	0.011160859
103	0xbd69aa5f	-0.057047244
104	0x3dae24ca	0.08503111
105	0x3da61572	0.08109559
106	0xbbf7cfc0	-0.0075626075
107	0xbc3d2a65	-0.011545752
108	0x3cee9320	0.029122889
109	0x3b89a6a7	0.0042007747
110	0xbb99b3b0	-0.00469061
111	0xbddc83ce	-0.10767327
112	0xbc45f0d2	-0.012081342
113	0xbe18df32	-0.14928892
114	0xbd7c941a	-0.06166468
115	0x3ca2de95	0.019881526
116	0x3c676ea8	0.014125504
117	0xbd4b0b2a	-0.049571194
118	0x3cd45ad4	0.025922216
119	0x3aa4c684	0.0012571369
120	0xbd73e404	-0.059543625
121	0x3c0244db	0.007950987
122	0xbcc3b62c	-0.023890577
123	0x3dd1cba8	0.102439225
124	0x3d83f4d7	0.06443184
125	0x3d333d90	0.043759882
126	0xbd9785df	-0.07398581
127	0xbd255360	-0.040362716
128	0xbd884bfc	-0.06655118
129	0x3c5949ee	0.013262255
130	0xbd2e312d	-0.042527366
131	0xbcf81032	-0.03028116
132	0x3e0ef49a	0.13960496
133	0x3bb3d8c1	0.0054884856
134	0xbbc81870	-0.006106429
135	0x3cd52a67	0.026021196
136	0xbd5ad53e	-0.05342602
137	0x3e3657f8	0.17806995
138	0x3ccf8b3c	0.025334947
139	0x3d918c96	0.07106893
140	0x3d2d8b07	0.042368915
141	0x3d8231ea	0.063571766
142	0xbd96009b	-0.07324334
143	0x3b3a66d4	0.0028442638
144	0x3cc628d0	0.024189383
145	0xbc0ba8ee	-0.008524163
146	0x3c74b4e3	0.014935705
147	0x3ea80cd4	0.32822287
148	0x3de4fcfb	0.11181065
149	0x3d8809c1	0.066424854
150	0x3c8fa66f	0.017535416
151	0xbda3031d	-0.07959578
152	0x3bce9e65	0.006305503
153	0x3d05b1a9	0.032640133
154	0xbb89c2e2	-0.00420414
155	0x3d6d94f4	0.05800338
156	0xbec31e50	-0.38109064
157	0x3d41b4d9	0.04729161
158	0xbd4365ff	-0.047704693
159	0x3d109a96	0.035303675
160	0x3e433b4a	0.19065586
161	0x3c00c104	0.0078585185
162	0xbbad79f4	-0.005294079
163	0x3b351635	0.0027631645
164	0x3cc5b7b6	0.024135452
165	0xbd25ee56	-0.040510498
166	0x3aa4c3bf	0.0012570544
167	0x3de1d306	0.11026578
168	0x3a9e04a9	0.0012055832
169	0x3d156ec8	0.036482602
170	0xbd17f411	-0.037097994
171	0x3d602b1c	0.054728612
172	0xbdddeb66	-0.10835914
173	0xbd99de3c	-0.07513091
174	0x3d46ea86	0.048563503
175	0x3d40871c	0.04700385
176	0xbd16e58f	-0.036840018
177	0xbc5e7045	-0.013576572
178	0xbdc17d64	-0.094477445
179	0x3c958a3e	0.018254396
180	0x3e071ba2	0.13194135
181	0xbdb8761f	-0.09006905
182	0xbc32d31f	-0.010914593
183	0x3e8d9790	0.27654696
184	0xbc48c985	-0.012255077
185	0x3c891830	0.016735166
186	0x3c4071c3	0.011745873
187	0x3d37d1a6	0.04487767
188	0x3c712fdb	0.014720882
189	0x3afdff0e	0.001937838
190	0xbcb2f3ce	-0.02184477
191	0xbc349211	-0.011021153
192	0x3ce07ad7	0.027402325
193	0x3d31e95c	0.04343544
194	0x3e006db6	0.12541851
195	0x3b0c16b1	0.002137583
196	0x3d1ffbbd	0.039058436
197	0x3cb6af27	0.022300316
198	0xbb62a2cf	-0.0034581905
199	0x3dbed979	0.09318823
200	0x3d092d27	0.033490326
201	0xbdcbe502	-0.09955789
202	0x3cc57237	0.024102313
203	0xbcb38b7a	-0.021917094
204	0xbdbd65e0	-0.09247947
205	0xbc3372b4	-0.01095264
206	0xbc069198	-0.008213423
207	0xbdc125d0	-0.0943104
208	0x3d3c8b27	0.046031144
209	0xbce57ab7	-0.028012617
210	0x3d409789	0.047019515
211	0xbc8b55f3	-0.017008757
212	0x3b86c25f	0.0041125263
213	0x3b911f21	0.0044287597
214	0x3b8e2d67	0.0043389085
215	0xbcdecd06	-0.027197372
216	0x3b3a40d6	0.0028419993
217	0x3a971805	0.0011527544
218	0x3c45690d	0.012048972
219	0x3d1ada16	0.03780564
220	0xbd06a13d	-0.032868613
221	0x3d4fc211	0.050722186
222	0x3cce1268	0.025155261
223	0x3c57c0ab	0.013168494
224	0x3d3bec6e	0.045879774
225	0xbb6c6591	-0.003607128
226	0xbcc7ae86	-0.024375211
227	0xbc2bb916	-0.01048114
228	0x3d457cfc	0.048214898
229	0x3b2e8644	0.0026630322
230	0xbc03fd32	-0.008055972
231	0xbd33a5d2	-0.04385931
232	0xbdaf2d21	-0.085535295
233	0x3bc64d2e	0.006051681
234	0xbb8fe166	-0.0043908833
235	0x3e0971c7	0.13422309
236	0x3c2210ca	0.009891698
237	0x3c48d407	0.0122575825
238	0xbabc2aa7	-0.0014355973
239	0x3c76c0d4	0.015060622
240	0xbc24ce37	-0.010058931
241	0xbcb0f0e1	-0.021599235
242	0xbc600070	-0.013671979
243	0xb948a325	-0.00019134262
244	0xbd09e6b1	-0.03366727
245	0xbd6a2391	-0.057162825
246	0xbd81762c	-0.063213676
247	0x3cc61934	0.02418194
248	0x3bf8be64	0.0075910557
249	0xbc3b038a	-0.011414418
250	0xbd0118ba	-0.03151772
251	0x3ca05e60	0.019576252
252	0x3c90f9a7	0.017697169
253	0xbe2c3cc5	-0.16820057
254	0x3c6919e5	0.014227365
255	0xbcacfcb0	-0.021116585

fc3.bias f4 [6]
0	0x3e7fd3e9	0.24983181
1	0xbcca4581	-0.024691345
2	0x3c268167	0.010162688
3	0x3e8499a4	0.25898468
4	0x3c17e8ac	0.009271782
5	0x3e2451df	0.16046856
